ST Edge AI Core v4.0.0-20500 359356bb0
Created date          : 2026-06-22 18:49:05
Parameters            : analyze --model /opt/DEV/AI/npu_export/model_npu_qdq.onnx --target stm32n6 --mode host --name network --c-api st-ai

Exec/report summary (analyze)
-----------------------------------------------------------------------------------------------------------------------------------
model file         :   /opt/DEV/AI/npu_export/model_npu_qdq.onnx                                                                   
type               :   onnx                                                                                                        
c_name             :   network                                                                                                     
compression        :   lossless                                                                                                    
options            :   allocate-inputs, allocate-outputs, use-lite-runtime, use-st-ai                                              
optimization       :   balanced                                                                                                    
target/series      :   stm32n6                                                                                                     
workspace dir      :   /opt/DEV/AI/st_ai_ws                                                                                        
output dir         :   /opt/DEV/AI/st_ai_output                                                                                    
model_fmt          :   sa/sa per tensor                                                                                            
model_name         :   model_npu_qdq                                                                                               
model_hash         :   0x61bfd30c18a9d62aa942caa8bbd2e45c                                                                          
params #           :   1,378,629 items (5.26 MiB)                                                                                  
-----------------------------------------------------------------------------------------------------------------------------------
input 1/2          :   'input_ids', int32(1x32), 128 Bytes, activations                                                            
input 2/2          :   'attention_mask', int32(1x32), 128 Bytes, activations                                                       
inputs (total)     :   256 Bytes                                                                                                   
output 1/1         :   'logits_QuantizeLinear_Input', int8(1x32x1x374), 11.69 KBytes, QLinear(0.069436282,-52,int8), activations   
macc               :   241,438,275                                                                                                 
weights (ro)       :   1,383,948 B (1.32 MiB) (1 segment) / -4,130,568(-74.9%) vs float model                                      
activations (rw)   :   327,960 B (320.27 KiB) (1 segment) *                                                                        
ram (total)        :   327,960 B (320.27 KiB) = 327,960 + 0 + 0                                                                    
-----------------------------------------------------------------------------------------------------------------------------------
(*) 'input'/'output' buffers are allocated in the activations buffer

Model name - model_npu_qdq
------ ---------------------------------------------------------------- ------------------------- ----------------- ------------- -------------------------------- --- ------------------- ---------------------- ----------------------------------------------- 
m_id   layer (type,original)                                            oshape                    param/size                 macc                     connected to   | c_size              c_macc                 c_type                                          
------ ---------------------------------------------------------------- ------------------------- ----------------- ------------- -------------------------------- --- ------------------- ---------------------- ----------------------------------------------- 
73     val_34 (Placeholder, GatherND)                                   [b:1,h:32,c:2]            64/512                                                             | -256(-50.0%)        +64(+100.0%)           GatherND_/Conversion_[58, 59]                   
------ ---------------------------------------------------------------- ------------------------- ----------------- ------------- -------------------------------- --- ------------------- ---------------------- ----------------------------------------------- 
99     val_60 (Placeholder, Pow)                                        []                        1/4                                                                |                     +81,920(+100.0%)       Eltwise/pow_[11]                                
------ ---------------------------------------------------------------- ------------------------- ----------------- ------------- -------------------------------- --- ------------------- ---------------------- ----------------------------------------------- 
112    __bool_fix_one (Placeholder, Sub)                                []                        1/4                                                                |                     +2,049(+100.0%)        Eltwise/sub_/Conversion_[62, 63]                
------ ---------------------------------------------------------------- ------------------------- ----------------- ------------- -------------------------------- --- ------------------- ---------------------- ----------------------------------------------- 
0      input_ids (Input, )                                              [b:1,c:32]                                                                                   |                                            
       attention_mask (Input, )                                         [b:1,c:32]                                                                                   |                                            
------ ---------------------------------------------------------------- ------------------------- ----------------- ------------- -------------------------------- --- ------------------- ---------------------- ----------------------------------------------- 
39     _to_copy (Cast, Cast)                                            [b:1,c:32]                                             64                   attention_mask   |                                            Cast_[8]                                        
------ ---------------------------------------------------------------- ------------------------- ----------------- ------------- -------------------------------- --- ------------------- ---------------------- ----------------------------------------------- 
40     mdl_model_embed_to..tput_const (Placeholder, DequantizeLinear)   [b:374,c:256]             95,744/382,976                                                     | -382,976(-100.0%)                          
------ ---------------------------------------------------------------- ------------------------- ----------------- ------------- -------------------------------- --- ------------------- ---------------------- ----------------------------------------------- 
41     val_189_Dequantize..tput_const (Placeholder, DequantizeLinear)   [b:256,c:256]             65,536/262,144                                                     | -262,144(-100.0%)                          
------ ---------------------------------------------------------------- ------------------------- ----------------- ------------- -------------------------------- --- ------------------- ---------------------- ----------------------------------------------- 
42     val_194_Dequantize..tput_const (Placeholder, DequantizeLinear)   [b:256,c:512]             131,072/524,288                                                    | -524,288(-100.0%)                          
------ ---------------------------------------------------------------- ------------------------- ----------------- ------------- -------------------------------- --- ------------------- ---------------------- ----------------------------------------------- 
43     val_196_Dequantize..tput_const (Placeholder, DequantizeLinear)   [b:256,c:512]             131,072/524,288                                                    | -524,288(-100.0%)                          
------ ---------------------------------------------------------------- ------------------------- ----------------- ------------- -------------------------------- --- ------------------- ---------------------- ----------------------------------------------- 
44     val_197_Dequantize..tput_const (Placeholder, DequantizeLinear)   [b:512,c:256]             131,072/524,288                                                    | -524,288(-100.0%)                          
------ ---------------------------------------------------------------- ------------------------- ----------------- ------------- -------------------------------- --- ------------------- ---------------------- ----------------------------------------------- 
45     val_202_Dequantize..tput_const (Placeholder, DequantizeLinear)   [b:256,c:256]             65,536/262,144                                                     | -262,144(-100.0%)                          
------ ---------------------------------------------------------------- ------------------------- ----------------- ------------- -------------------------------- --- ------------------- ---------------------- ----------------------------------------------- 
46     val_210_Dequantize..tput_const (Placeholder, DequantizeLinear)   [b:256,c:128]             32,768/131,072                                                     | -131,072(-100.0%)                          
------ ---------------------------------------------------------------- ------------------------- ----------------- ------------- -------------------------------- --- ------------------- ---------------------- ----------------------------------------------- 
47     val_218_Dequantize..tput_const (Placeholder, DequantizeLinear)   [b:256,c:128]             32,768/131,072                                                     | -131,072(-100.0%)                          
------ ---------------------------------------------------------------- ------------------------- ----------------- ------------- -------------------------------- --- ------------------- ---------------------- ----------------------------------------------- 
48     val_322_Dequantize..tput_const (Placeholder, DequantizeLinear)   [b:256,c:256]             65,536/262,144                                                     | -262,144(-100.0%)                          
------ ---------------------------------------------------------------- ------------------------- ----------------- ------------- -------------------------------- --- ------------------- ---------------------- ----------------------------------------------- 
49     val_327_Dequantize..tput_const (Placeholder, DequantizeLinear)   [b:256,c:512]             131,072/524,288                                                    | -524,288(-100.0%)                          
------ ---------------------------------------------------------------- ------------------------- ----------------- ------------- -------------------------------- --- ------------------- ---------------------- ----------------------------------------------- 
50     val_329_Dequantize..tput_const (Placeholder, DequantizeLinear)   [b:256,c:512]             131,072/524,288                                                    | -524,288(-100.0%)                          
------ ---------------------------------------------------------------- ------------------------- ----------------- ------------- -------------------------------- --- ------------------- ---------------------- ----------------------------------------------- 
51     val_330_Dequantize..tput_const (Placeholder, DequantizeLinear)   [b:512,c:256]             131,072/524,288                                                    | -524,288(-100.0%)                          
------ ---------------------------------------------------------------- ------------------------- ----------------- ------------- -------------------------------- --- ------------------- ---------------------- ----------------------------------------------- 
52     val_335_Dequantize..tput_const (Placeholder, DequantizeLinear)   [b:256,c:374]             95,744/382,976                                                     | -382,976(-100.0%)                          
------ ---------------------------------------------------------------- ------------------------- ----------------- ------------- -------------------------------- --- ------------------- ---------------------- ----------------------------------------------- 
53     val_65_DequantizeL..tput_const (Placeholder, DequantizeLinear)   [b:256,c:256]             65,536/262,144                                                     | -262,144(-100.0%)                          
------ ---------------------------------------------------------------- ------------------------- ----------------- ------------- -------------------------------- --- ------------------- ---------------------- ----------------------------------------------- 
73     val_35 (GatherND, GatherND)                                      [b:1,c:32]                                                                        _to_copy   |                                            
                                                                                                                                                            val_34   | 
------ ---------------------------------------------------------------- ------------------------- ----------------- ------------- -------------------------------- --- ------------------- ---------------------- ----------------------------------------------- 
74     embedding (Gather, Gather)                                       [b:1,h:32,c:256]                                            mdl_model_embed_to..tput_const   | +95,744(+100.0%)    +16,384(+100.0%)       Gather_/Conversion_[9, 10]                      
                                                                                                                                                         input_ids   | 
------ ---------------------------------------------------------------- ------------------------- ----------------- ------------- -------------------------------- --- ------------------- ---------------------- ----------------------------------------------- 
75     mdl_model_layers_0..tput_const (Placeholder, DequantizeLinear)   [b:256]                   256/1,024                                                          | -1,024(-100.0%)                            
------ ---------------------------------------------------------------- ------------------------- ----------------- ------------- -------------------------------- --- ------------------- ---------------------- ----------------------------------------------- 
76     mdl_model_layers_0..tput_const (Placeholder, DequantizeLinear)   [b:128]                   128/512                                                            | -512(-100.0%)                              
------ ---------------------------------------------------------------- ------------------------- ----------------- ------------- -------------------------------- --- ------------------- ---------------------- ----------------------------------------------- 
77     mdl_model_layers_0..tput_const (Placeholder, DequantizeLinear)   [b:128]                   128/512                                                            | -512(-100.0%)                              
------ ---------------------------------------------------------------- ------------------------- ----------------- ------------- -------------------------------- --- ------------------- ---------------------- ----------------------------------------------- 
78     mdl_model_layers_0..tput_const (Placeholder, DequantizeLinear)   [b:256]                   256/1,024                                                          | -1,024(-100.0%)                            
------ ---------------------------------------------------------------- ------------------------- ----------------- ------------- -------------------------------- --- ------------------- ---------------------- ----------------------------------------------- 
79     mdl_model_layers_0..tput_const (Placeholder, DequantizeLinear)   [b:256]                   256/1,024                                                          | -1,024(-100.0%)                            
------ ---------------------------------------------------------------- ------------------------- ----------------- ------------- -------------------------------- --- ------------------- ---------------------- ----------------------------------------------- 
80     mdl_model_layers_1..tput_const (Placeholder, DequantizeLinear)   [b:256]                   256/1,024                                                          | -1,024(-100.0%)                            
------ ---------------------------------------------------------------- ------------------------- ----------------- ------------- -------------------------------- --- ------------------- ---------------------- ----------------------------------------------- 
81     mdl_model_layers_1..tput_const (Placeholder, DequantizeLinear)   [b:128]                   128/512                                                            | -512(-100.0%)                              
------ ---------------------------------------------------------------- ------------------------- ----------------- ------------- -------------------------------- --- ------------------- ---------------------- ----------------------------------------------- 
82     mdl_model_layers_1..tput_const (Placeholder, DequantizeLinear)   [b:128]                   128/512                                                            | -512(-100.0%)                              
------ ---------------------------------------------------------------- ------------------------- ----------------- ------------- -------------------------------- --- ------------------- ---------------------- ----------------------------------------------- 
83     mdl_model_layers_1..tput_const (Placeholder, DequantizeLinear)   [b:256]                   256/1,024                                                          | -1,024(-100.0%)                            
------ ---------------------------------------------------------------- ------------------------- ----------------- ------------- -------------------------------- --- ------------------- ---------------------- ----------------------------------------------- 
84     mdl_model_layers_1..tput_const (Placeholder, DequantizeLinear)   [b:256]                   256/1,024                                                          | -1,024(-100.0%)                            
------ ---------------------------------------------------------------- ------------------------- ----------------- ------------- -------------------------------- --- ------------------- ---------------------- ----------------------------------------------- 
85     mdl_model_norm_wei..tput_const (Placeholder, DequantizeLinear)   [b:256]                   256/1,024                                                          | -1,024(-100.0%)                            
------ ---------------------------------------------------------------- ------------------------- ----------------- ------------- -------------------------------- --- ------------------- ---------------------- ----------------------------------------------- 
86     bitwise_and_Dequan..tput_const (Placeholder, DequantizeLinear)   [b:32,c:32]               1,024/4,096                                                        | -4,096(-100.0%)                            
------ ---------------------------------------------------------------- ------------------------- ----------------- ------------- -------------------------------- --- ------------------- ---------------------- ----------------------------------------------- 
87     unsqueeze_4_Dequan..tput_const (Placeholder, DequantizeLinear)   [b:1,h:1,w:32,c:64]       2,048/8,192                                                        | -8,192(-100.0%)                            
------ ---------------------------------------------------------------- ------------------------- ----------------- ------------- -------------------------------- --- ------------------- ---------------------- ----------------------------------------------- 
88     unsqueeze_5_Dequan..tput_const (Placeholder, DequantizeLinear)   [b:1,h:1,w:32,c:64]       2,048/8,192                                                        | -8,192(-100.0%)                            
------ ---------------------------------------------------------------- ------------------------- ----------------- ------------- -------------------------------- --- ------------------- ---------------------- ----------------------------------------------- 
89     val_172_Dequantize..tput_const (Placeholder, DequantizeLinear)   []                        1/4                                                                | -4(-100.0%)                                
------ ---------------------------------------------------------------- ------------------------- ----------------- ------------- -------------------------------- --- ------------------- ---------------------- ----------------------------------------------- 
90     val_63_DequantizeL..tput_const (Placeholder, DequantizeLinear)   []                        1/4                                                                | -4(-100.0%)                                
------ ---------------------------------------------------------------- ------------------------- ----------------- ------------- -------------------------------- --- ------------------- ---------------------- ----------------------------------------------- 
91     val_177_Dequantize..tput_const (Placeholder, DequantizeLinear)   []                        1/4                                                                | -4(-100.0%)                                
------ ---------------------------------------------------------------- ------------------------- ----------------- ------------- -------------------------------- --- ------------------- ---------------------- ----------------------------------------------- 
92     val_73_DequantizeL..tput_const (Placeholder, DequantizeLinear)   [b:256,c:128]             32,768/131,072                                                     | -98,304(-75.0%)     +65,536(+100.0%)       Conversion_[6]                                  
------ ---------------------------------------------------------------- ------------------------- ----------------- ------------- -------------------------------- --- ------------------- ---------------------- ----------------------------------------------- 
93     val_81_DequantizeL..tput_const (Placeholder, DequantizeLinear)   [b:256,c:128]             32,768/131,072                                                     | -98,304(-75.0%)     +65,536(+100.0%)       Conversion_[7]                                  
------ ---------------------------------------------------------------- ------------------------- ----------------- ------------- -------------------------------- --- ------------------- ---------------------- ----------------------------------------------- 
94     view_3 (Reshape, Reshape)                                        [b:1,h:1,c:32]                                                                      val_35   |                                            
------ ---------------------------------------------------------------- ------------------------- ----------------- ------------- -------------------------------- --- ------------------- ---------------------- ----------------------------------------------- 
95     embedding_Quantize..ear_Output (Conversion, QuantizeLinear)      [b:1,h:32,c:256]                                   16,384                        embedding   |                     -16,384(-100.0%)       
------ ---------------------------------------------------------------- ------------------------- ----------------- ------------- -------------------------------- --- ------------------- ---------------------- ----------------------------------------------- 
96     view_3_QuantizeLinear_Output (Conversion, QuantizeLinear)        [b:1,h:1,c:32]                                         64                           view_3   |                     -64(-100.0%)           
------ ---------------------------------------------------------------- ------------------------- ----------------- ------------- -------------------------------- --- ------------------- ---------------------- ----------------------------------------------- 
97     embedding_Dequanti..ear_Output (Conversion, DequantizeLinear)    [b:1,h:32,c:256]                                   16,384   embedding_Quantize..ear_Output   |                     -16,384(-100.0%)       
------ ---------------------------------------------------------------- ------------------------- ----------------- ------------- -------------------------------- --- ------------------- ---------------------- ----------------------------------------------- 
98     view_3_DequantizeLinear_Output (Conversion, DequantizeLinear)    [b:1,h:1,c:32]                                         64     view_3_QuantizeLinear_Output   |                     -64(-100.0%)           
------ ---------------------------------------------------------------- ------------------------- ----------------- ------------- -------------------------------- --- ------------------- ---------------------- ----------------------------------------------- 
99     pow_1 (Eltwise, Pow)                                             [b:1,h:32,c:256]                                   81,920   embedding_Dequanti..ear_Output   |                     -81,920(-100.0%)       
                                                                                                                                                            val_60   | 
------ ---------------------------------------------------------------- ------------------------- ----------------- ------------- -------------------------------- --- ------------------- ---------------------- ----------------------------------------------- 
100    bitwise_and_1 (Eltwise, Mul)                                     [b:1,h:32,c:32]                                     1,024   bitwise_and_Dequan..tput_const   | +1,024(+100.0%)     +2,048(+200.0%)        Eltwise/mul_/Conversion_[60, 61]                
                                                                                                                                    view_3_DequantizeLinear_Output   | 
------ ---------------------------------------------------------------- ------------------------- ----------------- ------------- -------------------------------- --- ------------------- ---------------------- ----------------------------------------------- 
101    mean (Reduce, ReduceMean)                                        [b:1,h:32,c:1]                                     16,384                            pow_1   | +8(+100.0%)         -8,064(-49.2%)         Reduce_/ScaleBias_/Conversion_[12, 13, 14]      
------ ---------------------------------------------------------------- ------------------------- ----------------- ------------- -------------------------------- --- ------------------- ---------------------- ----------------------------------------------- 
102    bitwise_and_1_Quan..ear_Output (Conversion, QuantizeLinear)      [b:1,h:32,c:32]                                     2,048                    bitwise_and_1   |                     -2,048(-100.0%)        
------ ---------------------------------------------------------------- ------------------------- ----------------- ------------- -------------------------------- --- ------------------- ---------------------- ----------------------------------------------- 
103    mean_QuantizeLinear_Output (Conversion, QuantizeLinear)          [b:1,h:32,c:1]                                         64                             mean   |                     -64(-100.0%)           
------ ---------------------------------------------------------------- ------------------------- ----------------- ------------- -------------------------------- --- ------------------- ---------------------- ----------------------------------------------- 
104    bitwise_and_1_Dequ..ear_Output (Conversion, DequantizeLinear)    [b:1,h:32,c:32]                                     2,048   bitwise_and_1_Quan..ear_Output   |                     -2,048(-100.0%)        
------ ---------------------------------------------------------------- ------------------------- ----------------- ------------- -------------------------------- --- ------------------- ---------------------- ----------------------------------------------- 
105    mean_DequantizeLinear_Output (Conversion, DequantizeLinear)      [b:1,h:32,c:1]                                         64       mean_QuantizeLinear_Output   |                     -64(-100.0%)           
------ ---------------------------------------------------------------- ------------------------- ----------------- ------------- -------------------------------- --- ------------------- ---------------------- ----------------------------------------------- 
106    view_4 (Reshape, Reshape)                                        [b:1,h:1,w:32,c:32]                                         bitwise_and_1_Dequ..ear_Output   |                                            
------ ---------------------------------------------------------------- ------------------------- ----------------- ------------- -------------------------------- --- ------------------- ---------------------- ----------------------------------------------- 
107    add_4 (Eltwise, Add)                                             [b:1,h:32,c:1]                                         32     mean_DequantizeLinear_Output   | +1(+100.0%)         +64(+200.0%)           Eltwise/add_/Conversion_[15, 16]                
                                                                                                                                    val_63_DequantizeL..tput_const   | 
------ ---------------------------------------------------------------- ------------------------- ----------------- ------------- -------------------------------- --- ------------------- ---------------------- ----------------------------------------------- 
108    view_4_QuantizeLinear_Output (Conversion, QuantizeLinear)        [b:1,h:1,w:32,c:32]                                 2,048                           view_4   |                     -2,048(-100.0%)        
------ ---------------------------------------------------------------- ------------------------- ----------------- ------------- -------------------------------- --- ------------------- ---------------------- ----------------------------------------------- 
109    add_4_QuantizeLinear_Output (Conversion, QuantizeLinear)         [b:1,h:32,c:1]                                         64                            add_4   |                     -64(-100.0%)           
------ ---------------------------------------------------------------- ------------------------- ----------------- ------------- -------------------------------- --- ------------------- ---------------------- ----------------------------------------------- 
110    view_4_DequantizeLinear_Output (Conversion, DequantizeLinear)    [b:1,h:1,w:32,c:32]                                 2,048     view_4_QuantizeLinear_Output   |                     -2,048(-100.0%)        
------ ---------------------------------------------------------------- ------------------------- ----------------- ------------- -------------------------------- --- ------------------- ---------------------- ----------------------------------------------- 
111    add_4_DequantizeLinear_Output (Conversion, DequantizeLinear)     [b:1,h:32,c:1]                                         64      add_4_QuantizeLinear_Output   |                     -64(-100.0%)           
------ ---------------------------------------------------------------- ------------------------- ----------------- ------------- -------------------------------- --- ------------------- ---------------------- ----------------------------------------------- 
112    __bool_fix_inv (Eltwise, Sub)                                    [b:1,h:1,w:32,c:32]                                     1                   __bool_fix_one   |                     -1(-100.0%)            
                                                                                                                                    view_4_DequantizeLinear_Output   | 
------ ---------------------------------------------------------------- ------------------------- ----------------- ------------- -------------------------------- --- ------------------- ---------------------- ----------------------------------------------- 
113    val_64 (Nonlinearity, Sqrt)                                      [b:1,h:32,c:1]                                        384    add_4_DequantizeLinear_Output   |                                            Nonlinearity_[17]                               
------ ---------------------------------------------------------------- ------------------------- ----------------- ------------- -------------------------------- --- ------------------- ---------------------- ----------------------------------------------- 
114    __bool_fix_inv_Qua..ear_Output (Conversion, QuantizeLinear)      [b:1,h:1,w:32,c:32]                                 2,048                   __bool_fix_inv   |                     -2,048(-100.0%)        
------ ---------------------------------------------------------------- ------------------------- ----------------- ------------- -------------------------------- --- ------------------- ---------------------- ----------------------------------------------- 
115    rsqrt (Nonlinearity, Reciprocal)                                 [b:1,h:32,c:1]                                        160                           val_64   |                     +64(+40.0%)            Nonlinearity_/Conversion_[18, 19]               
------ ---------------------------------------------------------------- ------------------------- ----------------- ------------- -------------------------------- --- ------------------- ---------------------- ----------------------------------------------- 
116    __bool_fix_inv_Deq..ear_Output (Conversion, DequantizeLinear)    [b:1,h:1,w:32,c:32]                                 2,048   __bool_fix_inv_Qua..ear_Output   |                     -2,048(-100.0%)        
------ ---------------------------------------------------------------- ------------------------- ----------------- ------------- -------------------------------- --- ------------------- ---------------------- ----------------------------------------------- 
117    rsqrt_QuantizeLinear_Output (Conversion, QuantizeLinear)         [b:1,h:32,c:1]                                         64                            rsqrt   |                     -64(-100.0%)           
------ ---------------------------------------------------------------- ------------------------- ----------------- ------------- -------------------------------- --- ------------------- ---------------------- ----------------------------------------------- 
118    val_178 (Eltwise, Mul)                                           [b:1,h:1,w:32,c:32]                                 1,024   __bool_fix_inv_Deq..ear_Output   | +1(+100.0%)                                Eltwise/mul_[64]                                
                                                                                                                                    val_177_Dequantize..tput_const   | 
------ ---------------------------------------------------------------- ------------------------- ----------------- ------------- -------------------------------- --- ------------------- ---------------------- ----------------------------------------------- 
119    rsqrt_DequantizeLinear_Output (Conversion, DequantizeLinear)     [b:1,h:32,c:1]                                         64      rsqrt_QuantizeLinear_Output   |                     -64(-100.0%)           
------ ---------------------------------------------------------------- ------------------------- ----------------- ------------- -------------------------------- --- ------------------- ---------------------- ----------------------------------------------- 
120    val_178_QuantizeLinear_Output (Conversion, QuantizeLinear)       [b:1,h:1,w:32,c:32]                                 2,048                          val_178   |                     -2,048(-100.0%)        
------ ---------------------------------------------------------------- ------------------------- ----------------- ------------- -------------------------------- --- ------------------- ---------------------- ----------------------------------------------- 
121    mul_3 (Eltwise, Mul)                                             [b:1,h:32,c:256]                                    8,192   embedding_Dequanti..ear_Output   |                                            Eltwise/mul_[20]                                
                                                                                                                                     rsqrt_DequantizeLinear_Output   | 
------ ---------------------------------------------------------------- ------------------------- ----------------- ------------- -------------------------------- --- ------------------- ---------------------- ----------------------------------------------- 
122    val_178_Dequantize..ear_Output (Conversion, DequantizeLinear)    [b:1,h:1,w:32,c:32]                                 2,048    val_178_QuantizeLinear_Output   |                     -2,048(-100.0%)        
------ ---------------------------------------------------------------- ------------------------- ----------------- ------------- -------------------------------- --- ------------------- ---------------------- ----------------------------------------------- 
123    mul_3_QuantizeLinear_Output (Conversion, QuantizeLinear)         [b:1,h:32,c:256]                                   16,384                            mul_3   |                     -16,384(-100.0%)       
------ ---------------------------------------------------------------- ------------------------- ----------------- ------------- -------------------------------- --- ------------------- ---------------------- ----------------------------------------------- 
124    mul_3_DequantizeLinear_Output (Conversion, DequantizeLinear)     [b:1,h:32,c:256]                                   16,384      mul_3_QuantizeLinear_Output   |                     -16,384(-100.0%)       
------ ---------------------------------------------------------------- ------------------------- ----------------- ------------- -------------------------------- --- ------------------- ---------------------- ----------------------------------------------- 
125    mul_4 (Eltwise, Mul)                                             [b:1,h:32,c:256]                                      256   mdl_model_layers_0..tput_const   | +256(+100.0%)       +16,384(+6400.0%)      Eltwise/mul_/Conversion_[21, 22]                
                                                                                                                                     mul_3_DequantizeLinear_Output   | 
------ ---------------------------------------------------------------- ------------------------- ----------------- ------------- -------------------------------- --- ------------------- ---------------------- ----------------------------------------------- 
126    mul_4_QuantizeLinear_Output (Conversion, QuantizeLinear)         [b:1,h:32,c:256]                                   16,384                            mul_4   |                     -16,384(-100.0%)       
------ ---------------------------------------------------------------- ------------------------- ----------------- ------------- -------------------------------- --- ------------------- ---------------------- ----------------------------------------------- 
127    mul_4_DequantizeLinear_Output (Conversion, DequantizeLinear)     [b:1,h:32,c:256]                                   16,384      mul_4_QuantizeLinear_Output   |                     -16,384(-100.0%)       
------ ---------------------------------------------------------------- ------------------------- ----------------- ------------- -------------------------------- --- ------------------- ---------------------- ----------------------------------------------- 
128    val_66 (Gemm, MatMul)                                            [b:1,h:32,c:256]                               67,117,056    mul_4_DequantizeLinear_Output   | +66,560(+100.0%)    -65,019,648(-96.9%)    Conv2D_[44]                                     
                                                                                                                                    val_65_DequantizeL..tput_const   | 
------ ---------------------------------------------------------------- ------------------------- ----------------- ------------- -------------------------------- --- ------------------- ---------------------- ----------------------------------------------- 
129    val_74 (Gemm, MatMul)                                            [b:1,h:32,c:128]                               33,558,528    mul_4_DequantizeLinear_Output   | +1(+100.0%)         +8,194(+0.0%)          Conversion_/Gemm_/Conversion_[4, 29, 30]        
                                                                                                                                    val_73_DequantizeL..tput_const   | 
------ ---------------------------------------------------------------- ------------------------- ----------------- ------------- -------------------------------- --- ------------------- ---------------------- ----------------------------------------------- 
130    val_82 (Gemm, MatMul)                                            [b:1,h:32,c:128]                               33,558,528    mul_4_DequantizeLinear_Output   | +1(+100.0%)         +8,194(+0.0%)          Conversion_/Gemm_/Conversion_[5, 23, 24]        
                                                                                                                                    val_81_DequantizeL..tput_const   | 
------ ---------------------------------------------------------------- ------------------------- ----------------- ------------- -------------------------------- --- ------------------- ---------------------- ----------------------------------------------- 
131    val_66_QuantizeLinear_Output (Conversion, QuantizeLinear)        [b:1,h:32,c:256]                                   16,384                           val_66   |                     -16,384(-100.0%)       
------ ---------------------------------------------------------------- ------------------------- ----------------- ------------- -------------------------------- --- ------------------- ---------------------- ----------------------------------------------- 
132    val_74_QuantizeLinear_Output (Conversion, QuantizeLinear)        [b:1,h:32,c:128]                                    8,192                           val_74   |                     -8,192(-100.0%)        
------ ---------------------------------------------------------------- ------------------------- ----------------- ------------- -------------------------------- --- ------------------- ---------------------- ----------------------------------------------- 
133    val_82_QuantizeLinear_Output (Conversion, QuantizeLinear)        [b:1,h:32,c:128]                                    8,192                           val_82   |                     -8,192(-100.0%)        
------ ---------------------------------------------------------------- ------------------------- ----------------- ------------- -------------------------------- --- ------------------- ---------------------- ----------------------------------------------- 
134    val_66_DequantizeLinear_Output (Conversion, DequantizeLinear)    [b:1,h:32,c:256]                                   16,384     val_66_QuantizeLinear_Output   |                     -16,384(-100.0%)       
------ ---------------------------------------------------------------- ------------------------- ----------------- ------------- -------------------------------- --- ------------------- ---------------------- ----------------------------------------------- 
135    val_74_DequantizeLinear_Output (Conversion, DequantizeLinear)    [b:1,h:32,c:128]                                    8,192     val_74_QuantizeLinear_Output   |                     -8,192(-100.0%)        
------ ---------------------------------------------------------------- ------------------------- ----------------- ------------- -------------------------------- --- ------------------- ---------------------- ----------------------------------------------- 
136    val_82_DequantizeLinear_Output (Conversion, DequantizeLinear)    [b:1,h:32,c:128]                                    8,192     val_82_QuantizeLinear_Output   |                     -8,192(-100.0%)        
------ ---------------------------------------------------------------- ------------------------- ----------------- ------------- -------------------------------- --- ------------------- ---------------------- ----------------------------------------------- 
137    linear (Eltwise, Add)                                            [b:1,h:32,c:256]                                    8,192   val_66_DequantizeLinear_Output   | +256(+100.0%)                              Eltwise/add_[45]                                
                                                                                                                                    mdl_model_layers_0..tput_const   | 
------ ---------------------------------------------------------------- ------------------------- ----------------- ------------- -------------------------------- --- ------------------- ---------------------- ----------------------------------------------- 
138    linear_1 (Eltwise, Add)                                          [b:1,h:32,c:128]                                    4,096   val_74_DequantizeLinear_Output   | +128(+100.0%)                              Eltwise/add_[31]                                
                                                                                                                                    mdl_model_layers_0..tput_const   | 
------ ---------------------------------------------------------------- ------------------------- ----------------- ------------- -------------------------------- --- ------------------- ---------------------- ----------------------------------------------- 
139    linear_2 (Eltwise, Add)                                          [b:1,h:32,c:128]                                    4,096   val_82_DequantizeLinear_Output   | +128(+100.0%)                              Eltwise/add_[25]                                
                                                                                                                                    mdl_model_layers_0..tput_const   | 
------ ---------------------------------------------------------------- ------------------------- ----------------- ------------- -------------------------------- --- ------------------- ---------------------- ----------------------------------------------- 
140    linear_QuantizeLinear_Output (Conversion, QuantizeLinear)        [b:1,h:32,c:256]                                   16,384                           linear   |                     -16,384(-100.0%)       
------ ---------------------------------------------------------------- ------------------------- ----------------- ------------- -------------------------------- --- ------------------- ---------------------- ----------------------------------------------- 
141    linear_1_QuantizeLinear_Output (Conversion, QuantizeLinear)      [b:1,h:32,c:128]                                    8,192                         linear_1   |                     -8,192(-100.0%)        
------ ---------------------------------------------------------------- ------------------------- ----------------- ------------- -------------------------------- --- ------------------- ---------------------- ----------------------------------------------- 
142    linear_2_QuantizeLinear_Output (Conversion, QuantizeLinear)      [b:1,h:32,c:128]                                    8,192                         linear_2   |                     -8,192(-100.0%)        
------ ---------------------------------------------------------------- ------------------------- ----------------- ------------- -------------------------------- --- ------------------- ---------------------- ----------------------------------------------- 
143    linear_DequantizeLinear_Output (Conversion, DequantizeLinear)    [b:1,h:32,c:256]                                   16,384     linear_QuantizeLinear_Output   |                     -16,384(-100.0%)       
------ ---------------------------------------------------------------- ------------------------- ----------------- ------------- -------------------------------- --- ------------------- ---------------------- ----------------------------------------------- 
144    linear_1_Dequantiz..ear_Output (Conversion, DequantizeLinear)    [b:1,h:32,c:128]                                    8,192   linear_1_QuantizeLinear_Output   |                     -8,192(-100.0%)        
------ ---------------------------------------------------------------- ------------------------- ----------------- ------------- -------------------------------- --- ------------------- ---------------------- ----------------------------------------------- 
145    linear_2_Dequantiz..ear_Output (Conversion, DequantizeLinear)    [b:1,h:32,c:128]                                    8,192   linear_2_QuantizeLinear_Output   |                     -8,192(-100.0%)        
------ ---------------------------------------------------------------- ------------------------- ----------------- ------------- -------------------------------- --- ------------------- ---------------------- ----------------------------------------------- 
146    view_6 (Reshape, Reshape)                                        [b:1,h:32,w:4,c:64]                                         linear_DequantizeLinear_Output   |                                            
------ ---------------------------------------------------------------- ------------------------- ----------------- ------------- -------------------------------- --- ------------------- ---------------------- ----------------------------------------------- 
147    view_7 (Reshape, Reshape)                                        [b:1,h:32,w:2,c:64]                                         linear_1_Dequantiz..ear_Output   |                                            
------ ---------------------------------------------------------------- ------------------------- ----------------- ------------- -------------------------------- --- ------------------- ---------------------- ----------------------------------------------- 
148    view_8 (Reshape, Reshape)                                        [b:1,h:32,w:2,c:64]                                         linear_2_Dequantiz..ear_Output   |                                            
------ ---------------------------------------------------------------- ------------------------- ----------------- ------------- -------------------------------- --- ------------------- ---------------------- ----------------------------------------------- 
149    view_6_QuantizeLinear_Output (Conversion, QuantizeLinear)        [b:1,h:32,w:4,c:64]                                16,384                           view_6   |                     -16,384(-100.0%)       
------ ---------------------------------------------------------------- ------------------------- ----------------- ------------- -------------------------------- --- ------------------- ---------------------- ----------------------------------------------- 
150    view_7_QuantizeLinear_Output (Conversion, QuantizeLinear)        [b:1,h:32,w:2,c:64]                                 8,192                           view_7   |                     -8,192(-100.0%)        
------ ---------------------------------------------------------------- ------------------------- ----------------- ------------- -------------------------------- --- ------------------- ---------------------- ----------------------------------------------- 
151    view_8_QuantizeLinear_Output (Conversion, QuantizeLinear)        [b:1,h:32,w:2,c:64]                                 8,192                           view_8   |                     -8,192(-100.0%)        
------ ---------------------------------------------------------------- ------------------------- ----------------- ------------- -------------------------------- --- ------------------- ---------------------- ----------------------------------------------- 
152    view_6_DequantizeLinear_Output (Conversion, DequantizeLinear)    [b:1,h:32,w:4,c:64]                                16,384     view_6_QuantizeLinear_Output   |                     -16,384(-100.0%)       
------ ---------------------------------------------------------------- ------------------------- ----------------- ------------- -------------------------------- --- ------------------- ---------------------- ----------------------------------------------- 
153    view_7_DequantizeLinear_Output (Conversion, DequantizeLinear)    [b:1,h:32,w:2,c:64]                                 8,192     view_7_QuantizeLinear_Output   |                     -8,192(-100.0%)        
------ ---------------------------------------------------------------- ------------------------- ----------------- ------------- -------------------------------- --- ------------------- ---------------------- ----------------------------------------------- 
154    view_8_DequantizeLinear_Output (Conversion, DequantizeLinear)    [b:1,h:32,w:2,c:64]                                 8,192     view_8_QuantizeLinear_Output   |                     -8,192(-100.0%)        
------ ---------------------------------------------------------------- ------------------------- ----------------- ------------- -------------------------------- --- ------------------- ---------------------- ----------------------------------------------- 
155    transpose_1 (Transpose, Transpose)                               [b:1,h:4,w:32,c:64]                                 4,096   view_6_DequantizeLinear_Output   |                                            Transpose_[46]                                  
------ ---------------------------------------------------------------- ------------------------- ----------------- ------------- -------------------------------- --- ------------------- ---------------------- ----------------------------------------------- 
156    transpose_2 (Transpose, Transpose)                               [b:1,h:2,w:32,c:64]                                 2,048   view_7_DequantizeLinear_Output   |                                            Transpose_[32]                                  
------ ---------------------------------------------------------------- ------------------------- ----------------- ------------- -------------------------------- --- ------------------- ---------------------- ----------------------------------------------- 
157    transpose_3 (Transpose, Transpose)                               [b:1,h:2,w:32,c:64]                                 2,048   view_8_DequantizeLinear_Output   |                                            Transpose_[26]                                  
------ ---------------------------------------------------------------- ------------------------- ----------------- ------------- -------------------------------- --- ------------------- ---------------------- ----------------------------------------------- 
158    transpose_1_Quanti..ear_Output (Conversion, QuantizeLinear)      [b:1,h:4,w:32,c:64]                                16,384                      transpose_1   |                     -16,384(-100.0%)       
------ ---------------------------------------------------------------- ------------------------- ----------------- ------------- -------------------------------- --- ------------------- ---------------------- ----------------------------------------------- 
159    transpose_2_Quanti..ear_Output (Conversion, QuantizeLinear)      [b:1,h:2,w:32,c:64]                                 8,192                      transpose_2   |                     -8,192(-100.0%)        
------ ---------------------------------------------------------------- ------------------------- ----------------- ------------- -------------------------------- --- ------------------- ---------------------- ----------------------------------------------- 
160    transpose_3_Quanti..ear_Output (Conversion, QuantizeLinear)      [b:1,h:2,w:32,c:64]                                 8,192                      transpose_3   |                     -8,192(-100.0%)        
------ ---------------------------------------------------------------- ------------------------- ----------------- ------------- -------------------------------- --- ------------------- ---------------------- ----------------------------------------------- 
161    transpose_1_Dequan..ear_Output (Conversion, DequantizeLinear)    [b:1,h:4,w:32,c:64]                                16,384   transpose_1_Quanti..ear_Output   |                     -16,384(-100.0%)       
------ ---------------------------------------------------------------- ------------------------- ----------------- ------------- -------------------------------- --- ------------------- ---------------------- ----------------------------------------------- 
162    transpose_2_Dequan..ear_Output (Conversion, DequantizeLinear)    [b:1,h:2,w:32,c:64]                                 8,192   transpose_2_Quanti..ear_Output   |                     -8,192(-100.0%)        
------ ---------------------------------------------------------------- ------------------------- ----------------- ------------- -------------------------------- --- ------------------- ---------------------- ----------------------------------------------- 
163    transpose_3_Dequan..ear_Output (Conversion, DequantizeLinear)    [b:1,h:2,w:32,c:64]                                 8,192   transpose_3_Quanti..ear_Output   |                     -8,192(-100.0%)        
------ ---------------------------------------------------------------- ------------------------- ----------------- ------------- -------------------------------- --- ------------------- ---------------------- ----------------------------------------------- 
164    mul_5 (Eltwise, Mul)                                             [b:1,h:4,w:32,c:64]                                 8,192   transpose_1_Dequan..ear_Output   | +2,048(+100.0%)                            Eltwise/mul_[52]                                
                                                                                                                                    unsqueeze_4_Dequan..tput_const   | 
------ ---------------------------------------------------------------- ------------------------- ----------------- ------------- -------------------------------- --- ------------------- ---------------------- ----------------------------------------------- 
165    slice_1 (Slice, Slice)                                           [b:1,h:4,w:32,c:32]                                         transpose_1_Dequan..ear_Output   |                                            Slice_[49]                                      
------ ---------------------------------------------------------------- ------------------------- ----------------- ------------- -------------------------------- --- ------------------- ---------------------- ----------------------------------------------- 
166    slice_2 (Slice, Slice)                                           [b:1,h:4,w:32,c:32]                                         transpose_1_Dequan..ear_Output   |                                            Slice_[47]                                      
------ ---------------------------------------------------------------- ------------------------- ----------------- ------------- -------------------------------- --- ------------------- ---------------------- ----------------------------------------------- 
167    mul_7 (Eltwise, Mul)                                             [b:1,h:2,w:32,c:64]                                 4,096   transpose_2_Dequan..ear_Output   | +2,048(+100.0%)                            Eltwise/mul_[38]                                
                                                                                                                                    unsqueeze_4_Dequan..tput_const   | 
------ ---------------------------------------------------------------- ------------------------- ----------------- ------------- -------------------------------- --- ------------------- ---------------------- ----------------------------------------------- 
168    slice_3 (Slice, Slice)                                           [b:1,h:2,w:32,c:32]                                         transpose_2_Dequan..ear_Output   |                                            Slice_[35]                                      
------ ---------------------------------------------------------------- ------------------------- ----------------- ------------- -------------------------------- --- ------------------- ---------------------- ----------------------------------------------- 
169    slice_4 (Slice, Slice)                                           [b:1,h:2,w:32,c:32]                                         transpose_2_Dequan..ear_Output   |                                            Slice_[33]                                      
------ ---------------------------------------------------------------- ------------------------- ----------------- ------------- -------------------------------- --- ------------------- ---------------------- ----------------------------------------------- 
170    unsqueeze_7 (Reshape, Unsqueeze)                                 [b:1,h:2,w:1,d:32,c:64]                                     transpose_3_Dequan..ear_Output   |                                            
------ ---------------------------------------------------------------- ------------------------- ----------------- ------------- -------------------------------- --- ------------------- ---------------------- ----------------------------------------------- 
171    mul_5_QuantizeLinear_Output (Conversion, QuantizeLinear)         [b:1,h:4,w:32,c:64]                                16,384                            mul_5   |                     -16,384(-100.0%)       
------ ---------------------------------------------------------------- ------------------------- ----------------- ------------- -------------------------------- --- ------------------- ---------------------- ----------------------------------------------- 
172    slice_1_QuantizeLinear_Output (Conversion, QuantizeLinear)       [b:1,h:4,w:32,c:32]                                 8,192                          slice_1   |                     -8,192(-100.0%)        
------ ---------------------------------------------------------------- ------------------------- ----------------- ------------- -------------------------------- --- ------------------- ---------------------- ----------------------------------------------- 
173    slice_2_QuantizeLinear_Output (Conversion, QuantizeLinear)       [b:1,h:4,w:32,c:32]                                 8,192                          slice_2   |                     -8,192(-100.0%)        
------ ---------------------------------------------------------------- ------------------------- ----------------- ------------- -------------------------------- --- ------------------- ---------------------- ----------------------------------------------- 
174    mul_7_QuantizeLinear_Output (Conversion, QuantizeLinear)         [b:1,h:2,w:32,c:64]                                 8,192                            mul_7   |                     -8,192(-100.0%)        
------ ---------------------------------------------------------------- ------------------------- ----------------- ------------- -------------------------------- --- ------------------- ---------------------- ----------------------------------------------- 
175    slice_3_QuantizeLinear_Output (Conversion, QuantizeLinear)       [b:1,h:2,w:32,c:32]                                 4,096                          slice_3   |                     -4,096(-100.0%)        
------ ---------------------------------------------------------------- ------------------------- ----------------- ------------- -------------------------------- --- ------------------- ---------------------- ----------------------------------------------- 
176    slice_4_QuantizeLinear_Output (Conversion, QuantizeLinear)       [b:1,h:2,w:32,c:32]                                 4,096                          slice_4   |                     -4,096(-100.0%)        
------ ---------------------------------------------------------------- ------------------------- ----------------- ------------- -------------------------------- --- ------------------- ---------------------- ----------------------------------------------- 
177    unsqueeze_7_Quanti..ear_Output (Conversion, QuantizeLinear)      [b:1,h:2,w:1,d:32,c:64]                             8,192                      unsqueeze_7   |                     -8,192(-100.0%)        
------ ---------------------------------------------------------------- ------------------------- ----------------- ------------- -------------------------------- --- ------------------- ---------------------- ----------------------------------------------- 
178    mul_5_DequantizeLinear_Output (Conversion, DequantizeLinear)     [b:1,h:4,w:32,c:64]                                16,384      mul_5_QuantizeLinear_Output   |                     -16,384(-100.0%)       
------ ---------------------------------------------------------------- ------------------------- ----------------- ------------- -------------------------------- --- ------------------- ---------------------- ----------------------------------------------- 
179    slice_1_Dequantize..ear_Output (Conversion, DequantizeLinear)    [b:1,h:4,w:32,c:32]                                 8,192    slice_1_QuantizeLinear_Output   |                     -8,192(-100.0%)        
------ ---------------------------------------------------------------- ------------------------- ----------------- ------------- -------------------------------- --- ------------------- ---------------------- ----------------------------------------------- 
180    slice_2_Dequantize..ear_Output (Conversion, DequantizeLinear)    [b:1,h:4,w:32,c:32]                                 8,192    slice_2_QuantizeLinear_Output   |                     -8,192(-100.0%)        
------ ---------------------------------------------------------------- ------------------------- ----------------- ------------- -------------------------------- --- ------------------- ---------------------- ----------------------------------------------- 
181    mul_7_DequantizeLinear_Output (Conversion, DequantizeLinear)     [b:1,h:2,w:32,c:64]                                 8,192      mul_7_QuantizeLinear_Output   |                     -8,192(-100.0%)        
------ ---------------------------------------------------------------- ------------------------- ----------------- ------------- -------------------------------- --- ------------------- ---------------------- ----------------------------------------------- 
182    slice_3_Dequantize..ear_Output (Conversion, DequantizeLinear)    [b:1,h:2,w:32,c:32]                                 4,096    slice_3_QuantizeLinear_Output   |                     -4,096(-100.0%)        
------ ---------------------------------------------------------------- ------------------------- ----------------- ------------- -------------------------------- --- ------------------- ---------------------- ----------------------------------------------- 
183    slice_4_Dequantize..ear_Output (Conversion, DequantizeLinear)    [b:1,h:2,w:32,c:32]                                 4,096    slice_4_QuantizeLinear_Output   |                     -4,096(-100.0%)        
------ ---------------------------------------------------------------- ------------------------- ----------------- ------------- -------------------------------- --- ------------------- ---------------------- ----------------------------------------------- 
184    unsqueeze_7_Dequan..ear_Output (Conversion, DequantizeLinear)    [b:1,h:2,w:1,d:32,c:64]                             8,192   unsqueeze_7_Quanti..ear_Output   |                     -8,192(-100.0%)        
------ ---------------------------------------------------------------- ------------------------- ----------------- ------------- -------------------------------- --- ------------------- ---------------------- ----------------------------------------------- 
185    neg (Nonlinearity, Neg)                                          [b:1,h:4,w:32,c:32]                                 4,096   slice_2_Dequantize..ear_Output   |                                            Nonlinearity_[48]                               
------ ---------------------------------------------------------------- ------------------------- ----------------- ------------- -------------------------------- --- ------------------- ---------------------- ----------------------------------------------- 
186    neg_1 (Nonlinearity, Neg)                                        [b:1,h:2,w:32,c:32]                                 2,048   slice_4_Dequantize..ear_Output   |                                            Nonlinearity_[34]                               
------ ---------------------------------------------------------------- ------------------------- ----------------- ------------- -------------------------------- --- ------------------- ---------------------- ----------------------------------------------- 
187    expand_4 (Tile, Expand)                                          [b:1,h:2,w:2,d:32,c:64]                                     unsqueeze_7_Dequan..ear_Output   |                     +16,384(+100.0%)       Tile_/Conversion_[27, 28]                       
------ ---------------------------------------------------------------- ------------------------- ----------------- ------------- -------------------------------- --- ------------------- ---------------------- ----------------------------------------------- 
188    neg_QuantizeLinear_Output (Conversion, QuantizeLinear)           [b:1,h:4,w:32,c:32]                                 8,192                              neg   |                     -8,192(-100.0%)        
------ ---------------------------------------------------------------- ------------------------- ----------------- ------------- -------------------------------- --- ------------------- ---------------------- ----------------------------------------------- 
189    neg_1_QuantizeLinear_Output (Conversion, QuantizeLinear)         [b:1,h:2,w:32,c:32]                                 4,096                            neg_1   |                     -4,096(-100.0%)        
------ ---------------------------------------------------------------- ------------------------- ----------------- ------------- -------------------------------- --- ------------------- ---------------------- ----------------------------------------------- 
190    _unsafe_view_1 (Reshape, Reshape)                                [b:1,h:4,w:32,c:64]                                                               expand_4   |                                            
------ ---------------------------------------------------------------- ------------------------- ----------------- ------------- -------------------------------- --- ------------------- ---------------------- ----------------------------------------------- 
191    neg_DequantizeLinear_Output (Conversion, DequantizeLinear)       [b:1,h:4,w:32,c:32]                                 8,192        neg_QuantizeLinear_Output   |                     -8,192(-100.0%)        
------ ---------------------------------------------------------------- ------------------------- ----------------- ------------- -------------------------------- --- ------------------- ---------------------- ----------------------------------------------- 
192    neg_1_DequantizeLinear_Output (Conversion, DequantizeLinear)     [b:1,h:2,w:32,c:32]                                 4,096      neg_1_QuantizeLinear_Output   |                     -4,096(-100.0%)        
------ ---------------------------------------------------------------- ------------------------- ----------------- ------------- -------------------------------- --- ------------------- ---------------------- ----------------------------------------------- 
193    _unsafe_view_1_Qua..ear_Output (Conversion, QuantizeLinear)      [b:1,h:4,w:32,c:64]                                16,384                   _unsafe_view_1   |                     -16,384(-100.0%)       
------ ---------------------------------------------------------------- ------------------------- ----------------- ------------- -------------------------------- --- ------------------- ---------------------- ----------------------------------------------- 
194    cat_1 (Concat, Concat)                                           [b:1,h:4,w:32,c:64]                                            neg_DequantizeLinear_Output   |                                            Concat_[50]                                     
                                                                                                                                    slice_1_Dequantize..ear_Output   | 
------ ---------------------------------------------------------------- ------------------------- ----------------- ------------- -------------------------------- --- ------------------- ---------------------- ----------------------------------------------- 
195    cat_2 (Concat, Concat)                                           [b:1,h:2,w:32,c:64]                                          neg_1_DequantizeLinear_Output   |                                            Concat_[36]                                     
                                                                                                                                    slice_3_Dequantize..ear_Output   | 
------ ---------------------------------------------------------------- ------------------------- ----------------- ------------- -------------------------------- --- ------------------- ---------------------- ----------------------------------------------- 
196    _unsafe_view_1_Deq..ear_Output (Conversion, DequantizeLinear)    [b:1,h:4,w:32,c:64]                                16,384   _unsafe_view_1_Qua..ear_Output   |                     -16,384(-100.0%)       
------ ---------------------------------------------------------------- ------------------------- ----------------- ------------- -------------------------------- --- ------------------- ---------------------- ----------------------------------------------- 
197    cat_1_QuantizeLinear_Output (Conversion, QuantizeLinear)         [b:1,h:4,w:32,c:64]                                16,384                            cat_1   |                     -16,384(-100.0%)       
------ ---------------------------------------------------------------- ------------------------- ----------------- ------------- -------------------------------- --- ------------------- ---------------------- ----------------------------------------------- 
198    cat_2_QuantizeLinear_Output (Conversion, QuantizeLinear)         [b:1,h:2,w:32,c:64]                                 8,192                            cat_2   |                     -8,192(-100.0%)        
------ ---------------------------------------------------------------- ------------------------- ----------------- ------------- -------------------------------- --- ------------------- ---------------------- ----------------------------------------------- 
199    cat_1_DequantizeLinear_Output (Conversion, DequantizeLinear)     [b:1,h:4,w:32,c:64]                                16,384      cat_1_QuantizeLinear_Output   |                     -16,384(-100.0%)       
------ ---------------------------------------------------------------- ------------------------- ----------------- ------------- -------------------------------- --- ------------------- ---------------------- ----------------------------------------------- 
200    cat_2_DequantizeLinear_Output (Conversion, DequantizeLinear)     [b:1,h:2,w:32,c:64]                                 8,192      cat_2_QuantizeLinear_Output   |                     -8,192(-100.0%)        
------ ---------------------------------------------------------------- ------------------------- ----------------- ------------- -------------------------------- --- ------------------- ---------------------- ----------------------------------------------- 
201    mul_6 (Eltwise, Mul)                                             [b:1,h:4,w:32,c:64]                                 8,192    cat_1_DequantizeLinear_Output   | +2,048(+100.0%)                            Eltwise/mul_[51]                                
                                                                                                                                    unsqueeze_5_Dequan..tput_const   | 
------ ---------------------------------------------------------------- ------------------------- ----------------- ------------- -------------------------------- --- ------------------- ---------------------- ----------------------------------------------- 
202    mul_8 (Eltwise, Mul)                                             [b:1,h:2,w:32,c:64]                                 4,096    cat_2_DequantizeLinear_Output   | +2,048(+100.0%)                            Eltwise/mul_[37]                                
                                                                                                                                    unsqueeze_5_Dequan..tput_const   | 
------ ---------------------------------------------------------------- ------------------------- ----------------- ------------- -------------------------------- --- ------------------- ---------------------- ----------------------------------------------- 
203    mul_6_QuantizeLinear_Output (Conversion, QuantizeLinear)         [b:1,h:4,w:32,c:64]                                16,384                            mul_6   |                     -16,384(-100.0%)       
------ ---------------------------------------------------------------- ------------------------- ----------------- ------------- -------------------------------- --- ------------------- ---------------------- ----------------------------------------------- 
204    mul_8_QuantizeLinear_Output (Conversion, QuantizeLinear)         [b:1,h:2,w:32,c:64]                                 8,192                            mul_8   |                     -8,192(-100.0%)        
------ ---------------------------------------------------------------- ------------------------- ----------------- ------------- -------------------------------- --- ------------------- ---------------------- ----------------------------------------------- 
205    mul_6_DequantizeLinear_Output (Conversion, DequantizeLinear)     [b:1,h:4,w:32,c:64]                                16,384      mul_6_QuantizeLinear_Output   |                     -16,384(-100.0%)       
------ ---------------------------------------------------------------- ------------------------- ----------------- ------------- -------------------------------- --- ------------------- ---------------------- ----------------------------------------------- 
206    mul_8_DequantizeLinear_Output (Conversion, DequantizeLinear)     [b:1,h:2,w:32,c:64]                                 8,192      mul_8_QuantizeLinear_Output   |                     -8,192(-100.0%)        
------ ---------------------------------------------------------------- ------------------------- ----------------- ------------- -------------------------------- --- ------------------- ---------------------- ----------------------------------------------- 
207    add_5 (Eltwise, Add)                                             [b:1,h:4,w:32,c:64]                                 8,192    mul_5_DequantizeLinear_Output   |                                            Eltwise/add_[53]                                
                                                                                                                                     mul_6_DequantizeLinear_Output   | 
------ ---------------------------------------------------------------- ------------------------- ----------------- ------------- -------------------------------- --- ------------------- ---------------------- ----------------------------------------------- 
208    add_6 (Eltwise, Add)                                             [b:1,h:2,w:32,c:64]                                 4,096    mul_7_DequantizeLinear_Output   |                                            Eltwise/add_[39]                                
                                                                                                                                     mul_8_DequantizeLinear_Output   | 
------ ---------------------------------------------------------------- ------------------------- ----------------- ------------- -------------------------------- --- ------------------- ---------------------- ----------------------------------------------- 
209    add_5_QuantizeLinear_Output (Conversion, QuantizeLinear)         [b:1,h:4,w:32,c:64]                                16,384                            add_5   |                     -16,384(-100.0%)       
------ ---------------------------------------------------------------- ------------------------- ----------------- ------------- -------------------------------- --- ------------------- ---------------------- ----------------------------------------------- 
210    add_6_QuantizeLinear_Output (Conversion, QuantizeLinear)         [b:1,h:2,w:32,c:64]                                 8,192                            add_6   |                     -8,192(-100.0%)        
------ ---------------------------------------------------------------- ------------------------- ----------------- ------------- -------------------------------- --- ------------------- ---------------------- ----------------------------------------------- 
211    add_5_DequantizeLinear_Output (Conversion, DequantizeLinear)     [b:1,h:4,w:32,c:64]                                16,384      add_5_QuantizeLinear_Output   |                     -16,384(-100.0%)       
------ ---------------------------------------------------------------- ------------------------- ----------------- ------------- -------------------------------- --- ------------------- ---------------------- ----------------------------------------------- 
212    add_6_DequantizeLinear_Output (Conversion, DequantizeLinear)     [b:1,h:2,w:32,c:64]                                 8,192      add_6_QuantizeLinear_Output   |                     -8,192(-100.0%)        
------ ---------------------------------------------------------------- ------------------------- ----------------- ------------- -------------------------------- --- ------------------- ---------------------- ----------------------------------------------- 
213    val_173 (Eltwise, Mul)                                           [b:1,h:4,w:32,c:64]                                 8,192    add_5_DequantizeLinear_Output   | +1(+100.0%)         +16,384(+200.0%)       Eltwise/mul_/Conversion_[54, 55]                
                                                                                                                                    val_172_Dequantize..tput_const   | 
------ ---------------------------------------------------------------- ------------------------- ----------------- ------------- -------------------------------- --- ------------------- ---------------------- ----------------------------------------------- 
214    unsqueeze_6 (Reshape, Unsqueeze)                                 [b:1,h:2,w:1,d:32,c:64]                                      add_6_DequantizeLinear_Output   |                                            
------ ---------------------------------------------------------------- ------------------------- ----------------- ------------- -------------------------------- --- ------------------- ---------------------- ----------------------------------------------- 
215    val_173_QuantizeLinear_Output (Conversion, QuantizeLinear)       [b:1,h:4,w:32,c:64]                                16,384                          val_173   |                     -16,384(-100.0%)       
------ ---------------------------------------------------------------- ------------------------- ----------------- ------------- -------------------------------- --- ------------------- ---------------------- ----------------------------------------------- 
216    unsqueeze_6_Quanti..ear_Output (Conversion, QuantizeLinear)      [b:1,h:2,w:1,d:32,c:64]                             8,192                      unsqueeze_6   |                     -8,192(-100.0%)        
------ ---------------------------------------------------------------- ------------------------- ----------------- ------------- -------------------------------- --- ------------------- ---------------------- ----------------------------------------------- 
217    val_173_Dequantize..ear_Output (Conversion, DequantizeLinear)    [b:1,h:4,w:32,c:64]                                16,384    val_173_QuantizeLinear_Output   |                     -16,384(-100.0%)       
------ ---------------------------------------------------------------- ------------------------- ----------------- ------------- -------------------------------- --- ------------------- ---------------------- ----------------------------------------------- 
218    unsqueeze_6_Dequan..ear_Output (Conversion, DequantizeLinear)    [b:1,h:2,w:1,d:32,c:64]                             8,192   unsqueeze_6_Quanti..ear_Output   |                     -8,192(-100.0%)        
------ ---------------------------------------------------------------- ------------------------- ----------------- ------------- -------------------------------- --- ------------------- ---------------------- ----------------------------------------------- 
219    expand_3 (Tile, Expand)                                          [b:1,h:2,w:2,d:32,c:64]                                     unsqueeze_6_Dequan..ear_Output   |                                            Tile_[40]                                       
------ ---------------------------------------------------------------- ------------------------- ----------------- ------------- -------------------------------- --- ------------------- ---------------------- ----------------------------------------------- 
220    val_168 (Reshape, Reshape)                                       [b:4,h:32,c:64]                                                                   expand_3   |                                            
------ ---------------------------------------------------------------- ------------------------- ----------------- ------------- -------------------------------- --- ------------------- ---------------------- ----------------------------------------------- 
221    val_169 (Transpose, Transpose)                                   [b:4,h:64,c:32]                                     1,024                          val_168   |                     +3,072(+300.0%)        Transpose_[41]                                  
------ ---------------------------------------------------------------- ------------------------- ----------------- ------------- -------------------------------- --- ------------------- ---------------------- ----------------------------------------------- 
222    val_171 (Reshape, Reshape)                                       [b:1,h:4,w:64,c:32]                                                                val_169   |                                            
------ ---------------------------------------------------------------- ------------------------- ----------------- ------------- -------------------------------- --- ------------------- ---------------------- ----------------------------------------------- 
223    val_171_QuantizeLinear_Output (Conversion, QuantizeLinear)       [b:1,h:4,w:64,c:32]                                16,384                          val_171   |                     -16,384(-100.0%)       
------ ---------------------------------------------------------------- ------------------------- ----------------- ------------- -------------------------------- --- ------------------- ---------------------- ----------------------------------------------- 
224    val_171_Dequantize..ear_Output (Conversion, DequantizeLinear)    [b:1,h:4,w:64,c:32]                                16,384    val_171_QuantizeLinear_Output   |                     -16,384(-100.0%)       
------ ---------------------------------------------------------------- ------------------------- ----------------- ------------- -------------------------------- --- ------------------- ---------------------- ----------------------------------------------- 
225    val_175 (Eltwise, Mul)                                           [b:1,h:4,w:64,c:32]                                 8,192   val_171_Dequantize..ear_Output   | +1(+100.0%)         +16,384(+200.0%)       Eltwise/mul_/Conversion_[42, 43]                
                                                                                                                                    val_172_Dequantize..tput_const   | 
------ ---------------------------------------------------------------- ------------------------- ----------------- ------------- -------------------------------- --- ------------------- ---------------------- ----------------------------------------------- 
226    val_175_QuantizeLinear_Output (Conversion, QuantizeLinear)       [b:1,h:4,w:64,c:32]                                16,384                          val_175   |                     -16,384(-100.0%)       
------ ---------------------------------------------------------------- ------------------------- ----------------- ------------- -------------------------------- --- ------------------- ---------------------- ----------------------------------------------- 
227    val_175_Dequantize..ear_Output (Conversion, DequantizeLinear)    [b:1,h:4,w:64,c:32]                                16,384    val_175_QuantizeLinear_Output   |                     -16,384(-100.0%)       
------ ---------------------------------------------------------------- ------------------------- ----------------- ------------- -------------------------------- --- ------------------- ---------------------- ----------------------------------------------- 
228    val_179 (Gemm, MatMul)                                           [b:1,h:4,w:32,c:32]                            33,558,528   val_173_Dequantize..ear_Output   | +1(+100.0%)         +8,194(+0.0%)          Conversion_/Gemm_/Conversion_[3, 56, 57]        
                                                                                                                                    val_175_Dequantize..ear_Output   | 
------ ---------------------------------------------------------------- ------------------------- ----------------- ------------- -------------------------------- --- ------------------- ---------------------- ----------------------------------------------- 
229    val_179_QuantizeLinear_Output (Conversion, QuantizeLinear)       [b:1,h:4,w:32,c:32]                                 8,192                          val_179   |                     -8,192(-100.0%)        
------ ---------------------------------------------------------------- ------------------------- ----------------- ------------- -------------------------------- --- ------------------- ---------------------- ----------------------------------------------- 
230    val_179_Dequantize..ear_Output (Conversion, DequantizeLinear)    [b:1,h:4,w:32,c:32]                                 8,192    val_179_QuantizeLinear_Output   |                     -8,192(-100.0%)        
------ ---------------------------------------------------------------- ------------------------- ----------------- ------------- -------------------------------- --- ------------------- ---------------------- ----------------------------------------------- 
231    val_180 (Eltwise, Add)                                           [b:1,h:4,w:32,c:32]                                 4,096   val_179_Dequantize..ear_Output   |                     +8,192(+200.0%)        Eltwise/add_/Conversion_[65, 66]                
                                                                                                                                    val_178_Dequantize..ear_Output   | 
------ ---------------------------------------------------------------- ------------------------- ----------------- ------------- -------------------------------- --- ------------------- ---------------------- ----------------------------------------------- 
232    val_180_QuantizeLinear_Output (Conversion, QuantizeLinear)       [b:1,h:4,w:32,c:32]                                 8,192                          val_180   |                     -8,192(-100.0%)        
------ ---------------------------------------------------------------- ------------------------- ----------------- ------------- -------------------------------- --- ------------------- ---------------------- ----------------------------------------------- 
233    val_180_Dequantize..ear_Output (Conversion, DequantizeLinear)    [b:1,h:4,w:32,c:32]                                 8,192    val_180_QuantizeLinear_Output   |                     -8,192(-100.0%)        
------ ---------------------------------------------------------------- ------------------------- ----------------- ------------- -------------------------------- --- ------------------- ---------------------- ----------------------------------------------- 
234    val_181 (Nonlinearity, Softmax)                                  [b:1,h:4,w:32,c:32]                                61,440   val_180_Dequantize..ear_Output   |                                            Nonlinearity_[67]                               
------ ---------------------------------------------------------------- ------------------------- ----------------- ------------- -------------------------------- --- ------------------- ---------------------- ----------------------------------------------- 
235    val_181_QuantizeLinear_Output (Conversion, QuantizeLinear)       [b:1,h:4,w:32,c:32]                                 8,192                          val_181   |                     -8,192(-100.0%)        
------ ---------------------------------------------------------------- ------------------------- ----------------- ------------- -------------------------------- --- ------------------- ---------------------- ----------------------------------------------- 
236    val_181_Dequantize..ear_Output (Conversion, DequantizeLinear)    [b:1,h:4,w:32,c:32]                                 8,192    val_181_QuantizeLinear_Output   |                     -8,192(-100.0%)        
------ ---------------------------------------------------------------- ------------------------- ----------------- ------------- -------------------------------- --- ------------------- ---------------------- ----------------------------------------------- 
238    val_183_QuantizeLinear_Output (Conversion, QuantizeLinear)       [b:1,h:4,w:32,c:32]                                 8,192   val_181_Dequantize..ear_Output   |                     -8,192(-100.0%)        
------ ---------------------------------------------------------------- ------------------------- ----------------- ------------- -------------------------------- --- ------------------- ---------------------- ----------------------------------------------- 
239    val_183_Dequantize..ear_Output (Conversion, DequantizeLinear)    [b:1,h:4,w:32,c:32]                                 8,192    val_183_QuantizeLinear_Output   |                     -8,192(-100.0%)        
------ ---------------------------------------------------------------- ------------------------- ----------------- ------------- -------------------------------- --- ------------------- ---------------------- ----------------------------------------------- 
240    scaled_dot_product_attention (Gemm, MatMul)                      [b:1,h:4,w:32,c:64]                            33,562,624   val_183_Dequantize..ear_Output   | +1(+100.0%)         +16,386(+0.0%)         Conversion_/Gemm_/Conversion_[2, 68, 69]        
                                                                                                                                    _unsafe_view_1_Deq..ear_Output   | 
------ ---------------------------------------------------------------- ------------------------- ----------------- ------------- -------------------------------- --- ------------------- ---------------------- ----------------------------------------------- 
241    scaled_dot_product..ear_Output (Conversion, QuantizeLinear)      [b:1,h:4,w:32,c:64]                                16,384     scaled_dot_product_attention   |                     -16,384(-100.0%)       
------ ---------------------------------------------------------------- ------------------------- ----------------- ------------- -------------------------------- --- ------------------- ---------------------- ----------------------------------------------- 
242    scaled_dot_product..ear_Output (Conversion, DequantizeLinear)    [b:1,h:4,w:32,c:64]                                16,384   scaled_dot_product..ear_Output   |                     -16,384(-100.0%)       
------ ---------------------------------------------------------------- ------------------------- ----------------- ------------- -------------------------------- --- ------------------- ---------------------- ----------------------------------------------- 
243    transpose_4 (Transpose, Transpose)                               [b:1,h:32,w:4,c:64]                                 4,096   scaled_dot_product..ear_Output   |                                            Transpose_[70]                                  
------ ---------------------------------------------------------------- ------------------------- ----------------- ------------- -------------------------------- --- ------------------- ---------------------- ----------------------------------------------- 
244    transpose_4_Quanti..ear_Output (Conversion, QuantizeLinear)      [b:1,h:32,w:4,c:64]                                16,384                      transpose_4   |                     -16,384(-100.0%)       
------ ---------------------------------------------------------------- ------------------------- ----------------- ------------- -------------------------------- --- ------------------- ---------------------- ----------------------------------------------- 
245    transpose_4_Dequan..ear_Output (Conversion, DequantizeLinear)    [b:1,h:32,w:4,c:64]                                16,384   transpose_4_Quanti..ear_Output   |                     -16,384(-100.0%)       
------ ---------------------------------------------------------------- ------------------------- ----------------- ------------- -------------------------------- --- ------------------- ---------------------- ----------------------------------------------- 
246    view_9 (Reshape, Reshape)                                        [b:1,h:32,c:256]                                            transpose_4_Dequan..ear_Output   |                                            
------ ---------------------------------------------------------------- ------------------------- ----------------- ------------- -------------------------------- --- ------------------- ---------------------- ----------------------------------------------- 
247    view_9_QuantizeLinear_Output (Conversion, QuantizeLinear)        [b:1,h:32,c:256]                                   16,384                           view_9   |                     -16,384(-100.0%)       
------ ---------------------------------------------------------------- ------------------------- ----------------- ------------- -------------------------------- --- ------------------- ---------------------- ----------------------------------------------- 
248    view_9_DequantizeLinear_Output (Conversion, DequantizeLinear)    [b:1,h:32,c:256]                                   16,384     view_9_QuantizeLinear_Output   |                     -16,384(-100.0%)       
------ ---------------------------------------------------------------- ------------------------- ----------------- ------------- -------------------------------- --- ------------------- ---------------------- ----------------------------------------------- 
249    linear_3 (Gemm, MatMul)                                          [b:1,h:32,c:256]                               67,117,056   view_9_DequantizeLinear_Output   | +66,560(+100.0%)    -65,019,648(-96.9%)    Conv2D_[71]                                     
                                                                                                                                    val_189_Dequantize..tput_const   | 
------ ---------------------------------------------------------------- ------------------------- ----------------- ------------- -------------------------------- --- ------------------- ---------------------- ----------------------------------------------- 
250    linear_3_QuantizeLinear_Output (Conversion, QuantizeLinear)      [b:1,h:32,c:256]                                   16,384                         linear_3   |                     -16,384(-100.0%)       
------ ---------------------------------------------------------------- ------------------------- ----------------- ------------- -------------------------------- --- ------------------- ---------------------- ----------------------------------------------- 
251    linear_3_Dequantiz..ear_Output (Conversion, DequantizeLinear)    [b:1,h:32,c:256]                                   16,384   linear_3_QuantizeLinear_Output   |                     -16,384(-100.0%)       
------ ---------------------------------------------------------------- ------------------------- ----------------- ------------- -------------------------------- --- ------------------- ---------------------- ----------------------------------------------- 
252    add_7 (Eltwise, Add)                                             [b:1,h:32,c:256]                                    8,192   embedding_Dequanti..ear_Output   |                     +16,384(+200.0%)       Eltwise/add_/Conversion_[72, 73]                
                                                                                                                                    linear_3_Dequantiz..ear_Output   | 
------ ---------------------------------------------------------------- ------------------------- ----------------- ------------- -------------------------------- --- ------------------- ---------------------- ----------------------------------------------- 
253    add_7_QuantizeLinear_Output (Conversion, QuantizeLinear)         [b:1,h:32,c:256]                                   16,384                            add_7   |                     -16,384(-100.0%)       
------ ---------------------------------------------------------------- ------------------------- ----------------- ------------- -------------------------------- --- ------------------- ---------------------- ----------------------------------------------- 
254    add_7_DequantizeLinear_Output (Conversion, DequantizeLinear)     [b:1,h:32,c:256]                                   16,384      add_7_QuantizeLinear_Output   |                     -16,384(-100.0%)       
------ ---------------------------------------------------------------- ------------------------- ----------------- ------------- -------------------------------- --- ------------------- ---------------------- ----------------------------------------------- 
255    pow_2 (Eltwise, Pow)                                             [b:1,h:32,c:256]                                   81,920    add_7_DequantizeLinear_Output   | +4(+100.0%)                                Eltwise/pow_[74]                                
                                                                                                                                                            val_60   | 
------ ---------------------------------------------------------------- ------------------------- ----------------- ------------- -------------------------------- --- ------------------- ---------------------- ----------------------------------------------- 
256    mean_1 (Reduce, ReduceMean)                                      [b:1,h:32,c:1]                                     16,384                            pow_2   | +8(+100.0%)         -8,064(-49.2%)         Reduce_/ScaleBias_/Conversion_[75, 76, 77]      
------ ---------------------------------------------------------------- ------------------------- ----------------- ------------- -------------------------------- --- ------------------- ---------------------- ----------------------------------------------- 
257    mean_1_QuantizeLinear_Output (Conversion, QuantizeLinear)        [b:1,h:32,c:1]                                         64                           mean_1   |                     -64(-100.0%)           
------ ---------------------------------------------------------------- ------------------------- ----------------- ------------- -------------------------------- --- ------------------- ---------------------- ----------------------------------------------- 
258    mean_1_DequantizeLinear_Output (Conversion, DequantizeLinear)    [b:1,h:32,c:1]                                         64     mean_1_QuantizeLinear_Output   |                     -64(-100.0%)           
------ ---------------------------------------------------------------- ------------------------- ----------------- ------------- -------------------------------- --- ------------------- ---------------------- ----------------------------------------------- 
259    add_8 (Eltwise, Add)                                             [b:1,h:32,c:1]                                         32   mean_1_DequantizeLinear_Output   | +1(+100.0%)         +64(+200.0%)           Eltwise/add_/Conversion_[78, 79]                
                                                                                                                                    val_63_DequantizeL..tput_const   | 
------ ---------------------------------------------------------------- ------------------------- ----------------- ------------- -------------------------------- --- ------------------- ---------------------- ----------------------------------------------- 
260    add_8_QuantizeLinear_Output (Conversion, QuantizeLinear)         [b:1,h:32,c:1]                                         64                            add_8   |                     -64(-100.0%)           
------ ---------------------------------------------------------------- ------------------------- ----------------- ------------- -------------------------------- --- ------------------- ---------------------- ----------------------------------------------- 
261    add_8_DequantizeLinear_Output (Conversion, DequantizeLinear)     [b:1,h:32,c:1]                                         64      add_8_QuantizeLinear_Output   |                     -64(-100.0%)           
------ ---------------------------------------------------------------- ------------------------- ----------------- ------------- -------------------------------- --- ------------------- ---------------------- ----------------------------------------------- 
262    val_193 (Nonlinearity, Sqrt)                                     [b:1,h:32,c:1]                                        384    add_8_DequantizeLinear_Output   |                                            Nonlinearity_[80]                               
------ ---------------------------------------------------------------- ------------------------- ----------------- ------------- -------------------------------- --- ------------------- ---------------------- ----------------------------------------------- 
263    rsqrt_1 (Nonlinearity, Reciprocal)                               [b:1,h:32,c:1]                                        160                          val_193   |                     +64(+40.0%)            Nonlinearity_/Conversion_[81, 82]               
------ ---------------------------------------------------------------- ------------------------- ----------------- ------------- -------------------------------- --- ------------------- ---------------------- ----------------------------------------------- 
264    rsqrt_1_QuantizeLinear_Output (Conversion, QuantizeLinear)       [b:1,h:32,c:1]                                         64                          rsqrt_1   |                     -64(-100.0%)           
------ ---------------------------------------------------------------- ------------------------- ----------------- ------------- -------------------------------- --- ------------------- ---------------------- ----------------------------------------------- 
265    rsqrt_1_Dequantize..ear_Output (Conversion, DequantizeLinear)    [b:1,h:32,c:1]                                         64    rsqrt_1_QuantizeLinear_Output   |                     -64(-100.0%)           
------ ---------------------------------------------------------------- ------------------------- ----------------- ------------- -------------------------------- --- ------------------- ---------------------- ----------------------------------------------- 
266    mul_9 (Eltwise, Mul)                                             [b:1,h:32,c:256]                                    8,192    add_7_DequantizeLinear_Output   |                                            Eltwise/mul_[83]                                
                                                                                                                                    rsqrt_1_Dequantize..ear_Output   | 
------ ---------------------------------------------------------------- ------------------------- ----------------- ------------- -------------------------------- --- ------------------- ---------------------- ----------------------------------------------- 
267    mul_9_QuantizeLinear_Output (Conversion, QuantizeLinear)         [b:1,h:32,c:256]                                   16,384                            mul_9   |                     -16,384(-100.0%)       
------ ---------------------------------------------------------------- ------------------------- ----------------- ------------- -------------------------------- --- ------------------- ---------------------- ----------------------------------------------- 
268    mul_9_DequantizeLinear_Output (Conversion, DequantizeLinear)     [b:1,h:32,c:256]                                   16,384      mul_9_QuantizeLinear_Output   |                     -16,384(-100.0%)       
------ ---------------------------------------------------------------- ------------------------- ----------------- ------------- -------------------------------- --- ------------------- ---------------------- ----------------------------------------------- 
269    mul_10 (Eltwise, Mul)                                            [b:1,h:32,c:256]                                      256   mdl_model_layers_0..tput_const   | +256(+100.0%)                              Eltwise/mul_[84]                                
                                                                                                                                     mul_9_DequantizeLinear_Output   | 
------ ---------------------------------------------------------------- ------------------------- ----------------- ------------- -------------------------------- --- ------------------- ---------------------- ----------------------------------------------- 
270    mul_10_QuantizeLinear_Output (Conversion, QuantizeLinear)        [b:1,h:32,c:256]                                   16,384                           mul_10   |                     -16,384(-100.0%)       
------ ---------------------------------------------------------------- ------------------------- ----------------- ------------- -------------------------------- --- ------------------- ---------------------- ----------------------------------------------- 
271    mul_10_DequantizeLinear_Output (Conversion, DequantizeLinear)    [b:1,h:32,c:256]                                   16,384     mul_10_QuantizeLinear_Output   |                     -16,384(-100.0%)       
------ ---------------------------------------------------------------- ------------------------- ----------------- ------------- -------------------------------- --- ------------------- ---------------------- ----------------------------------------------- 
272    linear_4 (Gemm, MatMul)                                          [b:1,h:32,c:512]                              134,234,112   mul_10_DequantizeLinear_Output   | +133,120(+100.0%)   -130,039,296(-96.9%)   Conv2D_[85]                                     
                                                                                                                                    val_194_Dequantize..tput_const   | 
------ ---------------------------------------------------------------- ------------------------- ----------------- ------------- -------------------------------- --- ------------------- ---------------------- ----------------------------------------------- 
273    linear_5 (Gemm, MatMul)                                          [b:1,h:32,c:512]                              134,234,112   mul_10_DequantizeLinear_Output   | +133,120(+100.0%)   -130,039,296(-96.9%)   Conv2D_[88]                                     
                                                                                                                                    val_196_Dequantize..tput_const   | 
------ ---------------------------------------------------------------- ------------------------- ----------------- ------------- -------------------------------- --- ------------------- ---------------------- ----------------------------------------------- 
274    linear_4_QuantizeLinear_Output (Conversion, QuantizeLinear)      [b:1,h:32,c:512]                                   32,768                         linear_4   |                     -32,768(-100.0%)       
------ ---------------------------------------------------------------- ------------------------- ----------------- ------------- -------------------------------- --- ------------------- ---------------------- ----------------------------------------------- 
275    linear_5_QuantizeLinear_Output (Conversion, QuantizeLinear)      [b:1,h:32,c:512]                                   32,768                         linear_5   |                     -32,768(-100.0%)       
------ ---------------------------------------------------------------- ------------------------- ----------------- ------------- -------------------------------- --- ------------------- ---------------------- ----------------------------------------------- 
276    linear_4_Dequantiz..ear_Output (Conversion, DequantizeLinear)    [b:1,h:32,c:512]                                   32,768   linear_4_QuantizeLinear_Output   |                     -32,768(-100.0%)       
------ ---------------------------------------------------------------- ------------------------- ----------------- ------------- -------------------------------- --- ------------------- ---------------------- ----------------------------------------------- 
277    linear_5_Dequantiz..ear_Output (Conversion, DequantizeLinear)    [b:1,h:32,c:512]                                   32,768   linear_5_QuantizeLinear_Output   |                     -32,768(-100.0%)       
------ ---------------------------------------------------------------- ------------------------- ----------------- ------------- -------------------------------- --- ------------------- ---------------------- ----------------------------------------------- 
278    val_195 (Nonlinearity, Sigmoid)                                  [b:1,h:32,c:512]                                  163,840   linear_4_Dequantiz..ear_Output   |                     -147,456(-90.0%)       Nonlinearity_[86]                               
------ ---------------------------------------------------------------- ------------------------- ----------------- ------------- -------------------------------- --- ------------------- ---------------------- ----------------------------------------------- 
279    val_195_QuantizeLinear_Output (Conversion, QuantizeLinear)       [b:1,h:32,c:512]                                   32,768                          val_195   |                     -32,768(-100.0%)       
------ ---------------------------------------------------------------- ------------------------- ----------------- ------------- -------------------------------- --- ------------------- ---------------------- ----------------------------------------------- 
280    val_195_Dequantize..ear_Output (Conversion, DequantizeLinear)    [b:1,h:32,c:512]                                   32,768    val_195_QuantizeLinear_Output   |                     -32,768(-100.0%)       
------ ---------------------------------------------------------------- ------------------------- ----------------- ------------- -------------------------------- --- ------------------- ---------------------- ----------------------------------------------- 
281    silu (Eltwise, Mul)                                              [b:1,h:32,c:512]                                   16,384   linear_4_Dequantiz..ear_Output   |                                            Eltwise/mul_[87]                                
                                                                                                                                    val_195_Dequantize..ear_Output   | 
------ ---------------------------------------------------------------- ------------------------- ----------------- ------------- -------------------------------- --- ------------------- ---------------------- ----------------------------------------------- 
282    silu_QuantizeLinear_Output (Conversion, QuantizeLinear)          [b:1,h:32,c:512]                                   32,768                             silu   |                     -32,768(-100.0%)       
------ ---------------------------------------------------------------- ------------------------- ----------------- ------------- -------------------------------- --- ------------------- ---------------------- ----------------------------------------------- 
283    silu_DequantizeLinear_Output (Conversion, DequantizeLinear)      [b:1,h:32,c:512]                                   32,768       silu_QuantizeLinear_Output   |                     -32,768(-100.0%)       
------ ---------------------------------------------------------------- ------------------------- ----------------- ------------- -------------------------------- --- ------------------- ---------------------- ----------------------------------------------- 
284    mul_11 (Eltwise, Mul)                                            [b:1,h:32,c:512]                                   16,384     silu_DequantizeLinear_Output   |                                            Eltwise/mul_[89]                                
                                                                                                                                    linear_5_Dequantiz..ear_Output   | 
------ ---------------------------------------------------------------- ------------------------- ----------------- ------------- -------------------------------- --- ------------------- ---------------------- ----------------------------------------------- 
285    mul_11_QuantizeLinear_Output (Conversion, QuantizeLinear)        [b:1,h:32,c:512]                                   32,768                           mul_11   |                     -32,768(-100.0%)       
------ ---------------------------------------------------------------- ------------------------- ----------------- ------------- -------------------------------- --- ------------------- ---------------------- ----------------------------------------------- 
286    mul_11_DequantizeLinear_Output (Conversion, DequantizeLinear)    [b:1,h:32,c:512]                                   32,768     mul_11_QuantizeLinear_Output   |                     -32,768(-100.0%)       
------ ---------------------------------------------------------------- ------------------------- ----------------- ------------- -------------------------------- --- ------------------- ---------------------- ----------------------------------------------- 
287    linear_6 (Gemm, MatMul)                                          [b:1,h:32,c:256]                              134,225,920   mul_11_DequantizeLinear_Output   | +132,096(+100.0%)   -130,031,360(-96.9%)   Conv2D_[90]                                     
                                                                                                                                    val_197_Dequantize..tput_const   | 
------ ---------------------------------------------------------------- ------------------------- ----------------- ------------- -------------------------------- --- ------------------- ---------------------- ----------------------------------------------- 
288    linear_6_QuantizeLinear_Output (Conversion, QuantizeLinear)      [b:1,h:32,c:256]                                   16,384                         linear_6   |                     -16,384(-100.0%)       
------ ---------------------------------------------------------------- ------------------------- ----------------- ------------- -------------------------------- --- ------------------- ---------------------- ----------------------------------------------- 
289    linear_6_Dequantiz..ear_Output (Conversion, DequantizeLinear)    [b:1,h:32,c:256]                                   16,384   linear_6_QuantizeLinear_Output   |                     -16,384(-100.0%)       
------ ---------------------------------------------------------------- ------------------------- ----------------- ------------- -------------------------------- --- ------------------- ---------------------- ----------------------------------------------- 
290    add_9 (Eltwise, Add)                                             [b:1,h:32,c:256]                                    8,192    add_7_DequantizeLinear_Output   |                     +16,384(+200.0%)       Eltwise/add_/Conversion_[91, 92]                
                                                                                                                                    linear_6_Dequantiz..ear_Output   | 
------ ---------------------------------------------------------------- ------------------------- ----------------- ------------- -------------------------------- --- ------------------- ---------------------- ----------------------------------------------- 
291    add_9_QuantizeLinear_Output (Conversion, QuantizeLinear)         [b:1,h:32,c:256]                                   16,384                            add_9   |                     -16,384(-100.0%)       
------ ---------------------------------------------------------------- ------------------------- ----------------- ------------- -------------------------------- --- ------------------- ---------------------- ----------------------------------------------- 
292    add_9_DequantizeLinear_Output (Conversion, DequantizeLinear)     [b:1,h:32,c:256]                                   16,384      add_9_QuantizeLinear_Output   |                     -16,384(-100.0%)       
------ ---------------------------------------------------------------- ------------------------- ----------------- ------------- -------------------------------- --- ------------------- ---------------------- ----------------------------------------------- 
293    pow_3 (Eltwise, Pow)                                             [b:1,h:32,c:256]                                   81,920    add_9_DequantizeLinear_Output   | +4(+100.0%)                                Eltwise/pow_[93]                                
                                                                                                                                                            val_60   | 
------ ---------------------------------------------------------------- ------------------------- ----------------- ------------- -------------------------------- --- ------------------- ---------------------- ----------------------------------------------- 
294    mean_2 (Reduce, ReduceMean)                                      [b:1,h:32,c:1]                                     16,384                            pow_3   | +8(+100.0%)         -8,064(-49.2%)         Reduce_/ScaleBias_/Conversion_[94, 95, 96]      
------ ---------------------------------------------------------------- ------------------------- ----------------- ------------- -------------------------------- --- ------------------- ---------------------- ----------------------------------------------- 
295    mean_2_QuantizeLinear_Output (Conversion, QuantizeLinear)        [b:1,h:32,c:1]                                         64                           mean_2   |                     -64(-100.0%)           
------ ---------------------------------------------------------------- ------------------------- ----------------- ------------- -------------------------------- --- ------------------- ---------------------- ----------------------------------------------- 
296    mean_2_DequantizeLinear_Output (Conversion, DequantizeLinear)    [b:1,h:32,c:1]                                         64     mean_2_QuantizeLinear_Output   |                     -64(-100.0%)           
------ ---------------------------------------------------------------- ------------------------- ----------------- ------------- -------------------------------- --- ------------------- ---------------------- ----------------------------------------------- 
297    add_10 (Eltwise, Add)                                            [b:1,h:32,c:1]                                         32   mean_2_DequantizeLinear_Output   | +1(+100.0%)         +64(+200.0%)           Eltwise/add_/Conversion_[97, 98]                
                                                                                                                                    val_63_DequantizeL..tput_const   | 
------ ---------------------------------------------------------------- ------------------------- ----------------- ------------- -------------------------------- --- ------------------- ---------------------- ----------------------------------------------- 
298    add_10_QuantizeLinear_Output (Conversion, QuantizeLinear)        [b:1,h:32,c:1]                                         64                           add_10   |                     -64(-100.0%)           
------ ---------------------------------------------------------------- ------------------------- ----------------- ------------- -------------------------------- --- ------------------- ---------------------- ----------------------------------------------- 
299    add_10_DequantizeLinear_Output (Conversion, DequantizeLinear)    [b:1,h:32,c:1]                                         64     add_10_QuantizeLinear_Output   |                     -64(-100.0%)           
------ ---------------------------------------------------------------- ------------------------- ----------------- ------------- -------------------------------- --- ------------------- ---------------------- ----------------------------------------------- 
300    val_201 (Nonlinearity, Sqrt)                                     [b:1,h:32,c:1]                                        384   add_10_DequantizeLinear_Output   |                                            Nonlinearity_[99]                               
------ ---------------------------------------------------------------- ------------------------- ----------------- ------------- -------------------------------- --- ------------------- ---------------------- ----------------------------------------------- 
301    rsqrt_2 (Nonlinearity, Reciprocal)                               [b:1,h:32,c:1]                                        160                          val_201   |                     +64(+40.0%)            Nonlinearity_/Conversion_[100, 101]             
------ ---------------------------------------------------------------- ------------------------- ----------------- ------------- -------------------------------- --- ------------------- ---------------------- ----------------------------------------------- 
302    rsqrt_2_QuantizeLinear_Output (Conversion, QuantizeLinear)       [b:1,h:32,c:1]                                         64                          rsqrt_2   |                     -64(-100.0%)           
------ ---------------------------------------------------------------- ------------------------- ----------------- ------------- -------------------------------- --- ------------------- ---------------------- ----------------------------------------------- 
303    rsqrt_2_Dequantize..ear_Output (Conversion, DequantizeLinear)    [b:1,h:32,c:1]                                         64    rsqrt_2_QuantizeLinear_Output   |                     -64(-100.0%)           
------ ---------------------------------------------------------------- ------------------------- ----------------- ------------- -------------------------------- --- ------------------- ---------------------- ----------------------------------------------- 
304    mul_12 (Eltwise, Mul)                                            [b:1,h:32,c:256]                                    8,192    add_9_DequantizeLinear_Output   |                                            Eltwise/mul_[102]                               
                                                                                                                                    rsqrt_2_Dequantize..ear_Output   | 
------ ---------------------------------------------------------------- ------------------------- ----------------- ------------- -------------------------------- --- ------------------- ---------------------- ----------------------------------------------- 
305    mul_12_QuantizeLinear_Output (Conversion, QuantizeLinear)        [b:1,h:32,c:256]                                   16,384                           mul_12   |                     -16,384(-100.0%)       
------ ---------------------------------------------------------------- ------------------------- ----------------- ------------- -------------------------------- --- ------------------- ---------------------- ----------------------------------------------- 
306    mul_12_DequantizeLinear_Output (Conversion, DequantizeLinear)    [b:1,h:32,c:256]                                   16,384     mul_12_QuantizeLinear_Output   |                     -16,384(-100.0%)       
------ ---------------------------------------------------------------- ------------------------- ----------------- ------------- -------------------------------- --- ------------------- ---------------------- ----------------------------------------------- 
307    mul_13 (Eltwise, Mul)                                            [b:1,h:32,c:256]                                      256   mdl_model_layers_1..tput_const   | +256(+100.0%)                              Eltwise/mul_[103]                               
                                                                                                                                    mul_12_DequantizeLinear_Output   | 
------ ---------------------------------------------------------------- ------------------------- ----------------- ------------- -------------------------------- --- ------------------- ---------------------- ----------------------------------------------- 
308    mul_13_QuantizeLinear_Output (Conversion, QuantizeLinear)        [b:1,h:32,c:256]                                   16,384                           mul_13   |                     -16,384(-100.0%)       
------ ---------------------------------------------------------------- ------------------------- ----------------- ------------- -------------------------------- --- ------------------- ---------------------- ----------------------------------------------- 
309    mul_13_DequantizeLinear_Output (Conversion, DequantizeLinear)    [b:1,h:32,c:256]                                   16,384     mul_13_QuantizeLinear_Output   |                     -16,384(-100.0%)       
------ ---------------------------------------------------------------- ------------------------- ----------------- ------------- -------------------------------- --- ------------------- ---------------------- ----------------------------------------------- 
310    val_203 (Gemm, MatMul)                                           [b:1,h:32,c:256]                               67,117,056   mul_13_DequantizeLinear_Output   | +66,560(+100.0%)    -65,019,648(-96.9%)    Conv2D_[104]                                    
                                                                                                                                    val_202_Dequantize..tput_const   | 
------ ---------------------------------------------------------------- ------------------------- ----------------- ------------- -------------------------------- --- ------------------- ---------------------- ----------------------------------------------- 
311    val_211 (Gemm, MatMul)                                           [b:1,h:32,c:128]                               33,558,528   mul_13_DequantizeLinear_Output   | +33,280(+100.0%)    -32,509,824(-96.9%)    Conv2D_[116]                                    
                                                                                                                                    val_210_Dequantize..tput_const   | 
------ ---------------------------------------------------------------- ------------------------- ----------------- ------------- -------------------------------- --- ------------------- ---------------------- ----------------------------------------------- 
312    val_219 (Gemm, MatMul)                                           [b:1,h:32,c:128]                               33,558,528   mul_13_DequantizeLinear_Output   | +33,280(+100.0%)    -32,509,824(-96.9%)    Conv2D_[135]                                    
                                                                                                                                    val_218_Dequantize..tput_const   | 
------ ---------------------------------------------------------------- ------------------------- ----------------- ------------- -------------------------------- --- ------------------- ---------------------- ----------------------------------------------- 
313    val_203_QuantizeLinear_Output (Conversion, QuantizeLinear)       [b:1,h:32,c:256]                                   16,384                          val_203   |                     -16,384(-100.0%)       
------ ---------------------------------------------------------------- ------------------------- ----------------- ------------- -------------------------------- --- ------------------- ---------------------- ----------------------------------------------- 
314    val_211_QuantizeLinear_Output (Conversion, QuantizeLinear)       [b:1,h:32,c:128]                                    8,192                          val_211   |                     -8,192(-100.0%)        
------ ---------------------------------------------------------------- ------------------------- ----------------- ------------- -------------------------------- --- ------------------- ---------------------- ----------------------------------------------- 
315    val_219_QuantizeLinear_Output (Conversion, QuantizeLinear)       [b:1,h:32,c:128]                                    8,192                          val_219   |                     -8,192(-100.0%)        
------ ---------------------------------------------------------------- ------------------------- ----------------- ------------- -------------------------------- --- ------------------- ---------------------- ----------------------------------------------- 
316    val_203_Dequantize..ear_Output (Conversion, DequantizeLinear)    [b:1,h:32,c:256]                                   16,384    val_203_QuantizeLinear_Output   |                     -16,384(-100.0%)       
------ ---------------------------------------------------------------- ------------------------- ----------------- ------------- -------------------------------- --- ------------------- ---------------------- ----------------------------------------------- 
317    val_211_Dequantize..ear_Output (Conversion, DequantizeLinear)    [b:1,h:32,c:128]                                    8,192    val_211_QuantizeLinear_Output   |                     -8,192(-100.0%)        
------ ---------------------------------------------------------------- ------------------------- ----------------- ------------- -------------------------------- --- ------------------- ---------------------- ----------------------------------------------- 
318    val_219_Dequantize..ear_Output (Conversion, DequantizeLinear)    [b:1,h:32,c:128]                                    8,192    val_219_QuantizeLinear_Output   |                     -8,192(-100.0%)        
------ ---------------------------------------------------------------- ------------------------- ----------------- ------------- -------------------------------- --- ------------------- ---------------------- ----------------------------------------------- 
319    linear_7 (Eltwise, Add)                                          [b:1,h:32,c:256]                                    8,192   val_203_Dequantize..ear_Output   | +256(+100.0%)                              Eltwise/add_[105]                               
                                                                                                                                    mdl_model_layers_1..tput_const   | 
------ ---------------------------------------------------------------- ------------------------- ----------------- ------------- -------------------------------- --- ------------------- ---------------------- ----------------------------------------------- 
320    linear_8 (Eltwise, Add)                                          [b:1,h:32,c:128]                                    4,096   val_211_Dequantize..ear_Output   | +128(+100.0%)                              Eltwise/add_[117]                               
                                                                                                                                    mdl_model_layers_1..tput_const   | 
------ ---------------------------------------------------------------- ------------------------- ----------------- ------------- -------------------------------- --- ------------------- ---------------------- ----------------------------------------------- 
321    linear_9 (Eltwise, Add)                                          [b:1,h:32,c:128]                                    4,096   val_219_Dequantize..ear_Output   | +128(+100.0%)                              Eltwise/add_[136]                               
                                                                                                                                    mdl_model_layers_1..tput_const   | 
------ ---------------------------------------------------------------- ------------------------- ----------------- ------------- -------------------------------- --- ------------------- ---------------------- ----------------------------------------------- 
322    linear_7_QuantizeLinear_Output (Conversion, QuantizeLinear)      [b:1,h:32,c:256]                                   16,384                         linear_7   |                     -16,384(-100.0%)       
------ ---------------------------------------------------------------- ------------------------- ----------------- ------------- -------------------------------- --- ------------------- ---------------------- ----------------------------------------------- 
323    linear_8_QuantizeLinear_Output (Conversion, QuantizeLinear)      [b:1,h:32,c:128]                                    8,192                         linear_8   |                     -8,192(-100.0%)        
------ ---------------------------------------------------------------- ------------------------- ----------------- ------------- -------------------------------- --- ------------------- ---------------------- ----------------------------------------------- 
324    linear_9_QuantizeLinear_Output (Conversion, QuantizeLinear)      [b:1,h:32,c:128]                                    8,192                         linear_9   |                     -8,192(-100.0%)        
------ ---------------------------------------------------------------- ------------------------- ----------------- ------------- -------------------------------- --- ------------------- ---------------------- ----------------------------------------------- 
325    linear_7_Dequantiz..ear_Output (Conversion, DequantizeLinear)    [b:1,h:32,c:256]                                   16,384   linear_7_QuantizeLinear_Output   |                     -16,384(-100.0%)       
------ ---------------------------------------------------------------- ------------------------- ----------------- ------------- -------------------------------- --- ------------------- ---------------------- ----------------------------------------------- 
326    linear_8_Dequantiz..ear_Output (Conversion, DequantizeLinear)    [b:1,h:32,c:128]                                    8,192   linear_8_QuantizeLinear_Output   |                     -8,192(-100.0%)        
------ ---------------------------------------------------------------- ------------------------- ----------------- ------------- -------------------------------- --- ------------------- ---------------------- ----------------------------------------------- 
327    linear_9_Dequantiz..ear_Output (Conversion, DequantizeLinear)    [b:1,h:32,c:128]                                    8,192   linear_9_QuantizeLinear_Output   |                     -8,192(-100.0%)        
------ ---------------------------------------------------------------- ------------------------- ----------------- ------------- -------------------------------- --- ------------------- ---------------------- ----------------------------------------------- 
328    view_10 (Reshape, Reshape)                                       [b:1,h:32,w:4,c:64]                                         linear_7_Dequantiz..ear_Output   |                                            
------ ---------------------------------------------------------------- ------------------------- ----------------- ------------- -------------------------------- --- ------------------- ---------------------- ----------------------------------------------- 
329    view_11 (Reshape, Reshape)                                       [b:1,h:32,w:2,c:64]                                         linear_8_Dequantiz..ear_Output   |                                            
------ ---------------------------------------------------------------- ------------------------- ----------------- ------------- -------------------------------- --- ------------------- ---------------------- ----------------------------------------------- 
330    view_12 (Reshape, Reshape)                                       [b:1,h:32,w:2,c:64]                                         linear_9_Dequantiz..ear_Output   |                                            
------ ---------------------------------------------------------------- ------------------------- ----------------- ------------- -------------------------------- --- ------------------- ---------------------- ----------------------------------------------- 
331    view_10_QuantizeLinear_Output (Conversion, QuantizeLinear)       [b:1,h:32,w:4,c:64]                                16,384                          view_10   |                     -16,384(-100.0%)       
------ ---------------------------------------------------------------- ------------------------- ----------------- ------------- -------------------------------- --- ------------------- ---------------------- ----------------------------------------------- 
332    view_11_QuantizeLinear_Output (Conversion, QuantizeLinear)       [b:1,h:32,w:2,c:64]                                 8,192                          view_11   |                     -8,192(-100.0%)        
------ ---------------------------------------------------------------- ------------------------- ----------------- ------------- -------------------------------- --- ------------------- ---------------------- ----------------------------------------------- 
333    view_12_QuantizeLinear_Output (Conversion, QuantizeLinear)       [b:1,h:32,w:2,c:64]                                 8,192                          view_12   |                     -8,192(-100.0%)        
------ ---------------------------------------------------------------- ------------------------- ----------------- ------------- -------------------------------- --- ------------------- ---------------------- ----------------------------------------------- 
334    view_10_Dequantize..ear_Output (Conversion, DequantizeLinear)    [b:1,h:32,w:4,c:64]                                16,384    view_10_QuantizeLinear_Output   |                     -16,384(-100.0%)       
------ ---------------------------------------------------------------- ------------------------- ----------------- ------------- -------------------------------- --- ------------------- ---------------------- ----------------------------------------------- 
335    view_11_Dequantize..ear_Output (Conversion, DequantizeLinear)    [b:1,h:32,w:2,c:64]                                 8,192    view_11_QuantizeLinear_Output   |                     -8,192(-100.0%)        
------ ---------------------------------------------------------------- ------------------------- ----------------- ------------- -------------------------------- --- ------------------- ---------------------- ----------------------------------------------- 
336    view_12_Dequantize..ear_Output (Conversion, DequantizeLinear)    [b:1,h:32,w:2,c:64]                                 8,192    view_12_QuantizeLinear_Output   |                     -8,192(-100.0%)        
------ ---------------------------------------------------------------- ------------------------- ----------------- ------------- -------------------------------- --- ------------------- ---------------------- ----------------------------------------------- 
337    transpose_5 (Transpose, Transpose)                               [b:1,h:4,w:32,c:64]                                 4,096   view_10_Dequantize..ear_Output   |                                            Transpose_[106]                                 
------ ---------------------------------------------------------------- ------------------------- ----------------- ------------- -------------------------------- --- ------------------- ---------------------- ----------------------------------------------- 
338    transpose_6 (Transpose, Transpose)                               [b:1,h:2,w:32,c:64]                                 2,048   view_11_Dequantize..ear_Output   |                                            Transpose_[118]                                 
…
------ ----------------------------------------------------------- ----- --------------- ---------- -------- ----------------------------------------------------------------------------------------- ------------------------- 
158    val_328                                                     460   Nonlinearity    16384      0        I: linear_11_output                                                                       int8(1x32x1x512) (46)     
                                                                                                             O: val_328_output                                                                         int8(1x32x512) (216)      
------ ----------------------------------------------------------- ----- --------------- ---------- -------- ----------------------------------------------------------------------------------------- ------------------------- 
159    silu_1                                                      463   Eltwise/mul     16384      0        I: linear_11_output                                                                       int8(1x32x1x512) (46)     
                                                                                                             I: val_328_output                                                                         int8(1x32x1x512) (46)     
                                                                                                             O: silu_1_output                                                                          int8(1x32x512) (155)      
------ ----------------------------------------------------------- ----- --------------- ---------- -------- ----------------------------------------------------------------------------------------- ------------------------- 
160    linear_12                                                   455   Conv2D          4194816    133120   I: mul_19_output                                                                          int8(1x32x256) (116)      
                                                                                                             S: linear_12_scratch0                                                                                               
                                                                                                             W: linear_12_weights                                                                      int8(512x1x1x256) (51)    
                                                                                                             W: linear_4_bias                                                                          int32(512) (60)           
                                                                                                             O: linear_12_output                                                                       int8(1x32x1x512) (49)     
------ ----------------------------------------------------------- ----- --------------- ---------- -------- ----------------------------------------------------------------------------------------- ------------------------- 
161    mul_20                                                      466   Eltwise/mul     16384      0        I: silu_1_output                                                                          int8(1x32x512) (155)      
                                                                                                             I: linear_12_output                                                                       int8(1x32x512) (155)      
                                                                                                             O: mul_20_output                                                                          int8(1x32x512) (117)      
------ ----------------------------------------------------------- ----- --------------- ---------- -------- ----------------------------------------------------------------------------------------- ------------------------- 
162    linear_13                                                   469   Conv2D          4194560    132096   I: mul_20_output                                                                          int8(1x32x512) (117)      
                                                                                                             S: linear_13_scratch0                                                                                               
                                                                                                             W: linear_13_weights                                                                      int8(256x1x1x512) (54)    
                                                                                                             W: val_66_bias                                                                            int32(256) (224)          
                                                                                                             O: linear_13_output                                                                       int8(1x32x1x256) (52)     
------ ----------------------------------------------------------- ----- --------------- ---------- -------- ----------------------------------------------------------------------------------------- ------------------------- 
163    add_15                                                      472   Eltwise/add     8192       0        I: add_13_output                                                                          int8(1x32x256) (9)        
                                                                                                             I: linear_13_output                                                                       int8(1x32x256) (9)        
                                                                                                             O: add_15_output                                                                          int8(1x32x256) (13)       
------ ----------------------------------------------------------- ----- --------------- ---------- -------- ----------------------------------------------------------------------------------------- ------------------------- 
164    add_15_0_0_pow_5_conversion                                 472   Conversion      16384      0        I: add_15_output                                                                          int8(1x32x256) (13)       
                                                                                                             O: add_15_0_0_pow_5_conversion_output                                                     f32(1x32x256) (12)        
------ ----------------------------------------------------------- ----- --------------- ---------- -------- ----------------------------------------------------------------------------------------- ------------------------- 
165    pow_5                                                       475   Eltwise/pow     81920      4        I: add_15_0_0_pow_5_conversion_output                                                     f32(1x32x256) (12)        
                                                                                                             W: val_60_3D                                                                              f32(1x1) (221)            
                                                                                                             O: pow_5_output                                                                           f32(1x32x256) (136)       
------ ----------------------------------------------------------- ----- --------------- ---------- -------- ----------------------------------------------------------------------------------------- ------------------------- 
166    mean_4                                                      476   Reduce          8192       0        I: pow_5_output                                                                           f32(1x32x256) (136)       
                                                                                                             O: mean_4_output                                                                          f32(1x32x1) (101)         
------ ----------------------------------------------------------- ----- --------------- ---------- -------- ----------------------------------------------------------------------------------------- ------------------------- 
167    mean_4_Mul                                                  476   ScaleBias       64         8        I: mean_4_output                                                                          f32(1x32x1) (101)         
                                                                                                             W: mean_Mul_scale                                                                         f32(1) (105)              
                                                                                                             W: mean_Mul_bias                                                                          f32(1) (103)              
                                                                                                             O: mean_4_Mul_output                                                                      f32(1x32x1) (100)         
------ ----------------------------------------------------------- ----- --------------- ---------- -------- ----------------------------------------------------------------------------------------- ------------------------- 
168    mean_4_Mul_0_0_add_16_conversion                            476   Conversion      64         0        I: mean_4_Mul_output                                                                      f32(1x32x1) (100)         
                                                                                                             O: mean_4_Mul_0_0_add_16_conversion_output                                                int8(1x32x1) (99)         
------ ----------------------------------------------------------- ----- --------------- ---------- -------- ----------------------------------------------------------------------------------------- ------------------------- 
169    add_16                                                      479   Eltwise/add     32         1        I: mean_4_Mul_0_0_add_16_conversion_output                                                int8(1x32x1) (99)         
                                                                                                             W: val_63_DequantizeLinear_Output_const_3D                                                int8(1x1) (222)           
                                                                                                             O: add_16_output                                                                          int8(1x32x1) (15)         
------ ----------------------------------------------------------- ----- --------------- ---------- -------- ----------------------------------------------------------------------------------------- ------------------------- 
170    add_16_0_0_val_334_conversion                               479   Conversion      64         0        I: add_16_output                                                                          int8(1x32x1) (15)         
                                                                                                             O: add_16_0_0_val_334_conversion_output                                                   f32(1x32x1) (14)          
------ ----------------------------------------------------------- ----- --------------- ---------- -------- ----------------------------------------------------------------------------------------- ------------------------- 
171    val_334                                                     482   Nonlinearity    384        0        I: add_16_0_0_val_334_conversion_output                                                   f32(1x32x1) (14)          
                                                                                                             O: val_334_output                                                                         f32(1x32x1) (217)         
------ ----------------------------------------------------------- ----- --------------- ---------- -------- ----------------------------------------------------------------------------------------- ------------------------- 
172    rsqrt_4                                                     483   Nonlinearity    160        0        I: val_334_output                                                                         f32(1x32x1) (217)         
                                                                                                             O: rsqrt_4_output                                                                         f32(1x32x1) (145)         
------ ----------------------------------------------------------- ----- --------------- ---------- -------- ----------------------------------------------------------------------------------------- ------------------------- 
173    rsqrt_4_0_1_mul_21_conversion                               483   Conversion      64         0        I: rsqrt_4_output                                                                         f32(1x32x1) (145)         
                                                                                                             O: rsqrt_4_0_1_mul_21_conversion_output                                                   int8(1x32x1) (144)        
------ ----------------------------------------------------------- ----- --------------- ---------- -------- ----------------------------------------------------------------------------------------- ------------------------- 
174    mul_21                                                      486   Eltwise/mul     8192       0        I: add_15_output                                                                          int8(1x32x256) (13)       
                                                                                                             I: rsqrt_4_0_1_mul_21_conversion_output                                                   int8(1x32x256) (13)       
                                                                                                             O: mul_21_output                                                                          int8(1x32x256) (118)      
------ ----------------------------------------------------------- ----- --------------- ---------- -------- ----------------------------------------------------------------------------------------- ------------------------- 
175    mul_22                                                      489   Eltwise/mul     256        256      I: mul_21_output                                                                          int8(1x32x256) (118)      
                                                                                                             W: mdl_model_norm_weight_DequantizeLinear_Output_const_3D                                 int8(1x256) (89)          
                                                                                                             O: mul_22_output                                                                          int8(1x32x256) (119)      
------ ----------------------------------------------------------- ----- --------------- ---------- -------- ----------------------------------------------------------------------------------------- ------------------------- 
176    logits_QuantizeLinear_Input                                 492   Conv2D          3064182    97240    I: mul_22_output                                                                          int8(1x32x256) (119)      
                                                                                                             S: logits_QuantizeLinear_Input_scratch0                                                                             
                                                                                                             W: logits_QuantizeLinear_Input_weights                                                    int8(374x1x1x256) (77)    
                                                                                                             W: logits_QuantizeLinear_Input_bias                                                       int32(374) (74)           
                                                                                                             O: logits_QuantizeLinear_Input_output                                                     int8(1x32x1x374) (75)     
------ ----------------------------------------------------------- ----- --------------- ---------- -------- ----------------------------------------------------------------------------------------- ------------------------- 



Number of operations per c-layer
------- ------ ---------------------------------------------- ------------- -------------- 
c_id    m_id   name (type)                                              #op           type 
------- ------ ---------------------------------------------- ------------- -------------- 
0       422    scaled_dot_product..conversion (Conversion)                2     smul_s8_s8 
1       410    val_312_bias_0_2_v..conversion (Conversion)                2     smul_s8_s8 
2       240    scaled_dot_product..conversion (Conversion)                2     smul_s8_s8 
3       228    val_179_bias_0_2_v..conversion (Conversion)                2     smul_s8_s8 
4       129    val_74_bias_0_2_va..conversion (Conversion)                2     smul_s8_s8 
5       130    val_82_bias_0_2_va..conversion (Conversion)                2     smul_s8_s8 
6       92     val_73_DequantizeL..conversion (Conversion)           65,536     smul_s8_s8 
7       93     val_81_DequantizeL..conversion (Conversion)           65,536     smul_s8_s8 
8       39     _to_copy (Cast)                                           64   smul_s32_f32 
9       74     embedding (Gather)                                         0    smul_s32_s8 
10      74     embedding_0_0_pow_1_conversion (Conversion)           16,384    smul_s8_f32 
11      99     pow_1 (Eltwise/pow)                                   81,920     op_f32_f32 
12      101    mean (Reduce)                                          8,192   smul_f32_f32 
13      101    mean_Mul (ScaleBias)                                      64   smul_f32_f32 
14      101    mean_Mul_0_0_add_4_conversion (Conversion)                64    smul_f32_s8 
15      107    add_4 (Eltwise/add)                                       32       op_s8_s8 
16      107    add_4_0_0_val_64_conversion (Conversion)                  64    smul_s8_f32 
17      113    val_64 (Nonlinearity)                                    384     op_f32_f32 
18      115    rsqrt (Nonlinearity)                                     160     op_f32_f32 
19      115    rsqrt_0_1_mul_3_conversion (Conversion)                   64    smul_f32_s8 
20      121    mul_3 (Eltwise/mul)                                    8,192       op_s8_s8 
21      125    mul_4 (Eltwise/mul)                                      256       op_s8_s8 
22      125    mul_4_0_0_val_74_conversion (Conversion)              16,384    smul_s8_f32 
23      130    val_82 (Gemm)                                     33,558,528   smul_f32_f32 
24      130    val_82_0_0_linear_2_conversion (Conversion)            8,192    smul_f32_s8 
25      139    linear_2 (Eltwise/add)                                 4,096       op_s8_s8 
26      157    transpose_3 (Transpose)                                2,048     smul_s8_s8 
27      187    expand_4 (Tile)                                            0     smul_s8_s8 
28      187    expand_4_0_1_scale..conversion (Conversion)           16,384    smul_s8_f32 
29      129    val_74 (Gemm)                                     33,558,528   smul_f32_f32 
30      129    val_74_0_0_linear_1_conversion (Conversion)            8,192    smul_f32_s8 
31      138    linear_1 (Eltwise/add)                                 4,096       op_s8_s8 
32      156    transpose_2 (Transpose)                                2,048     smul_s8_s8 
33      169    slice_4 (Slice)                                            0     smul_s8_s8 
34      186    neg_1 (Nonlinearity)                                   2,048       op_s8_s8 
35      168    slice_3 (Slice)                                            0     smul_s8_s8 
36      195    cat_2 (Concat)                                             0     smul_s8_s8 
37      202    mul_8 (Eltwise/mul)                                    4,096       op_s8_s8 
38      167    mul_7 (Eltwise/mul)                                    4,096       op_s8_s8 
39      208    add_6 (Eltwise/add)                                    4,096       op_s8_s8 
40      219    expand_3 (Tile)                                            0     smul_s8_s8 
41      221    val_169 (Transpose)                                    4,096     smul_s8_s8 
42      225    val_175 (Eltwise/mul)                                  8,192       op_s8_s8 
43      225    val_175_0_1_val_179_conversion (Conversion)           16,384    smul_s8_f32 
44      128    val_66 (Conv2D)                                    2,097,408     smul_s8_s8 
45      137    linear (Eltwise/add)                                   8,192       op_s8_s8 
46      155    transpose_1 (Transpose)                                4,096     smul_s8_s8 
47      166    slice_2 (Slice)                                            0     smul_s8_s8 
48      185    neg (Nonlinearity)                                     4,096       op_s8_s8 
49      165    slice_1 (Slice)                                            0     smul_s8_s8 
50      194    cat_1 (Concat)                                             0     smul_s8_s8 
51      201    mul_6 (Eltwise/mul)                                    8,192       op_s8_s8 
52      164    mul_5 (Eltwise/mul)                                    8,192       op_s8_s8 
53      207    add_5 (Eltwise/add)                                    8,192       op_s8_s8 
54      213    val_173 (Eltwise/mul)                                  8,192       op_s8_s8 
55      213    val_173_0_0_val_179_conversion (Conversion)           16,384    smul_s8_f32 
56      228    val_179 (Gemm)                                    33,558,528   smul_f32_f32 
57      228    val_179_0_0_val_180_conversion (Conversion)            8,192    smul_f32_s8 
58      73     val_35 (GatherND)                                          0   smul_f32_s32 
59      73     val_35_0_1_bitwise..conversion (Conversion)               64    smul_f32_s8 
60      100    bitwise_and_1 (Eltwise/mul)                            1,024       op_s8_s8 
61      100    bitwise_and_1_0_1_..conversion (Conversion)            2,048    smul_s8_f32 
62      112    __bool_fix_inv (Eltwise/sub)                               1     op_f32_f32 
63      112    __bool_fix_inv_0_0..conversion (Conversion)            2,048    smul_f32_s8 
64      118    val_178 (Eltwise/mul)                                  1,024       op_s8_s8 
65      231    val_180 (Eltwise/add)                                  4,096       op_s8_s8 
66      231    val_180_0_0_val_181_conversion (Conversion)            8,192    smul_s8_f32 
67      234    val_181 (Nonlinearity)                                61,440     op_f32_f32 
68      240    scaled_dot_product_attention (Gemm)               33,562,624   smul_f32_f32 
69      240    scaled_dot_product..conversion (Conversion)           16,384    smul_f32_s8 
70      243    transpose_4 (Transpose)                                4,096     smul_s8_s8 
71      249    linear_3 (Conv2D)                                  2,097,408     smul_s8_s8 
72      252    add_7 (Eltwise/add)                                    8,192       op_s8_s8 
73      252    add_7_0_0_pow_2_conversion (Conversion)               16,384    smul_s8_f32 
74      255    pow_2 (Eltwise/pow)                                   81,920     op_f32_f32 
75      256    mean_1 (Reduce)                                        8,192   smul_f32_f32 
76      256    mean_1_Mul (ScaleBias)                                    64   smul_f32_f32 
77      256    mean_1_Mul_0_0_add..conversion (Conversion)               64    smul_f32_s8 
78      259    add_8 (Eltwise/add)                                       32       op_s8_s8 
79      259    add_8_0_0_val_193_conversion (Conversion)                 64    smul_s8_f32 
80      262    val_193 (Nonlinearity)                                   384     op_f32_f32 
81      263    rsqrt_1 (Nonlinearity)                                   160     op_f32_f32 
82      263    rsqrt_1_0_1_mul_9_conversion (Conversion)                 64    smul_f32_s8 
83      266    mul_9 (Eltwise/mul)                                    8,192       op_s8_s8 
84      269    mul_10 (Eltwise/mul)                                     256       op_s8_s8 
85      272    linear_4 (Conv2D)                                  4,194,816     smul_s8_s8 
86      278    val_195 (Nonlinearity)                                16,384       op_s8_s8 
87      281    silu (Eltwise/mul)                                    16,384       op_s8_s8 
88      273    linear_5 (Conv2D)                                  4,194,816     smul_s8_s8 
89      284    mul_11 (Eltwise/mul)                                  16,384       op_s8_s8 
90      287    linear_6 (Conv2D)                                  4,194,560     smul_s8_s8 
91      290    add_9 (Eltwise/add)                                    8,192       op_s8_s8 
92      290    add_9_0_0_pow_3_conversion (Conversion)               16,384    smul_s8_f32 
93      293    pow_3 (Eltwise/pow)                                   81,920     op_f32_f32 
94      294    mean_2 (Reduce)                                        8,192   smul_f32_f32 
95      294    mean_2_Mul (ScaleBias)                                    64   smul_f32_f32 
96      294    mean_2_Mul_0_0_add..conversion (Conversion)               64    smul_f32_s8 
97      297    add_10 (Eltwise/add)                                      32       op_s8_s8 
98      297    add_10_0_0_val_201_conversion (Conversion)                64    smul_s8_f32 
99      300    val_201 (Nonlinearity)                                   384     op_f32_f32 
100     301    rsqrt_2 (Nonlinearity)                                   160     op_f32_f32 
101     301    rsqrt_2_0_1_mul_12_conversion (Conversion)                64    smul_f32_s8 
102     304    mul_12 (Eltwise/mul)                                   8,192       op_s8_s8 
103     307    mul_13 (Eltwise/mul)                                     256       op_s8_s8 
104     310    val_203 (Conv2D)                                   2,097,408     smul_s8_s8 
105     319    linear_7 (Eltwise/add)                                 8,192       op_s8_s8 
106     337    transpose_5 (Transpose)                                4,096     smul_s8_s8 
107     348    slice_6 (Slice)                                            0     smul_s8_s8 
108     367    neg_2 (Nonlinearity)                                   4,096       op_s8_s8 
109     347    slice_5 (Slice)                                            0     smul_s8_s8 
110     376    cat_3 (Concat)                                             0     smul_s8_s8 
111     383    mul_15 (Eltwise/mul)                                   8,192       op_s8_s8 
112     346    mul_14 (Eltwise/mul)                                   8,192       op_s8_s8 
113     389    add_11 (Eltwise/add)                                   8,192       op_s8_s8 
114     395    val_306 (Eltwise/mul)                                  8,192       op_s8_s8 
115     395    val_306_0_0_val_312_conversion (Conversion)           16,384    smul_s8_f32 
116     311    val_211 (Conv2D)                                   1,048,704     smul_s8_s8 
117     320    linear_8 (Eltwise/add)                                 4,096       op_s8_s8 
118     338    transpose_6 (Transpose)                                2,048     smul_s8_s8 
119     351    slice_8 (Slice)                                            0     smul_s8_s8 
120     368    neg_3 (Nonlinearity)                                   2,048       op_s8_s8 
121     350    slice_7 (Slice)                                            0     smul_s8_s8 
122     377    cat_4 (Concat)                                             0     smul_s8_s8 
123     384    mul_17 (Eltwise/mul)                                   4,096       op_s8_s8 
124     349    mul_16 (Eltwise/mul)                                   4,096       op_s8_s8 
125     390    add_12 (Eltwise/add)                                   4,096       op_s8_s8 
126     401    expand_5 (Tile)                                            0     smul_s8_s8 
127     403    val_302 (Transpose)                                    4,096     smul_s8_s8 
128     407    val_308 (Eltwise/mul)                                  8,192       op_s8_s8 
129     407    val_308_0_1_val_312_conversion (Conversion)           16,384    smul_s8_f32 
130     410    val_312 (Gemm)                                    33,558,528   smul_f32_f32 
131     410    val_312_0_0_val_313_conversion (Conversion)            8,192    smul_f32_s8 
132     413    val_313 (Eltwise/add)                                  4,096       op_s8_s8 
133     413    val_313_0_0_val_314_conversion (Conversion)            8,192    smul_s8_f32 
134     416    val_314 (Nonlinearity)                                61,440     op_f32_f32 
135     312    val_219 (Conv2D)                                   1,048,704     smul_s8_s8 
136     321    linear_9 (Eltwise/add)                                 4,096       op_s8_s8 
137     339    transpose_7 (Transpose)                                2,048     smul_s8_s8 
138     369    expand_6 (Tile)                                            0     smul_s8_s8 
139     369    expand_6_0_1_scale..conversion (Conversion)           16,384    smul_s8_f32 
140     422    scaled_dot_product_attention_1 (Gemm)             33,562,624   smul_f32_f32 
141     422    scaled_dot_product..conversion (Conversion)           16,384    smul_f32_s8 
142     425    transpose_8 (Transpose)                                4,096     smul_s8_s8 
143     431    linear_10 (Conv2D)                                 2,097,408     smul_s8_s8 
144     434    add_13 (Eltwise/add)                                   8,192       op_s8_s8 
145     434    add_13_0_0_pow_4_conversion (Conversion)              16,384    smul_s8_f32 
146     437    pow_4 (Eltwise/pow)                                   81,920     op_f32_f32 
147     438    mean_3 (Reduce)                                        8,192   smul_f32_f32 
148     438    mean_3_Mul (ScaleBias)                                    64   smul_f32_f32 
149     438    mean_3_Mul_0_0_add..conversion (Conversion)               64    smul_f32_s8 
150     441    add_14 (Eltwise/add)                                      32       op_s8_s8 
151     441    add_14_0_0_val_326_conversion (Conversion)                64    smul_s8_f32 
152     444    val_326 (Nonlinearity)                                   384     op_f32_f32 
153     445    rsqrt_3 (Nonlinearity)                                   160     op_f32_f32 
154     445    rsqrt_3_0_1_mul_18_conversion (Conversion)                64    smul_f32_s8 
155     448    mul_18 (Eltwise/mul)                                   8,192       op_s8_s8 
156     451    mul_19 (Eltwise/mul)                                     256       op_s8_s8 
157     454    linear_11 (Conv2D)                                 4,194,816     smul_s8_s8 
158     460    val_328 (Nonlinearity)                                16,384       op_s8_s8 
159     463    silu_1 (Eltwise/mul)                                  16,384       op_s8_s8 
160     455    linear_12 (Conv2D)                                 4,194,816     smul_s8_s8 
161     466    mul_20 (Eltwise/mul)                                  16,384       op_s8_s8 
162     469    linear_13 (Conv2D)                                 4,194,560     smul_s8_s8 
163     472    add_15 (Eltwise/add)                                   8,192       op_s8_s8 
164     472    add_15_0_0_pow_5_conversion (Conversion)              16,384    smul_s8_f32 
165     475    pow_5 (Eltwise/pow)                                   81,920     op_f32_f32 
166     476    mean_4 (Reduce)                                        8,192   smul_f32_f32 
167     476    mean_4_Mul (ScaleBias)                                    64   smul_f32_f32 
168     476    mean_4_Mul_0_0_add..conversion (Conversion)               64    smul_f32_s8 
169     479    add_16 (Eltwise/add)                                      32       op_s8_s8 
170     479    add_16_0_0_val_334_conversion (Conversion)                64    smul_s8_f32 
171     482    val_334 (Nonlinearity)                                   384     op_f32_f32 
172     483    rsqrt_4 (Nonlinearity)                                   160     op_f32_f32 
173     483    rsqrt_4_0_1_mul_21_conversion (Conversion)                64    smul_f32_s8 
174     486    mul_21 (Eltwise/mul)                                   8,192       op_s8_s8 
175     489    mul_22 (Eltwise/mul)                                     256       op_s8_s8 
176     492    logits_QuantizeLinear_Input (Conv2D)               3,064,182     smul_s8_s8 
------- ------ ---------------------------------------------- ------------- -------------- 
total                                                           241,438,275 

Number of operation types
---------------- ------------- ----------- 
operation type               #           % 
---------------- ------------- ----------- 
smul_s8_s8          38,883,458       16.1% 
smul_s32_f32                64        0.0% 
smul_s32_s8                  0        0.0% 
smul_s8_f32            215,360        0.1% 
op_f32_f32             535,201        0.2% 
smul_f32_f32       201,400,640       83.4% 
smul_f32_s8             68,288        0.0% 
op_s8_s8               335,264        0.1% 
smul_f32_s32                 0        0.0% 

Complexity report (model)
------ -------------------------------------- ------------------------- ------------------------- ----------------- 
m_id   name                                   c_macc                    c_rom                     c_id              
------ -------------------------------------- ------------------------- ------------------------- ----------------- 
73     val_34                                 |                  0.0%   |                  0.0%   [58, 59]          
99     val_60                                 |                  0.0%   |                  0.0%   [11]              
112    __bool_fix_one                         |                  0.0%   |                  0.0%   [62, 63]          
39     _to_copy                               |                  0.0%   |                  0.0%   [8]               
74     embedding                              |                  0.0%   |||||||||||        6.9%   [9, 10]           
92     val_73_DequantizeLinear_Output_const   |                  0.0%   ||||               2.4%   [6]               
93     val_81_DequantizeLinear_Output_const   |                  0.0%   ||||               2.4%   [7]               
100    bitwise_and_1                          |                  0.0%   |                  0.1%   [60, 61]          
101    mean                                   |                  0.0%   |                  0.0%   [12, 13, 14]      
107    add_4                                  |                  0.0%   |                  0.0%   [15, 16]          
113    val_64                                 |                  0.0%   |                  0.0%   [17]              
115    rsqrt                                  |                  0.0%   |                  0.0%   [18, 19]          
118    val_178                                |                  0.0%   |                  0.0%   [64]              
121    mul_3                                  |                  0.0%   |                  0.0%   [20]              
125    mul_4                                  |                  0.0%   |                  0.0%   [21, 22]          
128    val_66                                 |                  0.9%   ||||||||           4.8%   [44]              
129    val_74                                 |||||||||||||||   13.9%   |                  0.0%   [4, 29, 30]       
130    val_82                                 |||||||||||||||   13.9%   |                  0.0%   [5, 23, 24]       
137    linear                                 |                  0.0%   |                  0.0%   [45]              
138    linear_1                               |                  0.0%   |                  0.0%   [31]              
139    linear_2                               |                  0.0%   |                  0.0%   [25]              
155    transpose_1                            |                  0.0%   |                  0.0%   [46]              
156    transpose_2                            |                  0.0%   |                  0.0%   [32]              
157    transpose_3                            |                  0.0%   |                  0.0%   [26]              
164    mul_5                                  |                  0.0%   |                  0.1%   [52]              
165    slice_1                                |                  0.0%   |                  0.0%   [49]              
166    slice_2                                |                  0.0%   |                  0.0%   [47]              
167    mul_7                                  |                  0.0%   |                  0.1%   [38]              
168    slice_3                                |                  0.0%   |                  0.0%   [35]              
169    slice_4                                |                  0.0%   |                  0.0%   [33]              
185    neg                                    |                  0.0%   |                  0.0%   [48]              
186    neg_1                                  |                  0.0%   |                  0.0%   [34]              
187    expand_4                               |                  0.0%   |                  0.0%   [27, 28]          
194    cat_1                                  |                  0.0%   |                  0.0%   [50]              
195    cat_2                                  |                  0.0%   |                  0.0%   [36]              
201    mul_6                                  |                  0.0%   |                  0.1%   [51]              
202    mul_8                                  |                  0.0%   |                  0.1%   [37]              
207    add_5                                  |                  0.0%   |                  0.0%   [53]              
208    add_6                                  |                  0.0%   |                  0.0%   [39]              
213    val_173                                |                  0.0%   |                  0.0%   [54, 55]          
219    expand_3                               |                  0.0%   |                  0.0%   [40]              
221    val_169                                |                  0.0%   |                  0.0%   [41]              
225    val_175                                |                  0.0%   |                  0.0%   [42, 43]          
228    val_179                                |||||||||||||||   13.9%   |                  0.0%   [3, 56, 57]       
231    val_180                                |                  0.0%   |                  0.0%   [65, 66]          
234    val_181                                |                  0.0%   |                  0.0%   [67]              
240    scaled_dot_product_attention           ||||||||||||||||  13.9%   |                  0.0%   [2, 68, 69]       
243    transpose_4                            |                  0.0%   |                  0.0%   [70]              
249    linear_3                               |                  0.9%   ||||||||           4.8%   [71]              
252    add_7                                  |                  0.0%   |                  0.0%   [72, 73]          
255    pow_2                                  |                  0.0%   |                  0.0%   [74]              
256    mean_1                                 |                  0.0%   |                  0.0%   [75, 76, 77]      
259    add_8                                  |                  0.0%   |                  0.0%   [78, 79]          
262    val_193                                |                  0.0%   |                  0.0%   [80]              
263    rsqrt_1                                |                  0.0%   |                  0.0%   [81, 82]          
266    mul_9                                  |                  0.0%   |                  0.0%   [83]              
269    mul_10                                 |                  0.0%   |                  0.0%   [84]              
272    linear_4                               ||                 1.7%   ||||||||||||||||   9.6%   [85]              
273    linear_5                               ||                 1.7%   ||||||||||||||||   9.6%   [88]              
278    val_195                                |                  0.0%   |                  0.0%   [86]              
281    silu                                   |                  0.0%   |                  0.0%   [87]              
284    mul_11                                 |                  0.0%   |                  0.0%   [89]              
287    linear_6                               ||                 1.7%   |||||||||||||||    9.5%   [90]              
290    add_9                                  |                  0.0%   |                  0.0%   [91, 92]          
293    pow_3                                  |                  0.0%   |                  0.0%   [93]              
294    mean_2                                 |                  0.0%   |                  0.0%   [94, 95, 96]      
297    add_10                                 |                  0.0%   |                  0.0%   [97, 98]          
300    val_201                                |                  0.0%   |                  0.0%   [99]              
301    rsqrt_2                                |                  0.0%   |                  0.0%   [100, 101]        
304    mul_12                                 |                  0.0%   |                  0.0%   [102]             
307    mul_13                                 |                  0.0%   |                  0.0%   [103]             
310    val_203                                |                  0.9%   ||||||||           4.8%   [104]             
311    val_211                                |                  0.4%   ||||               2.4%   [116]             
312    val_219                                |                  0.4%   ||||               2.4%   [135]             
319    linear_7                               |                  0.0%   |                  0.0%   [105]             
320    linear_8                               |                  0.0%   |                  0.0%   [117]             
321    linear_9                               |                  0.0%   |                  0.0%   [136]             
337    transpose_5                            |                  0.0%   |                  0.0%   [106]             
338    transpose_6                            |                  0.0%   |                  0.0%   [118]             
339    transpose_7                            |                  0.0%   |                  0.0%   [137]             
346    mul_14                                 |                  0.0%   |                  0.1%   [112]             
347    slice_5                                |                  0.0%   |                  0.0%   [109]             
348    slice_6                                |                  0.0%   |                  0.0%   [107]             
349    mul_16                                 |                  0.0%   |                  0.1%   [124]             
350    slice_7                                |                  0.0%   |                  0.0%   [121]             
351    slice_8                                |                  0.0%   |                  0.0%   [119]             
367    neg_2                                  |                  0.0%   |                  0.0%   [108]             
368    neg_3                                  |                  0.0%   |                  0.0%   [120]             
369    expand_6                               |                  0.0%   |                  0.0%   [138, 139]        
376    cat_3                                  |                  0.0%   |                  0.0%   [110]             
377    cat_4                                  |                  0.0%   |                  0.0%   [122]             
383    mul_15                                 |                  0.0%   |                  0.1%   [111]             
384    mul_17                                 |                  0.0%   |                  0.1%   [123]             
389    add_11                                 |                  0.0%   |                  0.0%   [113]             
390    add_12                                 |                  0.0%   |                  0.0%   [125]             
395    val_306                                |                  0.0%   |                  0.0%   [114, 115]        
401    expand_5                               |                  0.0%   |                  0.0%   [126]             
403    val_302                                |                  0.0%   |                  0.0%   [127]             
407    val_308                                |                  0.0%   |                  0.0%   [128, 129]        
410    val_312                                |||||||||||||||   13.9%   |                  0.0%   [1, 130, 131]     
413    val_313                                |                  0.0%   |                  0.0%   [132, 133]        
416    val_314                                |                  0.0%   |                  0.0%   [134]             
422    scaled_dot_product_attention_1         ||||||||||||||||  13.9%   |                  0.0%   [0, 140, 141]     
425    transpose_8                            |                  0.0%   |                  0.0%   [142]             
431    linear_10                              |                  0.9%   ||||||||           4.8%   [143]             
434    add_13                                 |                  0.0%   |                  0.0%   [144, 145]        
437    pow_4                                  |                  0.0%   |                  0.0%   [146]             
438    mean_3                                 |                  0.0%   |                  0.0%   [147, 148, 149]   
441    add_14                                 |                  0.0%   |                  0.0%   [150, 151]        
444    val_326                                |                  0.0%   |                  0.0%   [152]             
445    rsqrt_3                                |                  0.0%   |                  0.0%   [153, 154]        
448    mul_18                                 |                  0.0%   |                  0.0%   [155]             
451    mul_19                                 |                  0.0%   |                  0.0%   [156]             
454    linear_11                              ||                 1.7%   ||||||||||||||||   9.6%   [157]             
455    linear_12                              ||                 1.7%   ||||||||||||||||   9.6%   [160]             
460    val_328                                |                  0.0%   |                  0.0%   [158]             
463    silu_1                                 |                  0.0%   |                  0.0%   [159]             
466    mul_20                                 |                  0.0%   |                  0.0%   [161]             
469    linear_13                              ||                 1.7%   |||||||||||||||    9.5%   [162]             
472    add_15                                 |                  0.0%   |                  0.0%   [163, 164]        
475    pow_5                                  |                  0.0%   |                  0.0%   [165]             
476    mean_4                                 |                  0.0%   |                  0.0%   [166, 167, 168]   
479    add_16                                 |                  0.0%   |                  0.0%   [169, 170]        
482    val_334                                |                  0.0%   |                  0.0%   [171]             
483    rsqrt_4                                |                  0.0%   |                  0.0%   [172, 173]        
486    mul_21                                 |                  0.0%   |                  0.0%   [174]             
489    mul_22                                 |                  0.0%   |                  0.0%   [175]             
492    logits_QuantizeLinear_Input            ||                 1.3%   |||||||||||        7.0%   [176]             
------ -------------------------------------- ------------------------- ------------------------- ----------------- 
macc=241,438,275 weights=1,383,948 act=327,960 ram_io=0
