ST Edge AI Core v4.0.0-20500 359356bb0
Created date          : 2026-06-22 20:07:56
Parameters            : generate --model npu_export/model_npu_qdq.onnx --target stm32n6 --mode host --name network --c-api st-ai --output npu_export/generated_cpu

Exec/report summary (generate)
-----------------------------------------------------------------------------------------------------------------------------------
model file         :   /opt/DEV/AI/npu_export/model_npu_qdq.onnx                                                                   
type               :   onnx                                                                                                        
c_name             :   network                                                                                                     
compression        :   lossless                                                                                                    
options            :   allocate-inputs, allocate-outputs, use-lite-runtime, use-st-ai                                              
optimization       :   balanced                                                                                                    
target/series      :   stm32n6                                                                                                     
workspace dir      :   /opt/DEV/AI/st_ai_ws                                                                                        
output dir         :   /opt/DEV/AI/npu_export/generated_cpu                                                                        
model_fmt          :   sa/sa per tensor                                                                                            
model_name         :   model_npu_qdq                                                                                               
model_hash         :   0x15d7930dc226850d64430195fc002a21                                                                          
params #           :   1,378,631 items (5.26 MiB)                                                                                  
-----------------------------------------------------------------------------------------------------------------------------------
input 1/2          :   'input_ids', int32(1x32), 128 Bytes, activations                                                            
input 2/2          :   'attention_mask', int32(1x32), 128 Bytes, activations                                                       
inputs (total)     :   256 Bytes                                                                                                   
output 1/1         :   'logits_QuantizeLinear_Input', int8(1x32x1x374), 11.69 KBytes, QLinear(0.069436282,-52,int8), activations   
macc               :   241,438,339                                                                                                 
weights (ro)       :   1,383,956 B (1.32 MiB) (1 segment) / -4,130,568(-74.9%) vs float model                                      
activations (rw)   :   327,960 B (320.27 KiB) (1 segment) *                                                                        
ram (total)        :   327,960 B (320.27 KiB) = 327,960 + 0 + 0                                                                    
-----------------------------------------------------------------------------------------------------------------------------------
(*) 'input'/'output' buffers are allocated in the activations buffer

Model name - model_npu_qdq
------ ---------------------------------------------------------------- ------------------------- ----------------- ------------- -------------------------------- --- ------------------- ---------------------- ----------------------------------------------- 
m_id   layer (type,original)                                            oshape                    param/size                 macc                     connected to   | c_size              c_macc                 c_type                                          
------ ---------------------------------------------------------------- ------------------------- ----------------- ------------- -------------------------------- --- ------------------- ---------------------- ----------------------------------------------- 
55     __ids_floor_zero (Placeholder, Max)                              []                        1/8                                                                | -4(-50.0%)          +32(+100.0%)           Eltwise/max_[9]                                 
------ ---------------------------------------------------------------- ------------------------- ----------------- ------------- -------------------------------- --- ------------------- ---------------------- ----------------------------------------------- 
75     val_34 (Placeholder, GatherND)                                   [b:1,h:32,c:2]            64/512                                                             | -256(-50.0%)        +64(+100.0%)           GatherND_/Conversion_[60, 61]                   
------ ---------------------------------------------------------------- ------------------------- ----------------- ------------- -------------------------------- --- ------------------- ---------------------- ----------------------------------------------- 
76     __ids_cap_val (Placeholder, Min)                                 []                        1/8                                                                | -4(-50.0%)          +32(+100.0%)           Eltwise/min_[10]                                
------ ---------------------------------------------------------------- ------------------------- ----------------- ------------- -------------------------------- --- ------------------- ---------------------- ----------------------------------------------- 
103    val_60 (Placeholder, Pow)                                        []                        1/4                                                                |                     +81,920(+100.0%)       Eltwise/pow_[13]                                
------ ---------------------------------------------------------------- ------------------------- ----------------- ------------- -------------------------------- --- ------------------- ---------------------- ----------------------------------------------- 
114    __bool_fix_one (Placeholder, Sub)                                []                        1/4                                                                |                     +2,049(+100.0%)        Eltwise/sub_/Conversion_[64, 65]                
------ ---------------------------------------------------------------- ------------------------- ----------------- ------------- -------------------------------- --- ------------------- ---------------------- ----------------------------------------------- 
0      input_ids (Input, )                                              [b:1,c:32]                                                                                   |                                            
       attention_mask (Input, )                                         [b:1,c:32]                                                                                   |                                            
------ ---------------------------------------------------------------- ------------------------- ----------------- ------------- -------------------------------- --- ------------------- ---------------------- ----------------------------------------------- 
40     _to_copy (Cast, Cast)                                            [b:1,c:32]                                             64                   attention_mask   |                                            Cast_[8]                                        
------ ---------------------------------------------------------------- ------------------------- ----------------- ------------- -------------------------------- --- ------------------- ---------------------- ----------------------------------------------- 
41     mdl_model_embed_to..tput_const (Placeholder, DequantizeLinear)   [b:374,c:256]             95,744/382,976                                                     | -382,976(-100.0%)                          
------ ---------------------------------------------------------------- ------------------------- ----------------- ------------- -------------------------------- --- ------------------- ---------------------- ----------------------------------------------- 
42     val_189_Dequantize..tput_const (Placeholder, DequantizeLinear)   [b:256,c:256]             65,536/262,144                                                     | -262,144(-100.0%)                          
------ ---------------------------------------------------------------- ------------------------- ----------------- ------------- -------------------------------- --- ------------------- ---------------------- ----------------------------------------------- 
43     val_194_Dequantize..tput_const (Placeholder, DequantizeLinear)   [b:256,c:512]             131,072/524,288                                                    | -524,288(-100.0%)                          
------ ---------------------------------------------------------------- ------------------------- ----------------- ------------- -------------------------------- --- ------------------- ---------------------- ----------------------------------------------- 
44     val_196_Dequantize..tput_const (Placeholder, DequantizeLinear)   [b:256,c:512]             131,072/524,288                                                    | -524,288(-100.0%)                          
------ ---------------------------------------------------------------- ------------------------- ----------------- ------------- -------------------------------- --- ------------------- ---------------------- ----------------------------------------------- 
45     val_197_Dequantize..tput_const (Placeholder, DequantizeLinear)   [b:512,c:256]             131,072/524,288                                                    | -524,288(-100.0%)                          
------ ---------------------------------------------------------------- ------------------------- ----------------- ------------- -------------------------------- --- ------------------- ---------------------- ----------------------------------------------- 
46     val_202_Dequantize..tput_const (Placeholder, DequantizeLinear)   [b:256,c:256]             65,536/262,144                                                     | -262,144(-100.0%)                          
------ ---------------------------------------------------------------- ------------------------- ----------------- ------------- -------------------------------- --- ------------------- ---------------------- ----------------------------------------------- 
47     val_210_Dequantize..tput_const (Placeholder, DequantizeLinear)   [b:256,c:128]             32,768/131,072                                                     | -131,072(-100.0%)                          
------ ---------------------------------------------------------------- ------------------------- ----------------- ------------- -------------------------------- --- ------------------- ---------------------- ----------------------------------------------- 
48     val_218_Dequantize..tput_const (Placeholder, DequantizeLinear)   [b:256,c:128]             32,768/131,072                                                     | -131,072(-100.0%)                          
------ ---------------------------------------------------------------- ------------------------- ----------------- ------------- -------------------------------- --- ------------------- ---------------------- ----------------------------------------------- 
49     val_322_Dequantize..tput_const (Placeholder, DequantizeLinear)   [b:256,c:256]             65,536/262,144                                                     | -262,144(-100.0%)                          
------ ---------------------------------------------------------------- ------------------------- ----------------- ------------- -------------------------------- --- ------------------- ---------------------- ----------------------------------------------- 
50     val_327_Dequantize..tput_const (Placeholder, DequantizeLinear)   [b:256,c:512]             131,072/524,288                                                    | -524,288(-100.0%)                          
------ ---------------------------------------------------------------- ------------------------- ----------------- ------------- -------------------------------- --- ------------------- ---------------------- ----------------------------------------------- 
51     val_329_Dequantize..tput_const (Placeholder, DequantizeLinear)   [b:256,c:512]             131,072/524,288                                                    | -524,288(-100.0%)                          
------ ---------------------------------------------------------------- ------------------------- ----------------- ------------- -------------------------------- --- ------------------- ---------------------- ----------------------------------------------- 
52     val_330_Dequantize..tput_const (Placeholder, DequantizeLinear)   [b:512,c:256]             131,072/524,288                                                    | -524,288(-100.0%)                          
------ ---------------------------------------------------------------- ------------------------- ----------------- ------------- -------------------------------- --- ------------------- ---------------------- ----------------------------------------------- 
53     val_335_Dequantize..tput_const (Placeholder, DequantizeLinear)   [b:256,c:374]             95,744/382,976                                                     | -382,976(-100.0%)                          
------ ---------------------------------------------------------------- ------------------------- ----------------- ------------- -------------------------------- --- ------------------- ---------------------- ----------------------------------------------- 
54     val_65_DequantizeL..tput_const (Placeholder, DequantizeLinear)   [b:256,c:256]             65,536/262,144                                                     | -262,144(-100.0%)                          
------ ---------------------------------------------------------------- ------------------------- ----------------- ------------- -------------------------------- --- ------------------- ---------------------- ----------------------------------------------- 
55     __ids_floored (Eltwise, Max)                                     [b:1,c:32]                                             32                        input_ids   |                     -32(-100.0%)           
                                                                                                                                                  __ids_floor_zero   | 
------ ---------------------------------------------------------------- ------------------------- ----------------- ------------- -------------------------------- --- ------------------- ---------------------- ----------------------------------------------- 
75     val_35 (GatherND, GatherND)                                      [b:1,c:32]                                                                        _to_copy   |                                            
                                                                                                                                                            val_34   | 
------ ---------------------------------------------------------------- ------------------------- ----------------- ------------- -------------------------------- --- ------------------- ---------------------- ----------------------------------------------- 
76     input_ids_clipped (Eltwise, Min)                                 [b:1,c:32]                                             32                    __ids_floored   |                     -32(-100.0%)           
                                                                                                                                                     __ids_cap_val   | 
------ ---------------------------------------------------------------- ------------------------- ----------------- ------------- -------------------------------- --- ------------------- ---------------------- ----------------------------------------------- 
77     mdl_model_layers_0..tput_const (Placeholder, DequantizeLinear)   [b:256]                   256/1,024                                                          | -1,024(-100.0%)                            
------ ---------------------------------------------------------------- ------------------------- ----------------- ------------- -------------------------------- --- ------------------- ---------------------- ----------------------------------------------- 
78     mdl_model_layers_0..tput_const (Placeholder, DequantizeLinear)   [b:128]                   128/512                                                            | -512(-100.0%)                              
------ ---------------------------------------------------------------- ------------------------- ----------------- ------------- -------------------------------- --- ------------------- ---------------------- ----------------------------------------------- 
79     mdl_model_layers_0..tput_const (Placeholder, DequantizeLinear)   [b:128]                   128/512                                                            | -512(-100.0%)                              
------ ---------------------------------------------------------------- ------------------------- ----------------- ------------- -------------------------------- --- ------------------- ---------------------- ----------------------------------------------- 
80     mdl_model_layers_0..tput_const (Placeholder, DequantizeLinear)   [b:256]                   256/1,024                                                          | -1,024(-100.0%)                            
------ ---------------------------------------------------------------- ------------------------- ----------------- ------------- -------------------------------- --- ------------------- ---------------------- ----------------------------------------------- 
81     mdl_model_layers_0..tput_const (Placeholder, DequantizeLinear)   [b:256]                   256/1,024                                                          | -1,024(-100.0%)                            
------ ---------------------------------------------------------------- ------------------------- ----------------- ------------- -------------------------------- --- ------------------- ---------------------- ----------------------------------------------- 
82     mdl_model_layers_1..tput_const (Placeholder, DequantizeLinear)   [b:256]                   256/1,024                                                          | -1,024(-100.0%)                            
------ ---------------------------------------------------------------- ------------------------- ----------------- ------------- -------------------------------- --- ------------------- ---------------------- ----------------------------------------------- 
83     mdl_model_layers_1..tput_const (Placeholder, DequantizeLinear)   [b:128]                   128/512                                                            | -512(-100.0%)                              
------ ---------------------------------------------------------------- ------------------------- ----------------- ------------- -------------------------------- --- ------------------- ---------------------- ----------------------------------------------- 
84     mdl_model_layers_1..tput_const (Placeholder, DequantizeLinear)   [b:128]                   128/512                                                            | -512(-100.0%)                              
------ ---------------------------------------------------------------- ------------------------- ----------------- ------------- -------------------------------- --- ------------------- ---------------------- ----------------------------------------------- 
85     mdl_model_layers_1..tput_const (Placeholder, DequantizeLinear)   [b:256]                   256/1,024                                                          | -1,024(-100.0%)                            
------ ---------------------------------------------------------------- ------------------------- ----------------- ------------- -------------------------------- --- ------------------- ---------------------- ----------------------------------------------- 
86     mdl_model_layers_1..tput_const (Placeholder, DequantizeLinear)   [b:256]                   256/1,024                                                          | -1,024(-100.0%)                            
------ ---------------------------------------------------------------- ------------------------- ----------------- ------------- -------------------------------- --- ------------------- ---------------------- ----------------------------------------------- 
87     mdl_model_norm_wei..tput_const (Placeholder, DequantizeLinear)   [b:256]                   256/1,024                                                          | -1,024(-100.0%)                            
------ ---------------------------------------------------------------- ------------------------- ----------------- ------------- -------------------------------- --- ------------------- ---------------------- ----------------------------------------------- 
88     bitwise_and_Dequan..tput_const (Placeholder, DequantizeLinear)   [b:32,c:32]               1,024/4,096                                                        | -4,096(-100.0%)                            
------ ---------------------------------------------------------------- ------------------------- ----------------- ------------- -------------------------------- --- ------------------- ---------------------- ----------------------------------------------- 
89     unsqueeze_4_Dequan..tput_const (Placeholder, DequantizeLinear)   [b:1,h:1,w:32,c:64]       2,048/8,192                                                        | -8,192(-100.0%)                            
------ ---------------------------------------------------------------- ------------------------- ----------------- ------------- -------------------------------- --- ------------------- ---------------------- ----------------------------------------------- 
90     unsqueeze_5_Dequan..tput_const (Placeholder, DequantizeLinear)   [b:1,h:1,w:32,c:64]       2,048/8,192                                                        | -8,192(-100.0%)                            
------ ---------------------------------------------------------------- ------------------------- ----------------- ------------- -------------------------------- --- ------------------- ---------------------- ----------------------------------------------- 
91     val_172_Dequantize..tput_const (Placeholder, DequantizeLinear)   []                        1/4                                                                | -4(-100.0%)                                
------ ---------------------------------------------------------------- ------------------------- ----------------- ------------- -------------------------------- --- ------------------- ---------------------- ----------------------------------------------- 
92     val_63_DequantizeL..tput_const (Placeholder, DequantizeLinear)   []                        1/4                                                                | -4(-100.0%)                                
------ ---------------------------------------------------------------- ------------------------- ----------------- ------------- -------------------------------- --- ------------------- ---------------------- ----------------------------------------------- 
93     val_177_Dequantize..tput_const (Placeholder, DequantizeLinear)   []                        1/4                                                                | -4(-100.0%)                                
------ ---------------------------------------------------------------- ------------------------- ----------------- ------------- -------------------------------- --- ------------------- ---------------------- ----------------------------------------------- 
94     val_73_DequantizeL..tput_const (Placeholder, DequantizeLinear)   [b:256,c:128]             32,768/131,072                                                     | -98,304(-75.0%)     +65,536(+100.0%)       Conversion_[6]                                  
------ ---------------------------------------------------------------- ------------------------- ----------------- ------------- -------------------------------- --- ------------------- ---------------------- ----------------------------------------------- 
95     val_81_DequantizeL..tput_const (Placeholder, DequantizeLinear)   [b:256,c:128]             32,768/131,072                                                     | -98,304(-75.0%)     +65,536(+100.0%)       Conversion_[7]                                  
------ ---------------------------------------------------------------- ------------------------- ----------------- ------------- -------------------------------- --- ------------------- ---------------------- ----------------------------------------------- 
96     view_3 (Reshape, Reshape)                                        [b:1,h:1,c:32]                                                                      val_35   |                                            
------ ---------------------------------------------------------------- ------------------------- ----------------- ------------- -------------------------------- --- ------------------- ---------------------- ----------------------------------------------- 
97     embedding (Gather, Gather)                                       [b:1,h:32,c:256]                                            mdl_model_embed_to..tput_const   | +95,744(+100.0%)    +16,384(+100.0%)       Gather_/Conversion_[11, 12]                     
                                                                                                                                                 input_ids_clipped   | 
------ ---------------------------------------------------------------- ------------------------- ----------------- ------------- -------------------------------- --- ------------------- ---------------------- ----------------------------------------------- 
98     view_3_QuantizeLinear_Output (Conversion, QuantizeLinear)        [b:1,h:1,c:32]                                         64                           view_3   |                     -64(-100.0%)           
------ ---------------------------------------------------------------- ------------------------- ----------------- ------------- -------------------------------- --- ------------------- ---------------------- ----------------------------------------------- 
99     embedding_Quantize..ear_Output (Conversion, QuantizeLinear)      [b:1,h:32,c:256]                                   16,384                        embedding   |                     -16,384(-100.0%)       
------ ---------------------------------------------------------------- ------------------------- ----------------- ------------- -------------------------------- --- ------------------- ---------------------- ----------------------------------------------- 
100    view_3_DequantizeLinear_Output (Conversion, DequantizeLinear)    [b:1,h:1,c:32]                                         64     view_3_QuantizeLinear_Output   |                     -64(-100.0%)           
------ ---------------------------------------------------------------- ------------------------- ----------------- ------------- -------------------------------- --- ------------------- ---------------------- ----------------------------------------------- 
101    embedding_Dequanti..ear_Output (Conversion, DequantizeLinear)    [b:1,h:32,c:256]                                   16,384   embedding_Quantize..ear_Output   |                     -16,384(-100.0%)       
------ ---------------------------------------------------------------- ------------------------- ----------------- ------------- -------------------------------- --- ------------------- ---------------------- ----------------------------------------------- 
102    bitwise_and_1 (Eltwise, Mul)                                     [b:1,h:32,c:32]                                     1,024   bitwise_and_Dequan..tput_const   | +1,024(+100.0%)     +2,048(+200.0%)        Eltwise/mul_/Conversion_[62, 63]                
                                                                                                                                    view_3_DequantizeLinear_Output   | 
------ ---------------------------------------------------------------- ------------------------- ----------------- ------------- -------------------------------- --- ------------------- ---------------------- ----------------------------------------------- 
103    pow_1 (Eltwise, Pow)                                             [b:1,h:32,c:256]                                   81,920   embedding_Dequanti..ear_Output   |                     -81,920(-100.0%)       
                                                                                                                                                            val_60   | 
------ ---------------------------------------------------------------- ------------------------- ----------------- ------------- -------------------------------- --- ------------------- ---------------------- ----------------------------------------------- 
104    bitwise_and_1_Quan..ear_Output (Conversion, QuantizeLinear)      [b:1,h:32,c:32]                                     2,048                    bitwise_and_1   |                     -2,048(-100.0%)        
------ ---------------------------------------------------------------- ------------------------- ----------------- ------------- -------------------------------- --- ------------------- ---------------------- ----------------------------------------------- 
105    mean (Reduce, ReduceMean)                                        [b:1,h:32,c:1]                                     16,384                            pow_1   | +8(+100.0%)         -8,064(-49.2%)         Reduce_/ScaleBias_/Conversion_[14, 15, 16]      
------ ---------------------------------------------------------------- ------------------------- ----------------- ------------- -------------------------------- --- ------------------- ---------------------- ----------------------------------------------- 
106    bitwise_and_1_Dequ..ear_Output (Conversion, DequantizeLinear)    [b:1,h:32,c:32]                                     2,048   bitwise_and_1_Quan..ear_Output   |                     -2,048(-100.0%)        
------ ---------------------------------------------------------------- ------------------------- ----------------- ------------- -------------------------------- --- ------------------- ---------------------- ----------------------------------------------- 
107    mean_QuantizeLinear_Output (Conversion, QuantizeLinear)          [b:1,h:32,c:1]                                         64                             mean   |                     -64(-100.0%)           
------ ---------------------------------------------------------------- ------------------------- ----------------- ------------- -------------------------------- --- ------------------- ---------------------- ----------------------------------------------- 
108    view_4 (Reshape, Reshape)                                        [b:1,h:1,w:32,c:32]                                         bitwise_and_1_Dequ..ear_Output   |                                            
------ ---------------------------------------------------------------- ------------------------- ----------------- ------------- -------------------------------- --- ------------------- ---------------------- ----------------------------------------------- 
109    mean_DequantizeLinear_Output (Conversion, DequantizeLinear)      [b:1,h:32,c:1]                                         64       mean_QuantizeLinear_Output   |                     -64(-100.0%)           
------ ---------------------------------------------------------------- ------------------------- ----------------- ------------- -------------------------------- --- ------------------- ---------------------- ----------------------------------------------- 
110    view_4_QuantizeLinear_Output (Conversion, QuantizeLinear)        [b:1,h:1,w:32,c:32]                                 2,048                           view_4   |                     -2,048(-100.0%)        
------ ---------------------------------------------------------------- ------------------------- ----------------- ------------- -------------------------------- --- ------------------- ---------------------- ----------------------------------------------- 
111    add_4 (Eltwise, Add)                                             [b:1,h:32,c:1]                                         32     mean_DequantizeLinear_Output   | +1(+100.0%)         +64(+200.0%)           Eltwise/add_/Conversion_[17, 18]                
                                                                                                                                    val_63_DequantizeL..tput_const   | 
------ ---------------------------------------------------------------- ------------------------- ----------------- ------------- -------------------------------- --- ------------------- ---------------------- ----------------------------------------------- 
112    view_4_DequantizeLinear_Output (Conversion, DequantizeLinear)    [b:1,h:1,w:32,c:32]                                 2,048     view_4_QuantizeLinear_Output   |                     -2,048(-100.0%)        
------ ---------------------------------------------------------------- ------------------------- ----------------- ------------- -------------------------------- --- ------------------- ---------------------- ----------------------------------------------- 
113    add_4_QuantizeLinear_Output (Conversion, QuantizeLinear)         [b:1,h:32,c:1]                                         64                            add_4   |                     -64(-100.0%)           
------ ---------------------------------------------------------------- ------------------------- ----------------- ------------- -------------------------------- --- ------------------- ---------------------- ----------------------------------------------- 
114    __bool_fix_inv (Eltwise, Sub)                                    [b:1,h:1,w:32,c:32]                                     1                   __bool_fix_one   |                     -1(-100.0%)            
                                                                                                                                    view_4_DequantizeLinear_Output   | 
------ ---------------------------------------------------------------- ------------------------- ----------------- ------------- -------------------------------- --- ------------------- ---------------------- ----------------------------------------------- 
115    add_4_DequantizeLinear_Output (Conversion, DequantizeLinear)     [b:1,h:32,c:1]                                         64      add_4_QuantizeLinear_Output   |                     -64(-100.0%)           
------ ---------------------------------------------------------------- ------------------------- ----------------- ------------- -------------------------------- --- ------------------- ---------------------- ----------------------------------------------- 
116    __bool_fix_inv_Qua..ear_Output (Conversion, QuantizeLinear)      [b:1,h:1,w:32,c:32]                                 2,048                   __bool_fix_inv   |                     -2,048(-100.0%)        
------ ---------------------------------------------------------------- ------------------------- ----------------- ------------- -------------------------------- --- ------------------- ---------------------- ----------------------------------------------- 
117    val_64 (Nonlinearity, Sqrt)                                      [b:1,h:32,c:1]                                        384    add_4_DequantizeLinear_Output   |                                            Nonlinearity_[19]                               
------ ---------------------------------------------------------------- ------------------------- ----------------- ------------- -------------------------------- --- ------------------- ---------------------- ----------------------------------------------- 
118    __bool_fix_inv_Deq..ear_Output (Conversion, DequantizeLinear)    [b:1,h:1,w:32,c:32]                                 2,048   __bool_fix_inv_Qua..ear_Output   |                     -2,048(-100.0%)        
------ ---------------------------------------------------------------- ------------------------- ----------------- ------------- -------------------------------- --- ------------------- ---------------------- ----------------------------------------------- 
119    rsqrt (Nonlinearity, Reciprocal)                                 [b:1,h:32,c:1]                                        160                           val_64   |                     +64(+40.0%)            Nonlinearity_/Conversion_[20, 21]               
------ ---------------------------------------------------------------- ------------------------- ----------------- ------------- -------------------------------- --- ------------------- ---------------------- ----------------------------------------------- 
120    val_178 (Eltwise, Mul)                                           [b:1,h:1,w:32,c:32]                                 1,024   __bool_fix_inv_Deq..ear_Output   | +1(+100.0%)                                Eltwise/mul_[66]                                
                                                                                                                                    val_177_Dequantize..tput_const   | 
------ ---------------------------------------------------------------- ------------------------- ----------------- ------------- -------------------------------- --- ------------------- ---------------------- ----------------------------------------------- 
121    rsqrt_QuantizeLinear_Output (Conversion, QuantizeLinear)         [b:1,h:32,c:1]                                         64                            rsqrt   |                     -64(-100.0%)           
------ ---------------------------------------------------------------- ------------------------- ----------------- ------------- -------------------------------- --- ------------------- ---------------------- ----------------------------------------------- 
122    val_178_QuantizeLinear_Output (Conversion, QuantizeLinear)       [b:1,h:1,w:32,c:32]                                 2,048                          val_178   |                     -2,048(-100.0%)        
------ ---------------------------------------------------------------- ------------------------- ----------------- ------------- -------------------------------- --- ------------------- ---------------------- ----------------------------------------------- 
123    rsqrt_DequantizeLinear_Output (Conversion, DequantizeLinear)     [b:1,h:32,c:1]                                         64      rsqrt_QuantizeLinear_Output   |                     -64(-100.0%)           
------ ---------------------------------------------------------------- ------------------------- ----------------- ------------- -------------------------------- --- ------------------- ---------------------- ----------------------------------------------- 
124    val_178_Dequantize..ear_Output (Conversion, DequantizeLinear)    [b:1,h:1,w:32,c:32]                                 2,048    val_178_QuantizeLinear_Output   |                     -2,048(-100.0%)        
------ ---------------------------------------------------------------- ------------------------- ----------------- ------------- -------------------------------- --- ------------------- ---------------------- ----------------------------------------------- 
125    mul_3 (Eltwise, Mul)                                             [b:1,h:32,c:256]                                    8,192   embedding_Dequanti..ear_Output   |                                            Eltwise/mul_[22]                                
                                                                                                                                     rsqrt_DequantizeLinear_Output   | 
------ ---------------------------------------------------------------- ------------------------- ----------------- ------------- -------------------------------- --- ------------------- ---------------------- ----------------------------------------------- 
126    mul_3_QuantizeLinear_Output (Conversion, QuantizeLinear)         [b:1,h:32,c:256]                                   16,384                            mul_3   |                     -16,384(-100.0%)       
------ ---------------------------------------------------------------- ------------------------- ----------------- ------------- -------------------------------- --- ------------------- ---------------------- ----------------------------------------------- 
127    mul_3_DequantizeLinear_Output (Conversion, DequantizeLinear)     [b:1,h:32,c:256]                                   16,384      mul_3_QuantizeLinear_Output   |                     -16,384(-100.0%)       
------ ---------------------------------------------------------------- ------------------------- ----------------- ------------- -------------------------------- --- ------------------- ---------------------- ----------------------------------------------- 
128    mul_4 (Eltwise, Mul)                                             [b:1,h:32,c:256]                                      256   mdl_model_layers_0..tput_const   | +256(+100.0%)       +16,384(+6400.0%)      Eltwise/mul_/Conversion_[23, 24]                
                                                                                                                                     mul_3_DequantizeLinear_Output   | 
------ ---------------------------------------------------------------- ------------------------- ----------------- ------------- -------------------------------- --- ------------------- ---------------------- ----------------------------------------------- 
129    mul_4_QuantizeLinear_Output (Conversion, QuantizeLinear)         [b:1,h:32,c:256]                                   16,384                            mul_4   |                     -16,384(-100.0%)       
------ ---------------------------------------------------------------- ------------------------- ----------------- ------------- -------------------------------- --- ------------------- ---------------------- ----------------------------------------------- 
130    mul_4_DequantizeLinear_Output (Conversion, DequantizeLinear)     [b:1,h:32,c:256]                                   16,384      mul_4_QuantizeLinear_Output   |                     -16,384(-100.0%)       
------ ---------------------------------------------------------------- ------------------------- ----------------- ------------- -------------------------------- --- ------------------- ---------------------- ----------------------------------------------- 
131    val_66 (Gemm, MatMul)                                            [b:1,h:32,c:256]                               67,117,056    mul_4_DequantizeLinear_Output   | +66,560(+100.0%)    -65,019,648(-96.9%)    Conv2D_[46]                                     
                                                                                                                                    val_65_DequantizeL..tput_const   | 
------ ---------------------------------------------------------------- ------------------------- ----------------- ------------- -------------------------------- --- ------------------- ---------------------- ----------------------------------------------- 
132    val_74 (Gemm, MatMul)                                            [b:1,h:32,c:128]                               33,558,528    mul_4_DequantizeLinear_Output   | +1(+100.0%)         +8,194(+0.0%)          Conversion_/Gemm_/Conversion_[4, 31, 32]        
                                                                                                                                    val_73_DequantizeL..tput_const   | 
------ ---------------------------------------------------------------- ------------------------- ----------------- ------------- -------------------------------- --- ------------------- ---------------------- ----------------------------------------------- 
133    val_82 (Gemm, MatMul)                                            [b:1,h:32,c:128]                               33,558,528    mul_4_DequantizeLinear_Output   | +1(+100.0%)         +8,194(+0.0%)          Conversion_/Gemm_/Conversion_[5, 25, 26]        
                                                                                                                                    val_81_DequantizeL..tput_const   | 
------ ---------------------------------------------------------------- ------------------------- ----------------- ------------- -------------------------------- --- ------------------- ---------------------- ----------------------------------------------- 
134    val_66_QuantizeLinear_Output (Conversion, QuantizeLinear)        [b:1,h:32,c:256]                                   16,384                           val_66   |                     -16,384(-100.0%)       
------ ---------------------------------------------------------------- ------------------------- ----------------- ------------- -------------------------------- --- ------------------- ---------------------- ----------------------------------------------- 
135    val_74_QuantizeLinear_Output (Conversion, QuantizeLinear)        [b:1,h:32,c:128]                                    8,192                           val_74   |                     -8,192(-100.0%)        
------ ---------------------------------------------------------------- ------------------------- ----------------- ------------- -------------------------------- --- ------------------- ---------------------- ----------------------------------------------- 
136    val_82_QuantizeLinear_Output (Conversion, QuantizeLinear)        [b:1,h:32,c:128]                                    8,192                           val_82   |                     -8,192(-100.0%)        
------ ---------------------------------------------------------------- ------------------------- ----------------- ------------- -------------------------------- --- ------------------- ---------------------- ----------------------------------------------- 
137    val_66_DequantizeLinear_Output (Conversion, DequantizeLinear)    [b:1,h:32,c:256]                                   16,384     val_66_QuantizeLinear_Output   |                     -16,384(-100.0%)       
------ ---------------------------------------------------------------- ------------------------- ----------------- ------------- -------------------------------- --- ------------------- ---------------------- ----------------------------------------------- 
138    val_74_DequantizeLinear_Output (Conversion, DequantizeLinear)    [b:1,h:32,c:128]                                    8,192     val_74_QuantizeLinear_Output   |                     -8,192(-100.0%)        
------ ---------------------------------------------------------------- ------------------------- ----------------- ------------- -------------------------------- --- ------------------- ---------------------- ----------------------------------------------- 
139    val_82_DequantizeLinear_Output (Conversion, DequantizeLinear)    [b:1,h:32,c:128]                                    8,192     val_82_QuantizeLinear_Output   |                     -8,192(-100.0%)        
------ ---------------------------------------------------------------- ------------------------- ----------------- ------------- -------------------------------- --- ------------------- ---------------------- ----------------------------------------------- 
140    linear (Eltwise, Add)                                            [b:1,h:32,c:256]                                    8,192   val_66_DequantizeLinear_Output   | +256(+100.0%)                              Eltwise/add_[47]                                
                                                                                                                                    mdl_model_layers_0..tput_const   | 
------ ---------------------------------------------------------------- ------------------------- ----------------- ------------- -------------------------------- --- ------------------- ---------------------- ----------------------------------------------- 
141    linear_1 (Eltwise, Add)                                          [b:1,h:32,c:128]                                    4,096   val_74_DequantizeLinear_Output   | +128(+100.0%)                              Eltwise/add_[33]                                
                                                                                                                                    mdl_model_layers_0..tput_const   | 
------ ---------------------------------------------------------------- ------------------------- ----------------- ------------- -------------------------------- --- ------------------- ---------------------- ----------------------------------------------- 
142    linear_2 (Eltwise, Add)                                          [b:1,h:32,c:128]                                    4,096   val_82_DequantizeLinear_Output   | +128(+100.0%)                              Eltwise/add_[27]                                
                                                                                                                                    mdl_model_layers_0..tput_const   | 
------ ---------------------------------------------------------------- ------------------------- ----------------- ------------- -------------------------------- --- ------------------- ---------------------- ----------------------------------------------- 
143    linear_QuantizeLinear_Output (Conversion, QuantizeLinear)        [b:1,h:32,c:256]                                   16,384                           linear   |                     -16,384(-100.0%)       
------ ---------------------------------------------------------------- ------------------------- ----------------- ------------- -------------------------------- --- ------------------- ---------------------- ----------------------------------------------- 
144    linear_1_QuantizeLinear_Output (Conversion, QuantizeLinear)      [b:1,h:32,c:128]                                    8,192                         linear_1   |                     -8,192(-100.0%)        
------ ---------------------------------------------------------------- ------------------------- ----------------- ------------- -------------------------------- --- ------------------- ---------------------- ----------------------------------------------- 
145    linear_2_QuantizeLinear_Output (Conversion, QuantizeLinear)      [b:1,h:32,c:128]                                    8,192                         linear_2   |                     -8,192(-100.0%)        
------ ---------------------------------------------------------------- ------------------------- ----------------- ------------- -------------------------------- --- ------------------- ---------------------- ----------------------------------------------- 
146    linear_DequantizeLinear_Output (Conversion, DequantizeLinear)    [b:1,h:32,c:256]                                   16,384     linear_QuantizeLinear_Output   |                     -16,384(-100.0%)       
------ ---------------------------------------------------------------- ------------------------- ----------------- ------------- -------------------------------- --- ------------------- ---------------------- ----------------------------------------------- 
147    linear_1_Dequantiz..ear_Output (Conversion, DequantizeLinear)    [b:1,h:32,c:128]                                    8,192   linear_1_QuantizeLinear_Output   |                     -8,192(-100.0%)        
------ ---------------------------------------------------------------- ------------------------- ----------------- ------------- -------------------------------- --- ------------------- ---------------------- ----------------------------------------------- 
148    linear_2_Dequantiz..ear_Output (Conversion, DequantizeLinear)    [b:1,h:32,c:128]                                    8,192   linear_2_QuantizeLinear_Output   |                     -8,192(-100.0%)        
------ ---------------------------------------------------------------- ------------------------- ----------------- ------------- -------------------------------- --- ------------------- ---------------------- ----------------------------------------------- 
149    view_6 (Reshape, Reshape)                                        [b:1,h:32,w:4,c:64]                                         linear_DequantizeLinear_Output   |                                            
------ ---------------------------------------------------------------- ------------------------- ----------------- ------------- -------------------------------- --- ------------------- ---------------------- ----------------------------------------------- 
150    view_7 (Reshape, Reshape)                                        [b:1,h:32,w:2,c:64]                                         linear_1_Dequantiz..ear_Output   |                                            
------ ---------------------------------------------------------------- ------------------------- ----------------- ------------- -------------------------------- --- ------------------- ---------------------- ----------------------------------------------- 
151    view_8 (Reshape, Reshape)                                        [b:1,h:32,w:2,c:64]                                         linear_2_Dequantiz..ear_Output   |                                            
------ ---------------------------------------------------------------- ------------------------- ----------------- ------------- -------------------------------- --- ------------------- ---------------------- ----------------------------------------------- 
152    view_6_QuantizeLinear_Output (Conversion, QuantizeLinear)        [b:1,h:32,w:4,c:64]                                16,384                           view_6   |                     -16,384(-100.0%)       
------ ---------------------------------------------------------------- ------------------------- ----------------- ------------- -------------------------------- --- ------------------- ---------------------- ----------------------------------------------- 
153    view_7_QuantizeLinear_Output (Conversion, QuantizeLinear)        [b:1,h:32,w:2,c:64]                                 8,192                           view_7   |                     -8,192(-100.0%)        
------ ---------------------------------------------------------------- ------------------------- ----------------- ------------- -------------------------------- --- ------------------- ---------------------- ----------------------------------------------- 
154    view_8_QuantizeLinear_Output (Conversion, QuantizeLinear)        [b:1,h:32,w:2,c:64]                                 8,192                           view_8   |                     -8,192(-100.0%)        
------ ---------------------------------------------------------------- ------------------------- ----------------- ------------- -------------------------------- --- ------------------- ---------------------- ----------------------------------------------- 
155    view_6_DequantizeLinear_Output (Conversion, DequantizeLinear)    [b:1,h:32,w:4,c:64]                                16,384     view_6_QuantizeLinear_Output   |                     -16,384(-100.0%)       
------ ---------------------------------------------------------------- ------------------------- ----------------- ------------- -------------------------------- --- ------------------- ---------------------- ----------------------------------------------- 
156    view_7_DequantizeLinear_Output (Conversion, DequantizeLinear)    [b:1,h:32,w:2,c:64]                                 8,192     view_7_QuantizeLinear_Output   |                     -8,192(-100.0%)        
------ ---------------------------------------------------------------- ------------------------- ----------------- ------------- -------------------------------- --- ------------------- ---------------------- ----------------------------------------------- 
157    view_8_DequantizeLinear_Output (Conversion, DequantizeLinear)    [b:1,h:32,w:2,c:64]                                 8,192     view_8_QuantizeLinear_Output   |                     -8,192(-100.0%)        
------ ---------------------------------------------------------------- ------------------------- ----------------- ------------- -------------------------------- --- ------------------- ---------------------- ----------------------------------------------- 
158    transpose_1 (Transpose, Transpose)                               [b:1,h:4,w:32,c:64]                                 4,096   view_6_DequantizeLinear_Output   |                                            Transpose_[48]                                  
------ ---------------------------------------------------------------- ------------------------- ----------------- ------------- -------------------------------- --- ------------------- ---------------------- ----------------------------------------------- 
159    transpose_2 (Transpose, Transpose)                               [b:1,h:2,w:32,c:64]                                 2,048   view_7_DequantizeLinear_Output   |                                            Transpose_[34]                                  
------ ---------------------------------------------------------------- ------------------------- ----------------- ------------- -------------------------------- --- ------------------- ---------------------- ----------------------------------------------- 
160    transpose_3 (Transpose, Transpose)                               [b:1,h:2,w:32,c:64]                                 2,048   view_8_DequantizeLinear_Output   |                                            Transpose_[28]                                  
------ ---------------------------------------------------------------- ------------------------- ----------------- ------------- -------------------------------- --- ------------------- ---------------------- ----------------------------------------------- 
161    transpose_1_Quanti..ear_Output (Conversion, QuantizeLinear)      [b:1,h:4,w:32,c:64]                                16,384                      transpose_1   |                     -16,384(-100.0%)       
------ ---------------------------------------------------------------- ------------------------- ----------------- ------------- -------------------------------- --- ------------------- ---------------------- ----------------------------------------------- 
162    transpose_2_Quanti..ear_Output (Conversion, QuantizeLinear)      [b:1,h:2,w:32,c:64]                                 8,192                      transpose_2   |                     -8,192(-100.0%)        
------ ---------------------------------------------------------------- ------------------------- ----------------- ------------- -------------------------------- --- ------------------- ---------------------- ----------------------------------------------- 
163    transpose_3_Quanti..ear_Output (Conversion, QuantizeLinear)      [b:1,h:2,w:32,c:64]                                 8,192                      transpose_3   |                     -8,192(-100.0%)        
------ ---------------------------------------------------------------- ------------------------- ----------------- ------------- -------------------------------- --- ------------------- ---------------------- ----------------------------------------------- 
164    transpose_1_Dequan..ear_Output (Conversion, DequantizeLinear)    [b:1,h:4,w:32,c:64]                                16,384   transpose_1_Quanti..ear_Output   |                     -16,384(-100.0%)       
------ ---------------------------------------------------------------- ------------------------- ----------------- ------------- -------------------------------- --- ------------------- ---------------------- ----------------------------------------------- 
165    transpose_2_Dequan..ear_Output (Conversion, DequantizeLinear)    [b:1,h:2,w:32,c:64]                                 8,192   transpose_2_Quanti..ear_Output   |                     -8,192(-100.0%)        
------ ---------------------------------------------------------------- ------------------------- ----------------- ------------- -------------------------------- --- ------------------- ---------------------- ----------------------------------------------- 
166    transpose_3_Dequan..ear_Output (Conversion, DequantizeLinear)    [b:1,h:2,w:32,c:64]                                 8,192   transpose_3_Quanti..ear_Output   |                     -8,192(-100.0%)        
------ ---------------------------------------------------------------- ------------------------- ----------------- ------------- -------------------------------- --- ------------------- ---------------------- ----------------------------------------------- 
167    mul_5 (Eltwise, Mul)                                             [b:1,h:4,w:32,c:64]                                 8,192   transpose_1_Dequan..ear_Output   | +2,048(+100.0%)                            Eltwise/mul_[54]                                
                                                                                                                                    unsqueeze_4_Dequan..tput_const   | 
------ ---------------------------------------------------------------- ------------------------- ----------------- ------------- -------------------------------- --- ------------------- ---------------------- ----------------------------------------------- 
168    slice_1 (Slice, Slice)                                           [b:1,h:4,w:32,c:32]                                         transpose_1_Dequan..ear_Output   |                                            Slice_[51]                                      
------ ---------------------------------------------------------------- ------------------------- ----------------- ------------- -------------------------------- --- ------------------- ---------------------- ----------------------------------------------- 
169    slice_2 (Slice, Slice)                                           [b:1,h:4,w:32,c:32]                                         transpose_1_Dequan..ear_Output   |                                            Slice_[49]                                      
------ ---------------------------------------------------------------- ------------------------- ----------------- ------------- -------------------------------- --- ------------------- ---------------------- ----------------------------------------------- 
170    mul_7 (Eltwise, Mul)                                             [b:1,h:2,w:32,c:64]                                 4,096   transpose_2_Dequan..ear_Output   | +2,048(+100.0%)                            Eltwise/mul_[40]                                
                                                                                                                                    unsqueeze_4_Dequan..tput_const   | 
------ ---------------------------------------------------------------- ------------------------- ----------------- ------------- -------------------------------- --- ------------------- ---------------------- ----------------------------------------------- 
171    slice_3 (Slice, Slice)                                           [b:1,h:2,w:32,c:32]                                         transpose_2_Dequan..ear_Output   |                                            Slice_[37]                                      
------ ---------------------------------------------------------------- ------------------------- ----------------- ------------- -------------------------------- --- ------------------- ---------------------- ----------------------------------------------- 
172    slice_4 (Slice, Slice)                                           [b:1,h:2,w:32,c:32]                                         transpose_2_Dequan..ear_Output   |                                            Slice_[35]                                      
------ ---------------------------------------------------------------- ------------------------- ----------------- ------------- -------------------------------- --- ------------------- ---------------------- ----------------------------------------------- 
173    unsqueeze_7 (Reshape, Unsqueeze)                                 [b:1,h:2,w:1,d:32,c:64]                                     transpose_3_Dequan..ear_Output   |                                            
------ ---------------------------------------------------------------- ------------------------- ----------------- ------------- -------------------------------- --- ------------------- ---------------------- ----------------------------------------------- 
174    mul_5_QuantizeLinear_Output (Conversion, QuantizeLinear)         [b:1,h:4,w:32,c:64]                                16,384                            mul_5   |                     -16,384(-100.0%)       
------ ---------------------------------------------------------------- ------------------------- ----------------- ------------- -------------------------------- --- ------------------- ---------------------- ----------------------------------------------- 
175    slice_1_QuantizeLinear_Output (Conversion, QuantizeLinear)       [b:1,h:4,w:32,c:32]                                 8,192                          slice_1   |                     -8,192(-100.0%)        
------ ---------------------------------------------------------------- ------------------------- ----------------- ------------- -------------------------------- --- ------------------- ---------------------- ----------------------------------------------- 
176    slice_2_QuantizeLinear_Output (Conversion, QuantizeLinear)       [b:1,h:4,w:32,c:32]                                 8,192                          slice_2   |                     -8,192(-100.0%)        
------ ---------------------------------------------------------------- ------------------------- ----------------- ------------- -------------------------------- --- ------------------- ---------------------- ----------------------------------------------- 
177    mul_7_QuantizeLinear_Output (Conversion, QuantizeLinear)         [b:1,h:2,w:32,c:64]                                 8,192                            mul_7   |                     -8,192(-100.0%)        
------ ---------------------------------------------------------------- ------------------------- ----------------- ------------- -------------------------------- --- ------------------- ---------------------- ----------------------------------------------- 
178    slice_3_QuantizeLinear_Output (Conversion, QuantizeLinear)       [b:1,h:2,w:32,c:32]                                 4,096                          slice_3   |                     -4,096(-100.0%)        
------ ---------------------------------------------------------------- ------------------------- ----------------- ------------- -------------------------------- --- ------------------- ---------------------- ----------------------------------------------- 
179    slice_4_QuantizeLinear_Output (Conversion, QuantizeLinear)       [b:1,h:2,w:32,c:32]                                 4,096                          slice_4   |                     -4,096(-100.0%)        
------ ---------------------------------------------------------------- ------------------------- ----------------- ------------- -------------------------------- --- ------------------- ---------------------- ----------------------------------------------- 
180    unsqueeze_7_Quanti..ear_Output (Conversion, QuantizeLinear)      [b:1,h:2,w:1,d:32,c:64]                             8,192                      unsqueeze_7   |                     -8,192(-100.0%)        
------ ---------------------------------------------------------------- ------------------------- ----------------- ------------- -------------------------------- --- ------------------- ---------------------- ----------------------------------------------- 
181    mul_5_DequantizeLinear_Output (Conversion, DequantizeLinear)     [b:1,h:4,w:32,c:64]                                16,384      mul_5_QuantizeLinear_Output   |                     -16,384(-100.0%)       
------ ---------------------------------------------------------------- ------------------------- ----------------- ------------- -------------------------------- --- ------------------- ---------------------- ----------------------------------------------- 
182    slice_1_Dequantize..ear_Output (Conversion, DequantizeLinear)    [b:1,h:4,w:32,c:32]                                 8,192    slice_1_QuantizeLinear_Output   |                     -8,192(-100.0%)        
------ ---------------------------------------------------------------- ------------------------- ----------------- ------------- -------------------------------- --- ------------------- ---------------------- ----------------------------------------------- 
183    slice_2_Dequantize..ear_Output (Conversion, DequantizeLinear)    [b:1,h:4,w:32,c:32]                                 8,192    slice_2_QuantizeLinear_Output   |                     -8,192(-100.0%)        
------ ---------------------------------------------------------------- ------------------------- ----------------- ------------- -------------------------------- --- ------------------- ---------------------- ----------------------------------------------- 
184    mul_7_DequantizeLinear_Output (Conversion, DequantizeLinear)     [b:1,h:2,w:32,c:64]                                 8,192      mul_7_QuantizeLinear_Output   |                     -8,192(-100.0%)        
------ ---------------------------------------------------------------- ------------------------- ----------------- ------------- -------------------------------- --- ------------------- ---------------------- ----------------------------------------------- 
185    slice_3_Dequantize..ear_Output (Conversion, DequantizeLinear)    [b:1,h:2,w:32,c:32]                                 4,096    slice_3_QuantizeLinear_Output   |                     -4,096(-100.0%)        
------ ---------------------------------------------------------------- ------------------------- ----------------- ------------- -------------------------------- --- ------------------- ---------------------- ----------------------------------------------- 
186    slice_4_Dequantize..ear_Output (Conversion, DequantizeLinear)    [b:1,h:2,w:32,c:32]                                 4,096    slice_4_QuantizeLinear_Output   |                     -4,096(-100.0%)        
------ ---------------------------------------------------------------- ------------------------- ----------------- ------------- -------------------------------- --- ------------------- ---------------------- ----------------------------------------------- 
187    unsqueeze_7_Dequan..ear_Output (Conversion, DequantizeLinear)    [b:1,h:2,w:1,d:32,c:64]                             8,192   unsqueeze_7_Quanti..ear_Output   |                     -8,192(-100.0%)        
------ ---------------------------------------------------------------- ------------------------- ----------------- ------------- -------------------------------- --- ------------------- ---------------------- ----------------------------------------------- 
188    neg (Nonlinearity, Neg)                                          [b:1,h:4,w:32,c:32]                                 4,096   slice_2_Dequantize..ear_Output   |                                            Nonlinearity_[50]                               
------ ---------------------------------------------------------------- ------------------------- ----------------- ------------- -------------------------------- --- ------------------- ---------------------- ----------------------------------------------- 
189    neg_1 (Nonlinearity, Neg)                                        [b:1,h:2,w:32,c:32]                                 2,048   slice_4_Dequantize..ear_Output   |                                            Nonlinearity_[36]                               
------ ---------------------------------------------------------------- ------------------------- ----------------- ------------- -------------------------------- --- ------------------- ---------------------- ----------------------------------------------- 
190    expand_4 (Tile, Expand)                                          [b:1,h:2,w:2,d:32,c:64]                                     unsqueeze_7_Dequan..ear_Output   |                     +16,384(+100.0%)       Tile_/Conversion_[29, 30]                       
------ ---------------------------------------------------------------- ------------------------- ----------------- ------------- -------------------------------- --- ------------------- ---------------------- ----------------------------------------------- 
191    neg_QuantizeLinear_Output (Conversion, QuantizeLinear)           [b:1,h:4,w:32,c:32]                                 8,192                              neg   |                     -8,192(-100.0%)        
------ ---------------------------------------------------------------- ------------------------- ----------------- ------------- -------------------------------- --- ------------------- ---------------------- ----------------------------------------------- 
192    neg_1_QuantizeLinear_Output (Conversion, QuantizeLinear)         [b:1,h:2,w:32,c:32]                                 4,096                            neg_1   |                     -4,096(-100.0%)        
------ ---------------------------------------------------------------- ------------------------- ----------------- ------------- -------------------------------- --- ------------------- ---------------------- ----------------------------------------------- 
193    _unsafe_view_1 (Reshape, Reshape)                                [b:1,h:4,w:32,c:64]                                                               expand_4   |                                            
------ ---------------------------------------------------------------- ------------------------- ----------------- ------------- -------------------------------- --- ------------------- ---------------------- ----------------------------------------------- 
194    neg_DequantizeLinear_Output (Conversion, DequantizeLinear)       [b:1,h:4,w:32,c:32]                                 8,192        neg_QuantizeLinear_Output   |                     -8,192(-100.0%)        
------ ---------------------------------------------------------------- ------------------------- ----------------- ------------- -------------------------------- --- ------------------- ---------------------- ----------------------------------------------- 
195    neg_1_DequantizeLinear_Output (Conversion, DequantizeLinear)     [b:1,h:2,w:32,c:32]                                 4,096      neg_1_QuantizeLinear_Output   |                     -4,096(-100.0%)        
------ ---------------------------------------------------------------- ------------------------- ----------------- ------------- -------------------------------- --- ------------------- ---------------------- ----------------------------------------------- 
196    _unsafe_view_1_Qua..ear_Output (Conversion, QuantizeLinear)      [b:1,h:4,w:32,c:64]                                16,384                   _unsafe_view_1   |                     -16,384(-100.0%)       
------ ---------------------------------------------------------------- ------------------------- ----------------- ------------- -------------------------------- --- ------------------- ---------------------- ----------------------------------------------- 
197    cat_1 (Concat, Concat)                                           [b:1,h:4,w:32,c:64]                                            neg_DequantizeLinear_Output   |                                            Concat_[52]                                     
                                                                                                                                    slice_1_Dequantize..ear_Output   | 
------ ---------------------------------------------------------------- ------------------------- ----------------- ------------- -------------------------------- --- ------------------- ---------------------- ----------------------------------------------- 
198    cat_2 (Concat, Concat)                                           [b:1,h:2,w:32,c:64]                                          neg_1_DequantizeLinear_Output   |                                            Concat_[38]                                     
                                                                                                                                    slice_3_Dequantize..ear_Output   | 
------ ---------------------------------------------------------------- ------------------------- ----------------- ------------- -------------------------------- --- ------------------- ---------------------- ----------------------------------------------- 
199    _unsafe_view_1_Deq..ear_Output (Conversion, DequantizeLinear)    [b:1,h:4,w:32,c:64]                                16,384   _unsafe_view_1_Qua..ear_Output   |                     -16,384(-100.0%)       
------ ---------------------------------------------------------------- ------------------------- ----------------- ------------- -------------------------------- --- ------------------- ---------------------- ----------------------------------------------- 
200    cat_1_QuantizeLinear_Output (Conversion, QuantizeLinear)         [b:1,h:4,w:32,c:64]                                16,384                            cat_1   |                     -16,384(-100.0%)       
------ ---------------------------------------------------------------- ------------------------- ----------------- ------------- -------------------------------- --- ------------------- ---------------------- ----------------------------------------------- 
201    cat_2_QuantizeLinear_Output (Conversion, QuantizeLinear)         [b:1,h:2,w:32,c:64]                                 8,192                            cat_2   |                     -8,192(-100.0%)        
------ ---------------------------------------------------------------- ------------------------- ----------------- ------------- -------------------------------- --- ------------------- ---------------------- ----------------------------------------------- 
202    cat_1_DequantizeLinear_Output (Conversion, DequantizeLinear)     [b:1,h:4,w:32,c:64]                                16,384      cat_1_QuantizeLinear_Output   |                     -16,384(-100.0%)       
------ ---------------------------------------------------------------- ------------------------- ----------------- ------------- -------------------------------- --- ------------------- ---------------------- ----------------------------------------------- 
203    cat_2_DequantizeLinear_Output (Conversion, DequantizeLinear)     [b:1,h:2,w:32,c:64]                                 8,192      cat_2_QuantizeLinear_Output   |                     -8,192(-100.0%)        
------ ---------------------------------------------------------------- ------------------------- ----------------- ------------- -------------------------------- --- ------------------- ---------------------- ----------------------------------------------- 
204    mul_6 (Eltwise, Mul)                                             [b:1,h:4,w:32,c:64]                                 8,192    cat_1_DequantizeLinear_Output   | +2,048(+100.0%)                            Eltwise/mul_[53]                                
                                                                                                                                    unsqueeze_5_Dequan..tput_const   | 
------ ---------------------------------------------------------------- ------------------------- ----------------- ------------- -------------------------------- --- ------------------- ---------------------- ----------------------------------------------- 
205    mul_8 (Eltwise, Mul)                                             [b:1,h:2,w:32,c:64]                                 4,096    cat_2_DequantizeLinear_Output   | +2,048(+100.0%)                            Eltwise/mul_[39]                                
                                                                                                                                    unsqueeze_5_Dequan..tput_const   | 
------ ---------------------------------------------------------------- ------------------------- ----------------- ------------- -------------------------------- --- ------------------- ---------------------- ----------------------------------------------- 
206    mul_6_QuantizeLinear_Output (Conversion, QuantizeLinear)         [b:1,h:4,w:32,c:64]                                16,384                            mul_6   |                     -16,384(-100.0%)       
------ ---------------------------------------------------------------- ------------------------- ----------------- ------------- -------------------------------- --- ------------------- ---------------------- ----------------------------------------------- 
207    mul_8_QuantizeLinear_Output (Conversion, QuantizeLinear)         [b:1,h:2,w:32,c:64]                                 8,192                            mul_8   |                     -8,192(-100.0%)        
------ ---------------------------------------------------------------- ------------------------- ----------------- ------------- -------------------------------- --- ------------------- ---------------------- ----------------------------------------------- 
208    mul_6_DequantizeLinear_Output (Conversion, DequantizeLinear)     [b:1,h:4,w:32,c:64]                                16,384      mul_6_QuantizeLinear_Output   |                     -16,384(-100.0%)       
------ ---------------------------------------------------------------- ------------------------- ----------------- ------------- -------------------------------- --- ------------------- ---------------------- ----------------------------------------------- 
209    mul_8_DequantizeLinear_Output (Conversion, DequantizeLinear)     [b:1,h:2,w:32,c:64]                                 8,192      mul_8_QuantizeLinear_Output   |                     -8,192(-100.0%)        
------ ---------------------------------------------------------------- ------------------------- ----------------- ------------- -------------------------------- --- ------------------- ---------------------- ----------------------------------------------- 
210    add_5 (Eltwise, Add)                                             [b:1,h:4,w:32,c:64]                                 8,192    mul_5_DequantizeLinear_Output   |                                            Eltwise/add_[55]                                
                                                                                                                                     mul_6_DequantizeLinear_Output   | 
------ ---------------------------------------------------------------- ------------------------- ----------------- ------------- -------------------------------- --- ------------------- ---------------------- ----------------------------------------------- 
211    add_6 (Eltwise, Add)                                             [b:1,h:2,w:32,c:64]                                 4,096    mul_7_DequantizeLinear_Output   |                                            Eltwise/add_[41]                                
                                                                                                                                     mul_8_DequantizeLinear_Output   | 
------ ---------------------------------------------------------------- ------------------------- ----------------- ------------- -------------------------------- --- ------------------- ---------------------- ----------------------------------------------- 
212    add_5_QuantizeLinear_Output (Conversion, QuantizeLinear)         [b:1,h:4,w:32,c:64]                                16,384                            add_5   |                     -16,384(-100.0%)       
------ ---------------------------------------------------------------- ------------------------- ----------------- ------------- -------------------------------- --- ------------------- ---------------------- ----------------------------------------------- 
213    add_6_QuantizeLinear_Output (Conversion, QuantizeLinear)         [b:1,h:2,w:32,c:64]                                 8,192                            add_6   |                     -8,192(-100.0%)        
------ ---------------------------------------------------------------- ------------------------- ----------------- ------------- -------------------------------- --- ------------------- ---------------------- ----------------------------------------------- 
214    add_5_DequantizeLinear_Output (Conversion, DequantizeLinear)     [b:1,h:4,w:32,c:64]                                16,384      add_5_QuantizeLinear_Output   |                     -16,384(-100.0%)       
------ ---------------------------------------------------------------- ------------------------- ----------------- ------------- -------------------------------- --- ------------------- ---------------------- ----------------------------------------------- 
215    add_6_DequantizeLinear_Output (Conversion, DequantizeLinear)     [b:1,h:2,w:32,c:64]                                 8,192      add_6_QuantizeLinear_Output   |                     -8,192(-100.0%)        
------ ---------------------------------------------------------------- ------------------------- ----------------- ------------- -------------------------------- --- ------------------- ---------------------- ----------------------------------------------- 
216    val_173 (Eltwise, Mul)                                           [b:1,h:4,w:32,c:64]                                 8,192    add_5_DequantizeLinear_Output   | +1(+100.0%)         +16,384(+200.0%)       Eltwise/mul_/Conversion_[56, 57]                
                                                                                                                                    val_172_Dequantize..tput_const   | 
------ ---------------------------------------------------------------- ------------------------- ----------------- ------------- -------------------------------- --- ------------------- ---------------------- ----------------------------------------------- 
217    unsqueeze_6 (Reshape, Unsqueeze)                                 [b:1,h:2,w:1,d:32,c:64]                                      add_6_DequantizeLinear_Output   |                                            
------ ---------------------------------------------------------------- ------------------------- ----------------- ------------- -------------------------------- --- ------------------- ---------------------- ----------------------------------------------- 
218    val_173_QuantizeLinear_Output (Conversion, QuantizeLinear)       [b:1,h:4,w:32,c:64]                                16,384                          val_173   |                     -16,384(-100.0%)       
------ ---------------------------------------------------------------- ------------------------- ----------------- ------------- -------------------------------- --- ------------------- ---------------------- ----------------------------------------------- 
219    unsqueeze_6_Quanti..ear_Output (Conversion, QuantizeLinear)      [b:1,h:2,w:1,d:32,c:64]                             8,192                      unsqueeze_6   |                     -8,192(-100.0%)        
------ ---------------------------------------------------------------- ------------------------- ----------------- ------------- -------------------------------- --- ------------------- ---------------------- ----------------------------------------------- 
220    val_173_Dequantize..ear_Output (Conversion, DequantizeLinear)    [b:1,h:4,w:32,c:64]                                16,384    val_173_QuantizeLinear_Output   |                     -16,384(-100.0%)       
------ ---------------------------------------------------------------- ------------------------- ----------------- ------------- -------------------------------- --- ------------------- ---------------------- ----------------------------------------------- 
221    unsqueeze_6_Dequan..ear_Output (Conversion, DequantizeLinear)    [b:1,h:2,w:1,d:32,c:64]                             8,192   unsqueeze_6_Quanti..ear_Output   |                     -8,192(-100.0%)        
------ ---------------------------------------------------------------- ------------------------- ----------------- ------------- -------------------------------- --- ------------------- ---------------------- ----------------------------------------------- 
222    expand_3 (Tile, Expand)                                          [b:1,h:2,w:2,d:32,c:64]                                     unsqueeze_6_Dequan..ear_Output   |                                            Tile_[42]                                       
------ ---------------------------------------------------------------- ------------------------- ----------------- ------------- -------------------------------- --- ------------------- ---------------------- ----------------------------------------------- 
223    val_168 (Reshape, Reshape)                                       [b:4,h:32,c:64]                                                                   expand_3   |                                            
------ ---------------------------------------------------------------- ------------------------- ----------------- ------------- -------------------------------- --- ------------------- ---------------------- ----------------------------------------------- 
224    val_169 (Transpose, Transpose)                                   [b:4,h:64,c:32]                                     1,024                          val_168   |                     +3,072(+300.0%)        Transpose_[43]                                  
------ ---------------------------------------------------------------- ------------------------- ----------------- ------------- -------------------------------- --- ------------------- ---------------------- ----------------------------------------------- 
225    val_171 (Reshape, Reshape)                                       [b:1,h:4,w:64,c:32]                                                                val_169   |                                            
------ ---------------------------------------------------------------- ------------------------- ----------------- ------------- -------------------------------- --- ------------------- ---------------------- ----------------------------------------------- 
226    val_171_QuantizeLinear_Output (Conversion, QuantizeLinear)       [b:1,h:4,w:64,c:32]                                16,384                          val_171   |                     -16,384(-100.0%)       
------ ---------------------------------------------------------------- ------------------------- ----------------- ------------- -------------------------------- --- ------------------- ---------------------- ----------------------------------------------- 
227    val_171_Dequantize..ear_Output (Conversion, DequantizeLinear)    [b:1,h:4,w:64,c:32]                                16,384    val_171_QuantizeLinear_Output   |                     -16,384(-100.0%)       
------ ---------------------------------------------------------------- ------------------------- ----------------- ------------- -------------------------------- --- ------------------- ---------------------- ----------------------------------------------- 
228    val_175 (Eltwise, Mul)                                           [b:1,h:4,w:64,c:32]                                 8,192   val_171_Dequantize..ear_Output   | +1(+100.0%)         +16,384(+200.0%)       Eltwise/mul_/Conversion_[44, 45]                
                                                                                                                                    val_172_Dequantize..tput_const   | 
------ ---------------------------------------------------------------- ------------------------- ----------------- ------------- -------------------------------- --- ------------------- ---------------------- ----------------------------------------------- 
229    val_175_QuantizeLinear_Output (Conversion, QuantizeLinear)       [b:1,h:4,w:64,c:32]                                16,384                          val_175   |                     -16,384(-100.0%)       
------ ---------------------------------------------------------------- ------------------------- ----------------- ------------- -------------------------------- --- ------------------- ---------------------- ----------------------------------------------- 
230    val_175_Dequantize..ear_Output (Conversion, DequantizeLinear)    [b:1,h:4,w:64,c:32]                                16,384    val_175_QuantizeLinear_Output   |                     -16,384(-100.0%)       
------ ---------------------------------------------------------------- ------------------------- ----------------- ------------- -------------------------------- --- ------------------- ---------------------- ----------------------------------------------- 
231    val_179 (Gemm, MatMul)                                           [b:1,h:4,w:32,c:32]                            33,558,528   val_173_Dequantize..ear_Output   | +1(+100.0%)         +8,194(+0.0%)          Conversion_/Gemm_/Conversion_[3, 58, 59]        
                                                                                                                                    val_175_Dequantize..ear_Output   | 
------ ---------------------------------------------------------------- ------------------------- ----------------- ------------- -------------------------------- --- ------------------- ---------------------- ----------------------------------------------- 
232    val_179_QuantizeLinear_Output (Conversion, QuantizeLinear)       [b:1,h:4,w:32,c:32]                                 8,192                          val_179   |                     -8,192(-100.0%)        
------ ---------------------------------------------------------------- ------------------------- ----------------- ------------- -------------------------------- --- ------------------- ---------------------- ----------------------------------------------- 
233    val_179_Dequantize..ear_Output (Conversion, DequantizeLinear)    [b:1,h:4,w:32,c:32]                                 8,192    val_179_QuantizeLinear_Output   |                     -8,192(-100.0%)        
------ ---------------------------------------------------------------- ------------------------- ----------------- ------------- -------------------------------- --- ------------------- ---------------------- ----------------------------------------------- 
234    val_180 (Eltwise, Add)                                           [b:1,h:4,w:32,c:32]                                 4,096   val_179_Dequantize..ear_Output   |                     +8,192(+200.0%)        Eltwise/add_/Conversion_[67, 68]                
                                                                                                                                    val_178_Dequantize..ear_Output   | 
------ ---------------------------------------------------------------- ------------------------- ----------------- ------------- -------------------------------- --- ------------------- ---------------------- ----------------------------------------------- 
235    val_180_QuantizeLinear_Output (Conversion, QuantizeLinear)       [b:1,h:4,w:32,c:32]                                 8,192                          val_180   |                     -8,192(-100.0%)        
------ ---------------------------------------------------------------- ------------------------- ----------------- ------------- -------------------------------- --- ------------------- ---------------------- ----------------------------------------------- 
236    val_180_Dequantize..ear_Output (Conversion, DequantizeLinear)    [b:1,h:4,w:32,c:32]                                 8,192    val_180_QuantizeLinear_Output   |                     -8,192(-100.0%)        
------ ---------------------------------------------------------------- ------------------------- ----------------- ------------- -------------------------------- --- ------------------- ---------------------- ----------------------------------------------- 
237    val_181 (Nonlinearity, Softmax)                                  [b:1,h:4,w:32,c:32]                                61,440   val_180_Dequantize..ear_Output   |                                            Nonlinearity_[69]                               
------ ---------------------------------------------------------------- ------------------------- ----------------- ------------- -------------------------------- --- ------------------- ---------------------- ----------------------------------------------- 
238    val_181_QuantizeLinear_Output (Conversion, QuantizeLinear)       [b:1,h:4,w:32,c:32]                                 8,192                          val_181   |                     -8,192(-100.0%)        
------ ---------------------------------------------------------------- ------------------------- ----------------- ------------- -------------------------------- --- ------------------- ---------------------- ----------------------------------------------- 
239    val_181_Dequantize..ear_Output (Conversion, DequantizeLinear)    [b:1,h:4,w:32,c:32]                                 8,192    val_181_QuantizeLinear_Output   |                     -8,192(-100.0%)        
------ ---------------------------------------------------------------- ------------------------- ----------------- ------------- -------------------------------- --- ------------------- ---------------------- ----------------------------------------------- 
241    val_183_QuantizeLinear_Output (Conversion, QuantizeLinear)       [b:1,h:4,w:32,c:32]                                 8,192   val_181_Dequantize..ear_Output   |                     -8,192(-100.0%)        
------ ---------------------------------------------------------------- ------------------------- ----------------- ------------- -------------------------------- --- ------------------- ---------------------- ----------------------------------------------- 
242    val_183_Dequantize..ear_Output (Conversion, DequantizeLinear)    [b:1,h:4,w:32,c:32]                                 8,192    val_183_QuantizeLinear_Output   |                     -8,192(-100.0%)        
------ ---------------------------------------------------------------- ------------------------- ----------------- ------------- -------------------------------- --- ------------------- ---------------------- ----------------------------------------------- 
243    scaled_dot_product_attention (Gemm, MatMul)                      [b:1,h:4,w:32,c:64]                            33,562,624   val_183_Dequantize..ear_Output   | +1(+100.0%)         +16,386(+0.0%)         Conversion_/Gemm_/Conversion_[2, 70, 71]        
                                                                                                                                    _unsafe_view_1_Deq..ear_Output   | 
------ ---------------------------------------------------------------- ------------------------- ----------------- ------------- -------------------------------- --- ------------------- ---------------------- ----------------------------------------------- 
244    scaled_dot_product..ear_Output (Conversion, QuantizeLinear)      [b:1,h:4,w:32,c:64]                                16,384     scaled_dot_product_attention   |                     -16,384(-100.0%)       
------ ---------------------------------------------------------------- ------------------------- ----------------- ------------- -------------------------------- --- ------------------- ---------------------- ----------------------------------------------- 
245    scaled_dot_product..ear_Output (Conversion, DequantizeLinear)    [b:1,h:4,w:32,c:64]                                16,384   scaled_dot_product..ear_Output   |                     -16,384(-100.0%)       
------ ---------------------------------------------------------------- ------------------------- ----------------- ------------- -------------------------------- --- ------------------- ---------------------- ----------------------------------------------- 
246    transpose_4 (Transpose, Transpose)                               [b:1,h:32,w:4,c:64]                                 4,096   scaled_dot_product..ear_Output   |                                            Transpose_[72]                                  
------ ---------------------------------------------------------------- ------------------------- ----------------- ------------- -------------------------------- --- ------------------- ---------------------- ----------------------------------------------- 
247    transpose_4_Quanti..ear_Output (Conversion, QuantizeLinear)      [b:1,h:32,w:4,c:64]                                16,384                      transpose_4   |                     -16,384(-100.0%)       
------ ---------------------------------------------------------------- ------------------------- ----------------- ------------- -------------------------------- --- ------------------- ---------------------- ----------------------------------------------- 
248    transpose_4_Dequan..ear_Output (Conversion, DequantizeLinear)    [b:1,h:32,w:4,c:64]                                16,384   transpose_4_Quanti..ear_Output   |                     -16,384(-100.0%)       
------ ---------------------------------------------------------------- ------------------------- ----------------- ------------- -------------------------------- --- ------------------- ---------------------- ----------------------------------------------- 
249    view_9 (Reshape, Reshape)                                        [b:1,h:32,c:256]                                            transpose_4_Dequan..ear_Output   |                                            
------ ---------------------------------------------------------------- ------------------------- ----------------- ------------- -------------------------------- --- ------------------- ---------------------- ----------------------------------------------- 
250    view_9_QuantizeLinear_Output (Conversion, QuantizeLinear)        [b:1,h:32,c:256]                                   16,384                           view_9   |                     -16,384(-100.0%)       
------ ---------------------------------------------------------------- ------------------------- ----------------- ------------- -------------------------------- --- ------------------- ---------------------- ----------------------------------------------- 
251    view_9_DequantizeLinear_Output (Conversion, DequantizeLinear)    [b:1,h:32,c:256]                                   16,384     view_9_QuantizeLinear_Output   |                     -16,384(-100.0%)       
------ ---------------------------------------------------------------- ------------------------- ----------------- ------------- -------------------------------- --- ------------------- ---------------------- ----------------------------------------------- 
252    linear_3 (Gemm, MatMul)                                          [b:1,h:32,c:256]                               67,117,056   view_9_DequantizeLinear_Output   | +66,560(+100.0%)    -65,019,648(-96.9%)    Conv2D_[73]                                     
                                                                                                                                    val_189_Dequantize..tput_const   | 
------ ---------------------------------------------------------------- ------------------------- ----------------- ------------- -------------------------------- --- ------------------- ---------------------- ----------------------------------------------- 
253    linear_3_QuantizeLinear_Output (Conversion, QuantizeLinear)      [b:1,h:32,c:256]                                   16,384                         linear_3   |                     -16,384(-100.0%)       
------ ---------------------------------------------------------------- ------------------------- ----------------- ------------- -------------------------------- --- ------------------- ---------------------- ----------------------------------------------- 
254    linear_3_Dequantiz..ear_Output (Conversion, DequantizeLinear)    [b:1,h:32,c:256]                                   16,384   linear_3_QuantizeLinear_Output   |                     -16,384(-100.0%)       
------ ---------------------------------------------------------------- ------------------------- ----------------- ------------- -------------------------------- --- ------------------- ---------------------- ----------------------------------------------- 
255    add_7 (Eltwise, Add)                                             [b:1,h:32,c:256]                                    8,192   embedding_Dequanti..ear_Output   |                     +16,384(+200.0%)       Eltwise/add_/Conversion_[74, 75]                
                                                                                                                                    linear_3_Dequantiz..ear_Output   | 
------ ---------------------------------------------------------------- ------------------------- ----------------- ------------- -------------------------------- --- ------------------- ---------------------- ----------------------------------------------- 
256    add_7_QuantizeLinear_Output (Conversion, QuantizeLinear)         [b:1,h:32,c:256]                                   16,384                            add_7   |                     -16,384(-100.0%)       
------ ---------------------------------------------------------------- ------------------------- ----------------- ------------- -------------------------------- --- ------------------- ---------------------- ----------------------------------------------- 
257    add_7_DequantizeLinear_Output (Conversion, DequantizeLinear)     [b:1,h:32,c:256]                                   16,384      add_7_QuantizeLinear_Output   |                     -16,384(-100.0%)       
------ ---------------------------------------------------------------- ------------------------- ----------------- ------------- -------------------------------- --- ------------------- ---------------------- ----------------------------------------------- 
258    pow_2 (Eltwise, Pow)                                             [b:1,h:32,c:256]                                   81,920    add_7_DequantizeLinear_Output   | +4(+100.0%)                                Eltwise/pow_[76]                                
                                                                                                                                                            val_60   | 
------ ---------------------------------------------------------------- ------------------------- ----------------- ------------- -------------------------------- --- ------------------- ---------------------- ----------------------------------------------- 
259    mean_1 (Reduce, ReduceMean)                                      [b:1,h:32,c:1]                                     16,384                            pow_2   | +8(+100.0%)         -8,064(-49.2%)         Reduce_/ScaleBias_/Conversion_[77, 78, 79]      
------ ---------------------------------------------------------------- ------------------------- ----------------- ------------- -------------------------------- --- ------------------- ---------------------- ----------------------------------------------- 
260    mean_1_QuantizeLinear_Output (Conversion, QuantizeLinear)        [b:1,h:32,c:1]                                         64                           mean_1   |                     -64(-100.0%)           
------ ---------------------------------------------------------------- ------------------------- ----------------- ------------- -------------------------------- --- ------------------- ---------------------- ----------------------------------------------- 
261    mean_1_DequantizeLinear_Output (Conversion, DequantizeLinear)    [b:1,h:32,c:1]                                         64     mean_1_QuantizeLinear_Output   |                     -64(-100.0%)           
------ ---------------------------------------------------------------- ------------------------- ----------------- ------------- -------------------------------- --- ------------------- ---------------------- ----------------------------------------------- 
262    add_8 (Eltwise, Add)                                             [b:1,h:32,c:1]                                         32   mean_1_DequantizeLinear_Output   | +1(+100.0%)         +64(+200.0%)           Eltwise/add_/Conversion_[80, 81]                
                                                                                                                                    val_63_DequantizeL..tput_const   | 
------ ---------------------------------------------------------------- ------------------------- ----------------- ------------- -------------------------------- --- ------------------- ---------------------- ----------------------------------------------- 
263    add_8_QuantizeLinear_Output (Conversion, QuantizeLinear)         [b:1,h:32,c:1]                                         64                            add_8   |                     -64(-100.0%)           
------ ---------------------------------------------------------------- ------------------------- ----------------- ------------- -------------------------------- --- ------------------- ---------------------- ----------------------------------------------- 
264    add_8_DequantizeLinear_Output (Conversion, DequantizeLinear)     [b:1,h:32,c:1]                                         64      add_8_QuantizeLinear_Output   |                     -64(-100.0%)           
------ ---------------------------------------------------------------- ------------------------- ----------------- ------------- -------------------------------- --- ------------------- ---------------------- ----------------------------------------------- 
265    val_193 (Nonlinearity, Sqrt)                                     [b:1,h:32,c:1]                                        384    add_8_DequantizeLinear_Output   |                                            Nonlinearity_[82]                               
------ ---------------------------------------------------------------- ------------------------- ----------------- ------------- -------------------------------- --- ------------------- ---------------------- ----------------------------------------------- 
266    rsqrt_1 (Nonlinearity, Reciprocal)                               [b:1,h:32,c:1]                                        160                          val_193   |                     +64(+40.0%)            Nonlinearity_/Conversion_[83, 84]               
------ ---------------------------------------------------------------- ------------------------- ----------------- ------------- -------------------------------- --- ------------------- ---------------------- ----------------------------------------------- 
267    rsqrt_1_QuantizeLinear_Output (Conversion, QuantizeLinear)       [b:1,h:32,c:1]                                         64                          rsqrt_1   |                     -64(-100.0%)           
------ ---------------------------------------------------------------- ------------------------- ----------------- ------------- -------------------------------- --- ------------------- ---------------------- ----------------------------------------------- 
268    rsqrt_1_Dequantize..ear_Output (Conversion, DequantizeLinear)    [b:1,h:32,c:1]                                         64    rsqrt_1_QuantizeLinear_Output   |                     -64(-100.0%)           
------ ---------------------------------------------------------------- ------------------------- ----------------- ------------- -------------------------------- --- ------------------- ---------------------- ----------------------------------------------- 
269    mul_9 (Eltwise, Mul)                                             [b:1,h:32,c:256]                                    8,192    add_7_DequantizeLinear_Output   |                                            Eltwise/mul_[85]                                
                                                                                                                                    rsqrt_1_Dequantize..ear_Output   | 
------ ---------------------------------------------------------------- ------------------------- ----------------- ------------- -------------------------------- --- ------------------- ---------------------- ----------------------------------------------- 
270    mul_9_QuantizeLinear_Output (Conversion, QuantizeLinear)         [b:1,h:32,c:256]                                   16,384                            mul_9   |                     -16,384(-100.0%)       
------ ---------------------------------------------------------------- ------------------------- ----------------- ------------- -------------------------------- --- ------------------- ---------------------- ----------------------------------------------- 
271    mul_9_DequantizeLinear_Output (Conversion, DequantizeLinear)     [b:1,h:32,c:256]                                   16,384      mul_9_QuantizeLinear_Output   |                     -16,384(-100.0%)       
------ ---------------------------------------------------------------- ------------------------- ----------------- ------------- -------------------------------- --- ------------------- ---------------------- ----------------------------------------------- 
272    mul_10 (Eltwise, Mul)                                            [b:1,h:32,c:256]                                      256   mdl_model_layers_0..tput_const   | +256(+100.0%)                              Eltwise/mul_[86]                                
                                                                                                                                     mul_9_DequantizeLinear_Output   | 
------ ---------------------------------------------------------------- ------------------------- ----------------- ------------- -------------------------------- --- ------------------- ---------------------- ----------------------------------------------- 
273    mul_10_QuantizeLinear_Output (Conversion, QuantizeLinear)        [b:1,h:32,c:256]                                   16,384                           mul_10   |                     -16,384(-100.0%)       
------ ---------------------------------------------------------------- ------------------------- ----------------- ------------- -------------------------------- --- ------------------- ---------------------- ----------------------------------------------- 
274    mul_10_DequantizeLinear_Output (Conversion, DequantizeLinear)    [b:1,h:32,c:256]                                   16,384     mul_10_QuantizeLinear_Output   |                     -16,384(-100.0%)       
------ ---------------------------------------------------------------- ------------------------- ----------------- ------------- -------------------------------- --- ------------------- ---------------------- ----------------------------------------------- 
275    linear_4 (Gemm, MatMul)                                          [b:1,h:32,c:512]                              134,234,112   mul_10_DequantizeLinear_Output   | +133,120(+100.0%)   -130,039,296(-96.9%)   Conv2D_[87]                                     
                                                                                                                                    val_194_Dequantize..tput_const   | 
------ ---------------------------------------------------------------- ------------------------- ----------------- ------------- -------------------------------- --- ------------------- ---------------------- ----------------------------------------------- 
276    linear_5 (Gemm, MatMul)                                          [b:1,h:32,c:512]                              134,234,112   mul_10_DequantizeLinear_Output   | +133,120(+100.0%)   -130,039,296(-96.9%)   Conv2D_[90]                                     
                                                                                                                                    val_196_Dequantize..tput_const   | 
------ ---------------------------------------------------------------- ------------------------- ----------------- ------------- -------------------------------- --- ------------------- ---------------------- ----------------------------------------------- 
277    linear_4_QuantizeLinear_Output (Conversion, QuantizeLinear)      [b:1,h:32,c:512]                                   32,768                         linear_4   |                     -32,768(-100.0%)       
------ ---------------------------------------------------------------- ------------------------- ----------------- ------------- -------------------------------- --- ------------------- ---------------------- ----------------------------------------------- 
278    linear_5_QuantizeLinear_Output (Conversion, QuantizeLinear)      [b:1,h:32,c:512]                                   32,768                         linear_5   |                     -32,768(-100.0%)       
------ ---------------------------------------------------------------- ------------------------- ----------------- ------------- -------------------------------- --- ------------------- ---------------------- ----------------------------------------------- 
279    linear_4_Dequantiz..ear_Output (Conversion, DequantizeLinear)    [b:1,h:32,c:512]                                   32,768   linear_4_QuantizeLinear_Output   |                     -32,768(-100.0%)       
------ ---------------------------------------------------------------- ------------------------- ----------------- ------------- -------------------------------- --- ------------------- ---------------------- ----------------------------------------------- 
280    linear_5_Dequantiz..ear_Output (Conversion, DequantizeLinear)    [b:1,h:32,c:512]                                   32,768   linear_5_QuantizeLinear_Output   |                     -32,768(-100.0%)       
------ ---------------------------------------------------------------- ------------------------- ----------------- ------------- -------------------------------- --- ------------------- ---------------------- ----------------------------------------------- 
281    val_195 (Nonlinearity, Sigmoid)                                  [b:1,h:32,c:512]                                  163,840   linear_4_Dequantiz..ear_Output   |                     -147,456(-90.0%)       Nonlinearity_[88]                               
------ ---------------------------------------------------------------- ------------------------- ----------------- ------------- -------------------------------- --- ------------------- ---------------------- ----------------------------------------------- 
282    val_195_QuantizeLinear_Output (Conversion, QuantizeLinear)       [b:1,h:32,c:512]                                   32,768                          val_195   |                     -32,768(-100.0%)       
------ ---------------------------------------------------------------- ------------------------- ----------------- ------------- -------------------------------- --- ------------------- ---------------------- ----------------------------------------------- 
283    val_195_Dequantize..ear_Output (Conversion, DequantizeLinear)    [b:1,h:32,c:512]                                   32,768    val_195_QuantizeLinear_Output   |                     -32,768(-100.0%)       
------ ---------------------------------------------------------------- ------------------------- ----------------- ------------- -------------------------------- --- ------------------- ---------------------- ----------------------------------------------- 
284    silu (Eltwise, Mul)                                              [b:1,h:32,c:512]                                   16,384   linear_4_Dequantiz..ear_Output   |                                            Eltwise/mul_[89]                                
                                                                                                                                    val_195_Dequantize..ear_Output   | 
------ ---------------------------------------------------------------- ------------------------- ----------------- ------------- -------------------------------- --- ------------------- ---------------------- ----------------------------------------------- 
285    silu_QuantizeLinear_Output (Conversion, QuantizeLinear)          [b:1,h:32,c:512]                                   32,768                             silu   |                     -32,768(-100.0%)       
------ ---------------------------------------------------------------- ------------------------- ----------------- ------------- -------------------------------- --- ------------------- ---------------------- ----------------------------------------------- 
286    silu_DequantizeLinear_Output (Conversion, DequantizeLinear)      [b:1,h:32,c:512]                                   32,768       silu_QuantizeLinear_Output   |                     -32,768(-100.0%)       
------ ---------------------------------------------------------------- ------------------------- ----------------- ------------- -------------------------------- --- ------------------- ---------------------- ----------------------------------------------- 
287    mul_11 (Eltwise, Mul)                                            [b:1,h:32,c:512]                                   16,384     silu_DequantizeLinear_Output   |                                            Eltwise/mul_[91]                                
                                                                                                                                    linear_5_Dequantiz..ear_Output   | 
------ ---------------------------------------------------------------- ------------------------- ----------------- ------------- -------------------------------- --- ------------------- ---------------------- ----------------------------------------------- 
288    mul_11_QuantizeLinear_Output (Conversion, QuantizeLinear)        [b:1,h:32,c:512]                                   32,768                           mul_11   |                     -32,768(-100.0%)       
------ ---------------------------------------------------------------- ------------------------- ----------------- ------------- -------------------------------- --- ------------------- ---------------------- ----------------------------------------------- 
289    mul_11_DequantizeLinear_Output (Conversion, DequantizeLinear)    [b:1,h:32,c:512]                                   32,768     mul_11_QuantizeLinear_Output   |                     -32,768(-100.0%)       
------ ---------------------------------------------------------------- ------------------------- ----------------- ------------- -------------------------------- --- ------------------- ---------------------- ----------------------------------------------- 
290    linear_6 (Gemm, MatMul)                                          [b:1,h:32,c:256]                              134,225,920   mul_11_DequantizeLinear_Output   | +132,096(+100.0%)   -130,031,360(-96.9%)   Conv2D_[92]                                     
                                                                                                                                    val_197_Dequantize..tput_const   | 
------ ---------------------------------------------------------------- ------------------------- ----------------- ------------- -------------------------------- --- ------------------- ---------------------- ----------------------------------------------- 
291    linear_6_QuantizeLinear_Output (Conversion, QuantizeLinear)      [b:1,h:32,c:256]                                   16,384                         linear_6   |                     -16,384(-100.0%)       
------ ---------------------------------------------------------------- ------------------------- ----------------- ------------- -------------------------------- --- ------------------- ---------------------- ----------------------------------------------- 
292    linear_6_Dequantiz..ear_Output (Conversion, DequantizeLinear)    [b:1,h:32,c:256]                                   16,384   linear_6_QuantizeLinear_Output   |                     -16,384(-100.0%)       
------ ---------------------------------------------------------------- ------------------------- ----------------- ------------- -------------------------------- --- ------------------- ---------------------- ----------------------------------------------- 
293    add_9 (Eltwise, Add)                                             [b:1,h:32,c:256]                                    8,192    add_7_DequantizeLinear_Output   |                     +16,384(+200.0%)       Eltwise/add_/Conversion_[93, 94]                
                                                                                                                                    linear_6_Dequantiz..ear_Output   | 
------ ---------------------------------------------------------------- ------------------------- ----------------- ------------- -------------------------------- --- ------------------- ---------------------- ----------------------------------------------- 
294    add_9_QuantizeLinear_Output (Conversion, QuantizeLinear)         [b:1,h:32,c:256]                                   16,384                            add_9   |                     -16,384(-100.0%)       
------ ---------------------------------------------------------------- ------------------------- ----------------- ------------- -------------------------------- --- ------------------- ---------------------- ----------------------------------------------- 
295    add_9_DequantizeLinear_Output (Conversion, DequantizeLinear)     [b:1,h:32,c:256]                                   16,384      add_9_QuantizeLinear_Output   |                     -16,384(-100.0%)       
------ ---------------------------------------------------------------- ------------------------- ----------------- ------------- -------------------------------- --- ------------------- ---------------------- ----------------------------------------------- 
296    pow_3 (Eltwise, Pow)                                             [b:1,h:32,c:256]                                   81,920    add_9_DequantizeLinear_Output   | +4(+100.0%)                                Eltwise/pow_[95]                                
                                                                                                                                                            val_60   | 
------ ---------------------------------------------------------------- ------------------------- ----------------- ------------- -------------------------------- --- ------------------- ---------------------- ----------------------------------------------- 
297    mean_2 (Reduce, ReduceMean)                                      [b:1,h:32,c:1]                                     16,384                            pow_3   | +8(+100.0%)         -8,064(-49.2%)         Reduce_/ScaleBias_/Conversion_[96, 97, 98]      
------ ---------------------------------------------------------------- ------------------------- ----------------- ------------- -------------------------------- --- ------------------- ---------------------- ----------------------------------------------- 
298    mean_2_QuantizeLinear_Output (Conversion, QuantizeLinear)        [b:1,h:32,c:1]                                         64                           mean_2   |                     -64(-100.0%)           
------ ---------------------------------------------------------------- ------------------------- ----------------- ------------- -------------------------------- --- ------------------- ---------------------- ----------------------------------------------- 
299    mean_2_DequantizeLinear_Output (Conversion, DequantizeLinear)    [b:1,h:32,c:1]                                         64     mean_2_QuantizeLinear_Output   |                     -64(-100.0%)           
------ ---------------------------------------------------------------- ------------------------- ----------------- ------------- -------------------------------- --- ------------------- ---------------------- ----------------------------------------------- 
300    add_10 (Eltwise, Add)                                            [b:1,h:32,c:1]                                         32   mean_2_DequantizeLinear_Output   | +1(+100.0%)         +64(+200.0%)           Eltwise/add_/Conversion_[99, 100]               
                                                                                                                                    val_63_DequantizeL..tput_const   | 
------ ---------------------------------------------------------------- ------------------------- ----------------- ------------- -------------------------------- --- ------------------- ---------------------- ----------------------------------------------- 
301    add_10_QuantizeLinear_Output (Conversion, QuantizeLinear)        [b:1,h:32,c:1]                                         64                           add_10   |                     -64(-100.0%)           
------ ---------------------------------------------------------------- ------------------------- ----------------- ------------- -------------------------------- --- ------------------- ---------------------- ----------------------------------------------- 
302    add_10_DequantizeLinear_Output (Conversion, DequantizeLinear)    [b:1,h:32,c:1]                                         64     add_10_QuantizeLinear_Output   |                     -64(-100.0%)           
------ ---------------------------------------------------------------- ------------------------- ----------------- ------------- -------------------------------- --- ------------------- ---------------------- ----------------------------------------------- 
303    val_201 (Nonlinearity, Sqrt)                                     [b:1,h:32,c:1]                                        384   add_10_DequantizeLinear_Output   |                                            Nonlinearity_[101]                              
------ ---------------------------------------------------------------- ------------------------- ----------------- ------------- -------------------------------- --- ------------------- ---------------------- ----------------------------------------------- 
304    rsqrt_2 (Nonlinearity, Reciprocal)                               [b:1,h:32,c:1]                                        160                          val_201   |                     +64(+40.0%)            Nonlinearity_/Conversion_[102, 103]             
------ ---------------------------------------------------------------- ------------------------- ----------------- ------------- -------------------------------- --- ------------------- ---------------------- ----------------------------------------------- 
305    rsqrt_2_QuantizeLinear_Output (Conversion, QuantizeLinear)       [b:1,h:32,c:1]                                         64                          rsqrt_2   |                     -64(-100.0%)           
------ ---------------------------------------------------------------- ------------------------- ----------------- ------------- -------------------------------- --- ------------------- ---------------------- ----------------------------------------------- 
306    rsqrt_2_Dequantize..ear_Output (Conversion, DequantizeLinear)    [b:1,h:32,c:1]                                         64    rsqrt_2_QuantizeLinear_Output   |                     -64(-100.0%)           
------ ---------------------------------------------------------------- ------------------------- ----------------- ------------- -------------------------------- --- ------------------- ---------------------- ----------------------------------------------- 
307    mul_12 (Eltwise, Mul)                                            [b:1,h:32,c:256]                                    8,192    add_9_DequantizeLinear_Output   |                                            Eltwise/mul_[104]                               
                                                                                                                                    rsqrt_2_Dequantize..ear_Output   | 
------ ---------------------------------------------------------------- ------------------------- ----------------- ------------- -------------------------------- --- ------------------- ---------------------- ----------------------------------------------- 
308    mul_12_QuantizeLinear_Output (Conversion, QuantizeLinear)        [b:1,h:32,c:256]                                   16,384                           mul_12   |                     -16,384(-100.0%)       
------ ---------------------------------------------------------------- ------------------------- ----------------- ------------- -------------------------------- --- ------------------- ---------------------- ----------------------------------------------- 
309    mul_12_DequantizeLinear_Output (Conversion, DequantizeLinear)    [b:1,h:32,c:256]                                   16,384     mul_12_QuantizeLinear_Output   |                     -16,384(-100.0%)       
------ ---------------------------------------------------------------- ------------------------- ----------------- ------------- -------------------------------- --- ------------------- ---------------------- ----------------------------------------------- 
310    mul_13 (Eltwise, Mul)                                            [b:1,h:32,c:256]                                      256   mdl_model_layers_1..tput_const   | +256(+100.0%)                              Eltwise/mul_[105]                               
                                                                                                                                    mul_12_DequantizeLinear_Output   | 
------ ---------------------------------------------------------------- ------------------------- ----------------- ------------- -------------------------------- --- ------------------- ---------------------- ----------------------------------------------- 
311    mul_13_QuantizeLinear_Output (Conversion, QuantizeLinear)        [b:1,h:32,c:256]                                   16,384                           mul_13   |                     -16,384(-100.0%)       
------ ---------------------------------------------------------------- ------------------------- ----------------- ------------- -------------------------------- --- ------------------- ---------------------- ----------------------------------------------- 
312    mul_13_DequantizeLinear_Output (Conversion, DequantizeLinear)    [b:1,h:32,c:256]                                   16,384     mul_13_QuantizeLinear_Output   |                     -16,384(-100.0%)       
------ ---------------------------------------------------------------- ------------------------- ----------------- ------------- -------------------------------- --- ------------------- ---------------------- ----------------------------------------------- 
313    val_203 (Gemm, MatMul)                                           [b:1,h:32,c:256]                               67,117,056   mul_13_DequantizeLinear_Output   | +66,560(+100.0%)    -65,019,648(-96.9%)    Conv2D_[106]                                    
                                                                                                                                    val_202_Dequantize..tput_const   | 
------ ---------------------------------------------------------------- ------------------------- ----------------- ------------- -------------------------------- --- ------------------- ---------------------- ----------------------------------------------- 
314    val_211 (Gemm, MatMul)                                           [b:1,h:32,c:128]                               33,558,528   mul_13_DequantizeLinear_Output   | +33,280(+100.0%)    -32,509,824(-96.9%)    Conv2D_[118]                                    
                                                                                                                                    val_210_Dequantize..tput_const   | 
------ ---------------------------------------------------------------- ------------------------- ----------------- ------------- -------------------------------- --- ------------------- ---------------------- ----------------------------------------------- 
315    val_219 (Gemm, MatMul)                                           [b:1,h:32,c:128]                               33,558,528   mul_13_DequantizeLinear_Output   | +33,280(+100.0%)    -32,509,824(-96.9%)    Conv2D_[137]                                    
                                                                                                                                    val_218_Dequantize..tput_const   | 
------ ---------------------------------------------------------------- ------------------------- ----------------- ------------- -------------------------------- --- ------------------- ---------------------- ----------------------------------------------- 
316    val_203_QuantizeLinear_Output (Conversion, QuantizeLinear)       [b:1,h:32,c:256]                                   16,384                          val_203   |                     -16,384(-100.0%)       
------ ---------------------------------------------------------------- ------------------------- ----------------- ------------- -------------------------------- --- ------------------- ---------------------- ----------------------------------------------- 
317    val_211_QuantizeLinear_Output (Conversion, QuantizeLinear)       [b:1,h:32,c:128]                                    8,192                          val_211   |                     -8,192(-100.0%)        
------ ---------------------------------------------------------------- ------------------------- ----------------- ------------- -------------------------------- --- ------------------- ---------------------- ----------------------------------------------- 
318    val_219_QuantizeLinear_Output (Conversion, QuantizeLinear)       [b:1,h:32,c:128]                                    8,192                          val_219   |                     -8,192(-100.0%)        
------ ---------------------------------------------------------------- ------------------------- ----------------- ------------- -------------------------------- --- ------------------- ---------------------- ----------------------------------------------- 
319    val_203_Dequantize..ear_Output (Conversion, DequantizeLinear)    [b:1,h:32,c:256]                                   16,384    val_203_QuantizeLinear_Output   |                     -16,384(-100.0%)       
------ ---------------------------------------------------------------- ------------------------- ----------------- ------------- -------------------------------- --- ------------------- ---------------------- ----------------------------------------------- 
320    val_211_Dequantize..ear_Output (Conversion, DequantizeLinear)    [b:1,h:32,c:128]                                    8,192    val_211_QuantizeLinear_Output   |                     -8,192(-100.0%)        
------ ---------------------------------------------------------------- ------------------------- ----------------- ------------- -------------------------------- --- ------------------- ---------------------- ----------------------------------------------- 
321    val_219_Dequantize..ear_Output (Conversion, DequantizeLinear)    [b:1,h:32,c:128]                                    8,192    val_219_QuantizeLinear_Output   |                     -8,192(-100.0%)        
------ ---------------------------------------------------------------- ------------------------- ----------------- ------------- -------------------------------- --- ------------------- ---------------------- ----------------------------------------------- 
322    linear_7 (Eltwise, Add)                                          [b:1,h:32,c:256]                                    8,192   val_203_Dequantize..ear_Output   | +256(+100.0%)                              Eltwise/add_[107]                               
                                                                                                                                    mdl_model_layers_1..tput_const   | 
------ ---------------------------------------------------------------- ------------------------- ----------------- ------------- -------------------------------- --- ------------------- ---------------------- ----------------------------------------------- 
323    linear_8 (Eltwise, Add)                                          [b:1,h:32,c:128]                                    4,096   val_211_Dequantize..ear_Output   | +128(+100.0%)                              Eltwise/add_[119]                               
                                                                                                                                    mdl_model_layers_1..tput_const   | 
------ ---------------------------------------------------------------- ------------------------- ----------------- ------------- -------------------------------- --- ------------------- ---------------------- ----------------------------------------------- 
324    linear_9 (Eltwise, Add)                                          [b:1,h:32,c:128]                                    4,096   val_219_Dequantize..ear_Output   | +128(+100.0%)                              Eltwise/add_[138]                               
                                                                                                                                    mdl_model_layers_1..tput_const   | 
------ ---------------------------------------------------------------- ------------------------- ----------------- ------------- -------------------------------- --- ------------------- ---------------------- ----------------------------------------------- 
325    linear_7_QuantizeLinear_Output (Conversion, QuantizeLinear)      [b:1,h:32,c:256]                                   16,384                         linear_7   |                     -16,384(-100.0%)       
------ ---------------------------------------------------------------- ------------------------- ----------------- ------------- -------------------------------- --- ------------------- ---------------------- ----------------------------------------------- 
326    linear_8_QuantizeLinear_Output (Conversion, QuantizeLinear)      [b:1,h:32,c:128]                                    8,192                         linear_8   |                     -8,192(-100.0%)        
------ ---------------------------------------------------------------- ------------------------- ----------------- ------------- -------------------------------- --- ------------------- ---------------------- ----------------------------------------------- 
327    linear_9_QuantizeLinear_Output (Conversion, QuantizeLinear)      [b:1,h:32,c:128]                                    8,192                         linear_9   |                     -8,192(-100.0%)        
------ ---------------------------------------------------------------- ------------------------- ----------------- ------------- -------------------------------- --- ------------------- ---------------------- ----------------------------------------------- 
328    linear_7_Dequantiz..ear_Output (Conversion, DequantizeLinear)    [b:1,h:32,c:256]                                   16,384   linear_7_QuantizeLinear_Output   |                     -16,384(-100.0%)       
------ ---------------------------------------------------------------- ------------------------- ----------------- ------------- -------------------------------- --- ------------------- ---------------------- ----------------------------------------------- 
329    linear_8_Dequantiz..ear_Output (Conversion, DequantizeLinear)    [b:1,h:32,c:128]                                    8,192   linear_8_QuantizeLinear_Output   |                     -8,192(-100.0%)        
------ ---------------------------------------------------------------- ------------------------- ----------------- ------------- -------------------------------- --- ------------------- ---------------------- ----------------------------------------------- 
330    linear_9_Dequantiz..ear_Output (Conversion, DequantizeLinear)    [b:1,h:32,c:128]                                    8,192   linear_9_QuantizeLinear_Output   |                     -8,192(-100.0%)        
------ ---------------------------------------------------------------- ------------------------- ----------------- ------------- -------------------------------- --- ------------------- ---------------------- ----------------------------------------------- 
331    view_10 (Reshape, Reshape)                                       [b:1,h:32,w:4,c:64]                                         linear_7_Dequantiz..ear_Output   |                                            
------ ---------------------------------------------------------------- ------------------------- ----------------- ------------- -------------------------------- --- ------------------- ---------------------- ----------------------------------------------- 
332    view_11 (Reshape, Reshape)                                       [b:1,h:32,w:2,c:64]                                         linear_8_Dequantiz..ear_Output   |                                            
------ ---------------------------------------------------------------- ------------------------- ----------------- ------------- -------------------------------- --- ------------------- ---------------------- ----------------------------------------------- 
333    view_12 (Reshape, Reshape)                                       [b:1,h:32,w:2,c:64]                                         linear_9_Dequantiz..ear_Output   |                                            
------ ---------------------------------------------------------------- ------------------------- ----------------- ------------- -------------------------------- --- ------------------- ---------------------- ----------------------------------------------- 
334    view_10_QuantizeLinear_Output (Conversion, QuantizeLinear)       [b:1,h:32,w:4,c:64]                                16,384                          view_10   |                     -16,384(-100.0%)       
------ ---------------------------------------------------------------- ------------------------- ----------------- ------------- -------------------------------- --- ------------------- ---------------------- ----------------------------------------------- 
335    view_11_QuantizeLinear_Output (Conversion, QuantizeLinear)       [b:1,h:32,w:2,c:64]                                 8,192                          view_11   |                     -8,192(-100.0%)        
------ ---------------------------------------------------------------- ------------------------- ----------------- ------------- -------------------------------- --- ------------------- ---------------------- ----------------------------------------------- 
336    view_12_QuantizeLinear_Output (Conversion, QuantizeLinear)       [b:1,h:32,w:2,c:64]                                 8,192                          view_12   |                     -8,192(-100.0%)        
…
------ ----------------------------------------------------------- ----- --------------- ---------- -------- ----------------------------------------------------------------------------------------- ------------------------- 
161    silu_1                                                      466   Eltwise/mul     16384      0        I: linear_11_output                                                                       int8(1x32x1x512) (50)     
                                                                                                             I: val_328_output                                                                         int8(1x32x1x512) (50)     
                                                                                                             O: silu_1_output                                                                          int8(1x32x512) (159)      
------ ----------------------------------------------------------- ----- --------------- ---------- -------- ----------------------------------------------------------------------------------------- ------------------------- 
162    linear_12                                                   458   Conv2D          4194816    133120   I: mul_19_output                                                                          int8(1x32x256) (120)      
                                                                                                             S: linear_12_scratch0                                                                                               
                                                                                                             W: linear_12_weights                                                                      int8(512x1x1x256) (55)    
                                                                                                             W: linear_4_bias                                                                          int32(512) (64)           
                                                                                                             O: linear_12_output                                                                       int8(1x32x1x512) (53)     
------ ----------------------------------------------------------- ----- --------------- ---------- -------- ----------------------------------------------------------------------------------------- ------------------------- 
163    mul_20                                                      469   Eltwise/mul     16384      0        I: silu_1_output                                                                          int8(1x32x512) (159)      
                                                                                                             I: linear_12_output                                                                       int8(1x32x512) (159)      
                                                                                                             O: mul_20_output                                                                          int8(1x32x512) (121)      
------ ----------------------------------------------------------- ----- --------------- ---------- -------- ----------------------------------------------------------------------------------------- ------------------------- 
164    linear_13                                                   472   Conv2D          4194560    132096   I: mul_20_output                                                                          int8(1x32x512) (121)      
                                                                                                             S: linear_13_scratch0                                                                                               
                                                                                                             W: linear_13_weights                                                                      int8(256x1x1x512) (58)    
                                                                                                             W: val_66_bias                                                                            int32(256) (228)          
                                                                                                             O: linear_13_output                                                                       int8(1x32x1x256) (56)     
------ ----------------------------------------------------------- ----- --------------- ---------- -------- ----------------------------------------------------------------------------------------- ------------------------- 
165    add_15                                                      475   Eltwise/add     8192       0        I: add_13_output                                                                          int8(1x32x256) (12)       
                                                                                                             I: linear_13_output                                                                       int8(1x32x256) (12)       
                                                                                                             O: add_15_output                                                                          int8(1x32x256) (16)       
------ ----------------------------------------------------------- ----- --------------- ---------- -------- ----------------------------------------------------------------------------------------- ------------------------- 
166    add_15_0_0_pow_5_conversion                                 475   Conversion      16384      0        I: add_15_output                                                                          int8(1x32x256) (16)       
                                                                                                             O: add_15_0_0_pow_5_conversion_output                                                     f32(1x32x256) (15)        
------ ----------------------------------------------------------- ----- --------------- ---------- -------- ----------------------------------------------------------------------------------------- ------------------------- 
167    pow_5                                                       478   Eltwise/pow     81920      4        I: add_15_0_0_pow_5_conversion_output                                                     f32(1x32x256) (15)        
                                                                                                             W: val_60_3D                                                                              f32(1x1) (225)            
                                                                                                             O: pow_5_output                                                                           f32(1x32x256) (140)       
------ ----------------------------------------------------------- ----- --------------- ---------- -------- ----------------------------------------------------------------------------------------- ------------------------- 
168    mean_4                                                      479   Reduce          8192       0        I: pow_5_output                                                                           f32(1x32x256) (140)       
                                                                                                             O: mean_4_output                                                                          f32(1x32x1) (105)         
------ ----------------------------------------------------------- ----- --------------- ---------- -------- ----------------------------------------------------------------------------------------- ------------------------- 
169    mean_4_Mul                                                  479   ScaleBias       64         8        I: mean_4_output                                                                          f32(1x32x1) (105)         
                                                                                                             W: mean_Mul_scale                                                                         f32(1) (109)              
                                                                                                             W: mean_Mul_bias                                                                          f32(1) (107)              
                                                                                                             O: mean_4_Mul_output                                                                      f32(1x32x1) (104)         
------ ----------------------------------------------------------- ----- --------------- ---------- -------- ----------------------------------------------------------------------------------------- ------------------------- 
170    mean_4_Mul_0_0_add_16_conversion                            479   Conversion      64         0        I: mean_4_Mul_output                                                                      f32(1x32x1) (104)         
                                                                                                             O: mean_4_Mul_0_0_add_16_conversion_output                                                int8(1x32x1) (103)        
------ ----------------------------------------------------------- ----- --------------- ---------- -------- ----------------------------------------------------------------------------------------- ------------------------- 
171    add_16                                                      482   Eltwise/add     32         1        I: mean_4_Mul_0_0_add_16_conversion_output                                                int8(1x32x1) (103)        
                                                                                                             W: val_63_DequantizeLinear_Output_const_3D                                                int8(1x1) (226)           
                                                                                                             O: add_16_output                                                                          int8(1x32x1) (18)         
------ ----------------------------------------------------------- ----- --------------- ---------- -------- ----------------------------------------------------------------------------------------- ------------------------- 
172    add_16_0_0_val_334_conversion                               482   Conversion      64         0        I: add_16_output                                                                          int8(1x32x1) (18)         
                                                                                                             O: add_16_0_0_val_334_conversion_output                                                   f32(1x32x1) (17)          
------ ----------------------------------------------------------- ----- --------------- ---------- -------- ----------------------------------------------------------------------------------------- ------------------------- 
173    val_334                                                     485   Nonlinearity    384        0        I: add_16_0_0_val_334_conversion_output                                                   f32(1x32x1) (17)          
                                                                                                             O: val_334_output                                                                         f32(1x32x1) (221)         
------ ----------------------------------------------------------- ----- --------------- ---------- -------- ----------------------------------------------------------------------------------------- ------------------------- 
174    rsqrt_4                                                     486   Nonlinearity    160        0        I: val_334_output                                                                         f32(1x32x1) (221)         
                                                                                                             O: rsqrt_4_output                                                                         f32(1x32x1) (149)         
------ ----------------------------------------------------------- ----- --------------- ---------- -------- ----------------------------------------------------------------------------------------- ------------------------- 
175    rsqrt_4_0_1_mul_21_conversion                               486   Conversion      64         0        I: rsqrt_4_output                                                                         f32(1x32x1) (149)         
                                                                                                             O: rsqrt_4_0_1_mul_21_conversion_output                                                   int8(1x32x1) (148)        
------ ----------------------------------------------------------- ----- --------------- ---------- -------- ----------------------------------------------------------------------------------------- ------------------------- 
176    mul_21                                                      489   Eltwise/mul     8192       0        I: add_15_output                                                                          int8(1x32x256) (16)       
                                                                                                             I: rsqrt_4_0_1_mul_21_conversion_output                                                   int8(1x32x256) (16)       
                                                                                                             O: mul_21_output                                                                          int8(1x32x256) (122)      
------ ----------------------------------------------------------- ----- --------------- ---------- -------- ----------------------------------------------------------------------------------------- ------------------------- 
177    mul_22                                                      492   Eltwise/mul     256        256      I: mul_21_output                                                                          int8(1x32x256) (122)      
                                                                                                             W: mdl_model_norm_weight_DequantizeLinear_Output_const_3D                                 int8(1x256) (93)          
                                                                                                             O: mul_22_output                                                                          int8(1x32x256) (123)      
------ ----------------------------------------------------------- ----- --------------- ---------- -------- ----------------------------------------------------------------------------------------- ------------------------- 
178    logits_QuantizeLinear_Input                                 495   Conv2D          3064182    97240    I: mul_22_output                                                                          int8(1x32x256) (123)      
                                                                                                             S: logits_QuantizeLinear_Input_scratch0                                                                             
                                                                                                             W: logits_QuantizeLinear_Input_weights                                                    int8(374x1x1x256) (81)    
                                                                                                             W: logits_QuantizeLinear_Input_bias                                                       int32(374) (78)           
                                                                                                             O: logits_QuantizeLinear_Input_output                                                     int8(1x32x1x374) (79)     
------ ----------------------------------------------------------- ----- --------------- ---------- -------- ----------------------------------------------------------------------------------------- ------------------------- 



Number of operations per c-layer
------- ------ ---------------------------------------------- ------------- -------------- 
c_id    m_id   name (type)                                              #op           type 
------- ------ ---------------------------------------------- ------------- -------------- 
0       425    scaled_dot_product..conversion (Conversion)                2     smul_s8_s8 
1       413    val_312_bias_0_2_v..conversion (Conversion)                2     smul_s8_s8 
2       243    scaled_dot_product..conversion (Conversion)                2     smul_s8_s8 
3       231    val_179_bias_0_2_v..conversion (Conversion)                2     smul_s8_s8 
4       132    val_74_bias_0_2_va..conversion (Conversion)                2     smul_s8_s8 
5       133    val_82_bias_0_2_va..conversion (Conversion)                2     smul_s8_s8 
6       94     val_73_DequantizeL..conversion (Conversion)           65,536     smul_s8_s8 
7       95     val_81_DequantizeL..conversion (Conversion)           65,536     smul_s8_s8 
8       40     _to_copy (Cast)                                           64   smul_s32_f32 
9       55     __ids_floored (Eltwise/max)                               32     op_s32_s32 
10      76     input_ids_clipped (Eltwise/min)                           32     op_s32_s32 
11      97     embedding (Gather)                                         0    smul_s32_s8 
12      97     embedding_0_0_pow_1_conversion (Conversion)           16,384    smul_s8_f32 
13      103    pow_1 (Eltwise/pow)                                   81,920     op_f32_f32 
14      105    mean (Reduce)                                          8,192   smul_f32_f32 
15      105    mean_Mul (ScaleBias)                                      64   smul_f32_f32 
16      105    mean_Mul_0_0_add_4_conversion (Conversion)                64    smul_f32_s8 
17      111    add_4 (Eltwise/add)                                       32       op_s8_s8 
18      111    add_4_0_0_val_64_conversion (Conversion)                  64    smul_s8_f32 
19      117    val_64 (Nonlinearity)                                    384     op_f32_f32 
20      119    rsqrt (Nonlinearity)                                     160     op_f32_f32 
21      119    rsqrt_0_1_mul_3_conversion (Conversion)                   64    smul_f32_s8 
22      125    mul_3 (Eltwise/mul)                                    8,192       op_s8_s8 
23      128    mul_4 (Eltwise/mul)                                      256       op_s8_s8 
24      128    mul_4_0_0_val_74_conversion (Conversion)              16,384    smul_s8_f32 
25      133    val_82 (Gemm)                                     33,558,528   smul_f32_f32 
26      133    val_82_0_0_linear_2_conversion (Conversion)            8,192    smul_f32_s8 
27      142    linear_2 (Eltwise/add)                                 4,096       op_s8_s8 
28      160    transpose_3 (Transpose)                                2,048     smul_s8_s8 
29      190    expand_4 (Tile)                                            0     smul_s8_s8 
30      190    expand_4_0_1_scale..conversion (Conversion)           16,384    smul_s8_f32 
31      132    val_74 (Gemm)                                     33,558,528   smul_f32_f32 
32      132    val_74_0_0_linear_1_conversion (Conversion)            8,192    smul_f32_s8 
33      141    linear_1 (Eltwise/add)                                 4,096       op_s8_s8 
34      159    transpose_2 (Transpose)                                2,048     smul_s8_s8 
35      172    slice_4 (Slice)                                            0     smul_s8_s8 
36      189    neg_1 (Nonlinearity)                                   2,048       op_s8_s8 
37      171    slice_3 (Slice)                                            0     smul_s8_s8 
38      198    cat_2 (Concat)                                             0     smul_s8_s8 
39      205    mul_8 (Eltwise/mul)                                    4,096       op_s8_s8 
40      170    mul_7 (Eltwise/mul)                                    4,096       op_s8_s8 
41      211    add_6 (Eltwise/add)                                    4,096       op_s8_s8 
42      222    expand_3 (Tile)                                            0     smul_s8_s8 
43      224    val_169 (Transpose)                                    4,096     smul_s8_s8 
44      228    val_175 (Eltwise/mul)                                  8,192       op_s8_s8 
45      228    val_175_0_1_val_179_conversion (Conversion)           16,384    smul_s8_f32 
46      131    val_66 (Conv2D)                                    2,097,408     smul_s8_s8 
47      140    linear (Eltwise/add)                                   8,192       op_s8_s8 
48      158    transpose_1 (Transpose)                                4,096     smul_s8_s8 
49      169    slice_2 (Slice)                                            0     smul_s8_s8 
50      188    neg (Nonlinearity)                                     4,096       op_s8_s8 
51      168    slice_1 (Slice)                                            0     smul_s8_s8 
52      197    cat_1 (Concat)                                             0     smul_s8_s8 
53      204    mul_6 (Eltwise/mul)                                    8,192       op_s8_s8 
54      167    mul_5 (Eltwise/mul)                                    8,192       op_s8_s8 
55      210    add_5 (Eltwise/add)                                    8,192       op_s8_s8 
56      216    val_173 (Eltwise/mul)                                  8,192       op_s8_s8 
57      216    val_173_0_0_val_179_conversion (Conversion)           16,384    smul_s8_f32 
58      231    val_179 (Gemm)                                    33,558,528   smul_f32_f32 
59      231    val_179_0_0_val_180_conversion (Conversion)            8,192    smul_f32_s8 
60      75     val_35 (GatherND)                                          0   smul_f32_s32 
61      75     val_35_0_1_bitwise..conversion (Conversion)               64    smul_f32_s8 
62      102    bitwise_and_1 (Eltwise/mul)                            1,024       op_s8_s8 
63      102    bitwise_and_1_0_1_..conversion (Conversion)            2,048    smul_s8_f32 
64      114    __bool_fix_inv (Eltwise/sub)                               1     op_f32_f32 
65      114    __bool_fix_inv_0_0..conversion (Conversion)            2,048    smul_f32_s8 
66      120    val_178 (Eltwise/mul)                                  1,024       op_s8_s8 
67      234    val_180 (Eltwise/add)                                  4,096       op_s8_s8 
68      234    val_180_0_0_val_181_conversion (Conversion)            8,192    smul_s8_f32 
69      237    val_181 (Nonlinearity)                                61,440     op_f32_f32 
70      243    scaled_dot_product_attention (Gemm)               33,562,624   smul_f32_f32 
71      243    scaled_dot_product..conversion (Conversion)           16,384    smul_f32_s8 
72      246    transpose_4 (Transpose)                                4,096     smul_s8_s8 
73      252    linear_3 (Conv2D)                                  2,097,408     smul_s8_s8 
74      255    add_7 (Eltwise/add)                                    8,192       op_s8_s8 
75      255    add_7_0_0_pow_2_conversion (Conversion)               16,384    smul_s8_f32 
76      258    pow_2 (Eltwise/pow)                                   81,920     op_f32_f32 
77      259    mean_1 (Reduce)                                        8,192   smul_f32_f32 
78      259    mean_1_Mul (ScaleBias)                                    64   smul_f32_f32 
79      259    mean_1_Mul_0_0_add..conversion (Conversion)               64    smul_f32_s8 
80      262    add_8 (Eltwise/add)                                       32       op_s8_s8 
81      262    add_8_0_0_val_193_conversion (Conversion)                 64    smul_s8_f32 
82      265    val_193 (Nonlinearity)                                   384     op_f32_f32 
83      266    rsqrt_1 (Nonlinearity)                                   160     op_f32_f32 
84      266    rsqrt_1_0_1_mul_9_conversion (Conversion)                 64    smul_f32_s8 
85      269    mul_9 (Eltwise/mul)                                    8,192       op_s8_s8 
86      272    mul_10 (Eltwise/mul)                                     256       op_s8_s8 
87      275    linear_4 (Conv2D)                                  4,194,816     smul_s8_s8 
88      281    val_195 (Nonlinearity)                                16,384       op_s8_s8 
89      284    silu (Eltwise/mul)                                    16,384       op_s8_s8 
90      276    linear_5 (Conv2D)                                  4,194,816     smul_s8_s8 
91      287    mul_11 (Eltwise/mul)                                  16,384       op_s8_s8 
92      290    linear_6 (Conv2D)                                  4,194,560     smul_s8_s8 
93      293    add_9 (Eltwise/add)                                    8,192       op_s8_s8 
94      293    add_9_0_0_pow_3_conversion (Conversion)               16,384    smul_s8_f32 
95      296    pow_3 (Eltwise/pow)                                   81,920     op_f32_f32 
96      297    mean_2 (Reduce)                                        8,192   smul_f32_f32 
97      297    mean_2_Mul (ScaleBias)                                    64   smul_f32_f32 
98      297    mean_2_Mul_0_0_add..conversion (Conversion)               64    smul_f32_s8 
99      300    add_10 (Eltwise/add)                                      32       op_s8_s8 
100     300    add_10_0_0_val_201_conversion (Conversion)                64    smul_s8_f32 
101     303    val_201 (Nonlinearity)                                   384     op_f32_f32 
102     304    rsqrt_2 (Nonlinearity)                                   160     op_f32_f32 
103     304    rsqrt_2_0_1_mul_12_conversion (Conversion)                64    smul_f32_s8 
104     307    mul_12 (Eltwise/mul)                                   8,192       op_s8_s8 
105     310    mul_13 (Eltwise/mul)                                     256       op_s8_s8 
106     313    val_203 (Conv2D)                                   2,097,408     smul_s8_s8 
107     322    linear_7 (Eltwise/add)                                 8,192       op_s8_s8 
108     340    transpose_5 (Transpose)                                4,096     smul_s8_s8 
109     351    slice_6 (Slice)                                            0     smul_s8_s8 
110     370    neg_2 (Nonlinearity)                                   4,096       op_s8_s8 
111     350    slice_5 (Slice)                                            0     smul_s8_s8 
112     379    cat_3 (Concat)                                             0     smul_s8_s8 
113     386    mul_15 (Eltwise/mul)                                   8,192       op_s8_s8 
114     349    mul_14 (Eltwise/mul)                                   8,192       op_s8_s8 
115     392    add_11 (Eltwise/add)                                   8,192       op_s8_s8 
116     398    val_306 (Eltwise/mul)                                  8,192       op_s8_s8 
117     398    val_306_0_0_val_312_conversion (Conversion)           16,384    smul_s8_f32 
118     314    val_211 (Conv2D)                                   1,048,704     smul_s8_s8 
119     323    linear_8 (Eltwise/add)                                 4,096       op_s8_s8 
120     341    transpose_6 (Transpose)                                2,048     smul_s8_s8 
121     354    slice_8 (Slice)                                            0     smul_s8_s8 
122     371    neg_3 (Nonlinearity)                                   2,048       op_s8_s8 
123     353    slice_7 (Slice)                                            0     smul_s8_s8 
124     380    cat_4 (Concat)                                             0     smul_s8_s8 
125     387    mul_17 (Eltwise/mul)                                   4,096       op_s8_s8 
126     352    mul_16 (Eltwise/mul)                                   4,096       op_s8_s8 
127     393    add_12 (Eltwise/add)                                   4,096       op_s8_s8 
128     404    expand_5 (Tile)                                            0     smul_s8_s8 
129     406    val_302 (Transpose)                                    4,096     smul_s8_s8 
130     410    val_308 (Eltwise/mul)                                  8,192       op_s8_s8 
131     410    val_308_0_1_val_312_conversion (Conversion)           16,384    smul_s8_f32 
132     413    val_312 (Gemm)                                    33,558,528   smul_f32_f32 
133     413    val_312_0_0_val_313_conversion (Conversion)            8,192    smul_f32_s8 
134     416    val_313 (Eltwise/add)                                  4,096       op_s8_s8 
135     416    val_313_0_0_val_314_conversion (Conversion)            8,192    smul_s8_f32 
136     419    val_314 (Nonlinearity)                                61,440     op_f32_f32 
137     315    val_219 (Conv2D)                                   1,048,704     smul_s8_s8 
138     324    linear_9 (Eltwise/add)                                 4,096       op_s8_s8 
139     342    transpose_7 (Transpose)                                2,048     smul_s8_s8 
140     372    expand_6 (Tile)                                            0     smul_s8_s8 
141     372    expand_6_0_1_scale..conversion (Conversion)           16,384    smul_s8_f32 
142     425    scaled_dot_product_attention_1 (Gemm)             33,562,624   smul_f32_f32 
143     425    scaled_dot_product..conversion (Conversion)           16,384    smul_f32_s8 
144     428    transpose_8 (Transpose)                                4,096     smul_s8_s8 
145     434    linear_10 (Conv2D)                                 2,097,408     smul_s8_s8 
146     437    add_13 (Eltwise/add)                                   8,192       op_s8_s8 
147     437    add_13_0_0_pow_4_conversion (Conversion)              16,384    smul_s8_f32 
148     440    pow_4 (Eltwise/pow)                                   81,920     op_f32_f32 
149     441    mean_3 (Reduce)                                        8,192   smul_f32_f32 
150     441    mean_3_Mul (ScaleBias)                                    64   smul_f32_f32 
151     441    mean_3_Mul_0_0_add..conversion (Conversion)               64    smul_f32_s8 
152     444    add_14 (Eltwise/add)                                      32       op_s8_s8 
153     444    add_14_0_0_val_326_conversion (Conversion)                64    smul_s8_f32 
154     447    val_326 (Nonlinearity)                                   384     op_f32_f32 
155     448    rsqrt_3 (Nonlinearity)                                   160     op_f32_f32 
156     448    rsqrt_3_0_1_mul_18_conversion (Conversion)                64    smul_f32_s8 
157     451    mul_18 (Eltwise/mul)                                   8,192       op_s8_s8 
158     454    mul_19 (Eltwise/mul)                                     256       op_s8_s8 
159     457    linear_11 (Conv2D)                                 4,194,816     smul_s8_s8 
160     463    val_328 (Nonlinearity)                                16,384       op_s8_s8 
161     466    silu_1 (Eltwise/mul)                                  16,384       op_s8_s8 
162     458    linear_12 (Conv2D)                                 4,194,816     smul_s8_s8 
163     469    mul_20 (Eltwise/mul)                                  16,384       op_s8_s8 
164     472    linear_13 (Conv2D)                                 4,194,560     smul_s8_s8 
165     475    add_15 (Eltwise/add)                                   8,192       op_s8_s8 
166     475    add_15_0_0_pow_5_conversion (Conversion)              16,384    smul_s8_f32 
167     478    pow_5 (Eltwise/pow)                                   81,920     op_f32_f32 
168     479    mean_4 (Reduce)                                        8,192   smul_f32_f32 
169     479    mean_4_Mul (ScaleBias)                                    64   smul_f32_f32 
170     479    mean_4_Mul_0_0_add..conversion (Conversion)               64    smul_f32_s8 
171     482    add_16 (Eltwise/add)                                      32       op_s8_s8 
172     482    add_16_0_0_val_334_conversion (Conversion)                64    smul_s8_f32 
173     485    val_334 (Nonlinearity)                                   384     op_f32_f32 
174     486    rsqrt_4 (Nonlinearity)                                   160     op_f32_f32 
175     486    rsqrt_4_0_1_mul_21_conversion (Conversion)                64    smul_f32_s8 
176     489    mul_21 (Eltwise/mul)                                   8,192       op_s8_s8 
177     492    mul_22 (Eltwise/mul)                                     256       op_s8_s8 
178     495    logits_QuantizeLinear_Input (Conv2D)               3,064,182     smul_s8_s8 
------- ------ ---------------------------------------------- ------------- -------------- 
total                                                           241,438,339 

Number of operation types
---------------- ------------- ----------- 
operation type               #           % 
---------------- ------------- ----------- 
smul_s8_s8          38,883,458       16.1% 
smul_s32_f32                64        0.0% 
op_s32_s32                  64        0.0% 
smul_s32_s8                  0        0.0% 
smul_s8_f32            215,360        0.1% 
op_f32_f32             535,201        0.2% 
smul_f32_f32       201,400,640       83.4% 
smul_f32_s8             68,288        0.0% 
op_s8_s8               335,264        0.1% 
smul_f32_s32                 0        0.0% 

Complexity report (model)
------ -------------------------------------- ------------------------- ------------------------- ----------------- 
m_id   name                                   c_macc                    c_rom                     c_id              
------ -------------------------------------- ------------------------- ------------------------- ----------------- 
55     __ids_floor_zero                       |                  0.0%   |                  0.0%   [9]               
75     val_34                                 |                  0.0%   |                  0.0%   [60, 61]          
76     __ids_cap_val                          |                  0.0%   |                  0.0%   [10]              
103    val_60                                 |                  0.0%   |                  0.0%   [13]              
114    __bool_fix_one                         |                  0.0%   |                  0.0%   [64, 65]          
40     _to_copy                               |                  0.0%   |                  0.0%   [8]               
94     val_73_DequantizeLinear_Output_const   |                  0.0%   ||||               2.4%   [6]               
95     val_81_DequantizeLinear_Output_const   |                  0.0%   ||||               2.4%   [7]               
97     embedding                              |                  0.0%   |||||||||||        6.9%   [11, 12]          
102    bitwise_and_1                          |                  0.0%   |                  0.1%   [62, 63]          
105    mean                                   |                  0.0%   |                  0.0%   [14, 15, 16]      
111    add_4                                  |                  0.0%   |                  0.0%   [17, 18]          
117    val_64                                 |                  0.0%   |                  0.0%   [19]              
119    rsqrt                                  |                  0.0%   |                  0.0%   [20, 21]          
120    val_178                                |                  0.0%   |                  0.0%   [66]              
125    mul_3                                  |                  0.0%   |                  0.0%   [22]              
128    mul_4                                  |                  0.0%   |                  0.0%   [23, 24]          
131    val_66                                 |                  0.9%   ||||||||           4.8%   [46]              
132    val_74                                 |||||||||||||||   13.9%   |                  0.0%   [4, 31, 32]       
133    val_82                                 |||||||||||||||   13.9%   |                  0.0%   [5, 25, 26]       
140    linear                                 |                  0.0%   |                  0.0%   [47]              
141    linear_1                               |                  0.0%   |                  0.0%   [33]              
142    linear_2                               |                  0.0%   |                  0.0%   [27]              
158    transpose_1                            |                  0.0%   |                  0.0%   [48]              
159    transpose_2                            |                  0.0%   |                  0.0%   [34]              
160    transpose_3                            |                  0.0%   |                  0.0%   [28]              
167    mul_5                                  |                  0.0%   |                  0.1%   [54]              
168    slice_1                                |                  0.0%   |                  0.0%   [51]              
169    slice_2                                |                  0.0%   |                  0.0%   [49]              
170    mul_7                                  |                  0.0%   |                  0.1%   [40]              
171    slice_3                                |                  0.0%   |                  0.0%   [37]              
172    slice_4                                |                  0.0%   |                  0.0%   [35]              
188    neg                                    |                  0.0%   |                  0.0%   [50]              
189    neg_1                                  |                  0.0%   |                  0.0%   [36]              
190    expand_4                               |                  0.0%   |                  0.0%   [29, 30]          
197    cat_1                                  |                  0.0%   |                  0.0%   [52]              
198    cat_2                                  |                  0.0%   |                  0.0%   [38]              
204    mul_6                                  |                  0.0%   |                  0.1%   [53]              
205    mul_8                                  |                  0.0%   |                  0.1%   [39]              
210    add_5                                  |                  0.0%   |                  0.0%   [55]              
211    add_6                                  |                  0.0%   |                  0.0%   [41]              
216    val_173                                |                  0.0%   |                  0.0%   [56, 57]          
222    expand_3                               |                  0.0%   |                  0.0%   [42]              
224    val_169                                |                  0.0%   |                  0.0%   [43]              
228    val_175                                |                  0.0%   |                  0.0%   [44, 45]          
231    val_179                                |||||||||||||||   13.9%   |                  0.0%   [3, 58, 59]       
234    val_180                                |                  0.0%   |                  0.0%   [67, 68]          
237    val_181                                |                  0.0%   |                  0.0%   [69]              
243    scaled_dot_product_attention           ||||||||||||||||  13.9%   |                  0.0%   [2, 70, 71]       
246    transpose_4                            |                  0.0%   |                  0.0%   [72]              
252    linear_3                               |                  0.9%   ||||||||           4.8%   [73]              
255    add_7                                  |                  0.0%   |                  0.0%   [74, 75]          
258    pow_2                                  |                  0.0%   |                  0.0%   [76]              
259    mean_1                                 |                  0.0%   |                  0.0%   [77, 78, 79]      
262    add_8                                  |                  0.0%   |                  0.0%   [80, 81]          
265    val_193                                |                  0.0%   |                  0.0%   [82]              
266    rsqrt_1                                |                  0.0%   |                  0.0%   [83, 84]          
269    mul_9                                  |                  0.0%   |                  0.0%   [85]              
272    mul_10                                 |                  0.0%   |                  0.0%   [86]              
275    linear_4                               ||                 1.7%   ||||||||||||||||   9.6%   [87]              
276    linear_5                               ||                 1.7%   ||||||||||||||||   9.6%   [90]              
281    val_195                                |                  0.0%   |                  0.0%   [88]              
284    silu                                   |                  0.0%   |                  0.0%   [89]              
287    mul_11                                 |                  0.0%   |                  0.0%   [91]              
290    linear_6                               ||                 1.7%   |||||||||||||||    9.5%   [92]              
293    add_9                                  |                  0.0%   |                  0.0%   [93, 94]          
296    pow_3                                  |                  0.0%   |                  0.0%   [95]              
297    mean_2                                 |                  0.0%   |                  0.0%   [96, 97, 98]      
300    add_10                                 |                  0.0%   |                  0.0%   [99, 100]         
303    val_201                                |                  0.0%   |                  0.0%   [101]             
304    rsqrt_2                                |                  0.0%   |                  0.0%   [102, 103]        
307    mul_12                                 |                  0.0%   |                  0.0%   [104]             
310    mul_13                                 |                  0.0%   |                  0.0%   [105]             
313    val_203                                |                  0.9%   ||||||||           4.8%   [106]             
314    val_211                                |                  0.4%   ||||               2.4%   [118]             
315    val_219                                |                  0.4%   ||||               2.4%   [137]             
322    linear_7                               |                  0.0%   |                  0.0%   [107]             
323    linear_8                               |                  0.0%   |                  0.0%   [119]             
324    linear_9                               |                  0.0%   |                  0.0%   [138]             
340    transpose_5                            |                  0.0%   |                  0.0%   [108]             
341    transpose_6                            |                  0.0%   |                  0.0%   [120]             
342    transpose_7                            |                  0.0%   |                  0.0%   [139]             
349    mul_14                                 |                  0.0%   |                  0.1%   [114]             
350    slice_5                                |                  0.0%   |                  0.0%   [111]             
351    slice_6                                |                  0.0%   |                  0.0%   [109]             
352    mul_16                                 |                  0.0%   |                  0.1%   [126]             
353    slice_7                                |                  0.0%   |                  0.0%   [123]             
354    slice_8                                |                  0.0%   |                  0.0%   [121]             
370    neg_2                                  |                  0.0%   |                  0.0%   [110]             
371    neg_3                                  |                  0.0%   |                  0.0%   [122]             
372    expand_6                               |                  0.0%   |                  0.0%   [140, 141]        
379    cat_3                                  |                  0.0%   |                  0.0%   [112]             
380    cat_4                                  |                  0.0%   |                  0.0%   [124]             
386    mul_15                                 |                  0.0%   |                  0.1%   [113]             
387    mul_17                                 |                  0.0%   |                  0.1%   [125]             
392    add_11                                 |                  0.0%   |                  0.0%   [115]             
393    add_12                                 |                  0.0%   |                  0.0%   [127]             
398    val_306                                |                  0.0%   |                  0.0%   [116, 117]        
404    expand_5                               |                  0.0%   |                  0.0%   [128]             
406    val_302                                |                  0.0%   |                  0.0%   [129]             
410    val_308                                |                  0.0%   |                  0.0%   [130, 131]        
413    val_312                                |||||||||||||||   13.9%   |                  0.0%   [1, 132, 133]     
416    val_313                                |                  0.0%   |                  0.0%   [134, 135]        
419    val_314                                |                  0.0%   |                  0.0%   [136]             
425    scaled_dot_product_attention_1         ||||||||||||||||  13.9%   |                  0.0%   [0, 142, 143]     
428    transpose_8                            |                  0.0%   |                  0.0%   [144]             
434    linear_10                              |                  0.9%   ||||||||           4.8%   [145]             
437    add_13                                 |                  0.0%   |                  0.0%   [146, 147]        
440    pow_4                                  |                  0.0%   |                  0.0%   [148]             
441    mean_3                                 |                  0.0%   |                  0.0%   [149, 150, 151]   
444    add_14                                 |                  0.0%   |                  0.0%   [152, 153]        
447    val_326                                |                  0.0%   |                  0.0%   [154]             
448    rsqrt_3                                |                  0.0%   |                  0.0%   [155, 156]        
451    mul_18                                 |                  0.0%   |                  0.0%   [157]             
454    mul_19                                 |                  0.0%   |                  0.0%   [158]             
457    linear_11                              ||                 1.7%   ||||||||||||||||   9.6%   [159]             
458    linear_12                              ||                 1.7%   ||||||||||||||||   9.6%   [162]             
463    val_328                                |                  0.0%   |                  0.0%   [160]             
466    silu_1                                 |                  0.0%   |                  0.0%   [161]             
469    mul_20                                 |                  0.0%   |                  0.0%   [163]             
472    linear_13                              ||                 1.7%   |||||||||||||||    9.5%   [164]             
475    add_15                                 |                  0.0%   |                  0.0%   [165, 166]        
478    pow_5                                  |                  0.0%   |                  0.0%   [167]             
479    mean_4                                 |                  0.0%   |                  0.0%   [168, 169, 170]   
482    add_16                                 |                  0.0%   |                  0.0%   [171, 172]        
485    val_334                                |                  0.0%   |                  0.0%   [173]             
486    rsqrt_4                                |                  0.0%   |                  0.0%   [174, 175]        
489    mul_21                                 |                  0.0%   |                  0.0%   [176]             
492    mul_22                                 |                  0.0%   |                  0.0%   [177]             
495    logits_QuantizeLinear_Input            ||                 1.3%   |||||||||||        7.0%   [178]             
------ -------------------------------------- ------------------------- ------------------------- ----------------- 
macc=241,438,339 weights=1,383,956 act=327,960 ram_io=0

Generated files (5)
-------------------------------------------------------- 
/opt/DEV/AI/npu_export/generated_cpu/network_data.h      
/opt/DEV/AI/npu_export/generated_cpu/network_data.c      
/opt/DEV/AI/npu_export/generated_cpu/network.h           
/opt/DEV/AI/npu_export/generated_cpu/network.c           
/opt/DEV/AI/npu_export/generated_cpu/network_details.h   
